code/models/best_model.pth (torch_old, 38268 bytes, 42 tensors)

bn_cont.weight f4 [101]
0	0x3f79fd77	0.9765238
1	0x3f833aec	1.0252357
2	0x3f67559c	0.90365005
3	0x3f754efd	0.9582365
4	0x3f800288	1.0000772
5	0x3f72fe0f	0.9491891
6	0x3f7c0d27	0.9845757
7	0x3f74d285	0.9563373
8	0x3f7412d9	0.9534126
9	0x3f72be4f	0.9482164
10	0x3f754007	0.9580082
11	0x3f84e263	1.0381588
12	0x3f805a2c	1.0027518
13	0x3f81972d	1.012426
14	0x3f7753b4	0.96612096
15	0x3f74c2d3	0.9560978
16	0x3f7e26e9	0.9927812
17	0x3f72c24c	0.94827724
18	0x3f755293	0.95829123
19	0x3f84c189	1.0371562
20	0x3f76b3bf	0.9636802
21	0x3f775181	0.9660874
22	0x3f8122d9	1.008876
23	0x3f7b5b67	0.98186344
24	0x3f6faa6b	0.9361941
25	0x3f7359f3	0.95059127
26	0x3f7c9163	0.9865934
27	0x3f79fd30	0.9765196
28	0x3f7952b2	0.9739181
29	0x3f7f5654	0.997411
30	0x3f7c7faa	0.986323
31	0x3f6ea619	0.93222195
32	0x3f7c6017	0.9858412
33	0x3f7962c0	0.97416306
34	0x3f7a91c3	0.97878665
35	0x3f793cad	0.9735821
36	0x3f7f30c0	0.9968376
37	0x3f8efb0e	1.1170366
38	0x3f7af764	0.9803374
39	0x3f764a87	0.9620747
40	0x3f749090	0.95533085
41	0x3f73c4c3	0.9522211
42	0x3f743504	0.95393395
43	0x3f80641a	1.0030549
44	0x3f7c1360	0.98467064
45	0x3f93df6d	1.1552559
46	0x3f7eab48	0.99480104
47	0x3f71e7c5	0.9449428
48	0x3f77b82f	0.96765417
49	0x3f82005d	1.0156361
50	0x3f93cedc	1.1547503
51	0x3f7a5b00	0.97795105
52	0x3f8277f6	1.0192859
53	0x3f734933	0.9503357
54	0x3f749d60	0.95552635
55	0x3f79b609	0.9754339
56	0x3f781559	0.96907574
57	0x3f81fdca	1.0155575
58	0x3f7fb12d	0.99879724
59	0x3f821937	1.0163945
60	0x3f82bba0	1.0213509
61	0x3f76cfdb	0.9641091
62	0x3f7df904	0.9920809
63	0x3f80b4d5	1.0055186
64	0x3f80f699	1.0075256
65	0x3f7477d4	0.95495343
66	0x3f7498ef	0.9554586
67	0x3f7d1c69	0.98871475
68	0x3f7d626f	0.9897832
69	0x3f6ea4a6	0.93219984
70	0x3f76de2b	0.9643275
71	0x3f7f4f4a	0.9973036
72	0x3f7734b3	0.9656479
73	0x3f81cdca	1.0140927
74	0x3f7a3b2c	0.9774654
75	0x3f8076e9	1.0036288
76	0x3f77679c	0.9664247
77	0x3f7c43dd	0.9854105
78	0x3f84e509	1.0382396
79	0x3f924084	1.1425939
80	0x3f76bb26	0.96379316
81	0x3f73910e	0.9514321
82	0x3f706c72	0.93915474
83	0x3f7cf7ea	0.98815787
84	0x3f8135b7	1.0094517
85	0x3f7262d0	0.94682026
86	0x3f7741b5	0.96584636
87	0x3f8315a0	1.0240974
88	0x3f78ac6f	0.9713811
89	0x3f7f6dd9	0.9977699
90	0x3f7eb1c1	0.9948998
91	0x3f81b745	1.0134054
92	0x3f805be0	1.0028038
93	0x3f7fd229	0.99930054
94	0x3f864874	1.0490861
95	0x3f824c86	1.0179603
96	0x3f7568b7	0.9586291
97	0x3f81aba2	1.0130503
98	0x3f7593b0	0.9592848
99	0x3f855984	1.0417943
100	0x3f76fc8c	0.96479106

bn_cont.bias f4 [101]
0	0xbc4f277f	-0.012643694
1	0xbcbcc84d	-0.02304473
2	0x3da6cfbc	0.08145091
3	0xbc10c0d9	-0.008835041
4	0x3d744ce1	0.05964363
5	0x3d93a406	0.07209019
6	0x3d4c6933	0.049905013
7	0xbda88349	-0.08228166
8	0x3d00b5e3	0.03142346
9	0xbcf32564	-0.029680915
10	0x3c8916c8	0.016734496
11	0x3c8f0b47	0.017461432
12	0x3c93a879	0.01802467
13	0x3cf296bb	0.02961289
14	0xbd4bc586	-0.04974892
15	0x3db7e50e	0.089792356
16	0xbd4766c3	-0.048681986
17	0x3ccd1a28	0.025036886
18	0xbcb98b68	-0.022649482
19	0xbd80a76d	-0.06281934
20	0xbb19708b	-0.0023413028
21	0x3d1c35dc	0.0381373
22	0xbd445509	-0.04793266
23	0x3dac059c	0.083995074
24	0x3bb714cd	0.0055871964
25	0x3d5001b4	0.050782874
26	0x3d7df2fc	0.061999306
27	0xbd358707	-0.044318225
28	0xbd320148	-0.043458253
29	0x3d54ddd8	0.05196938
30	0xbba94f59	-0.0051669297
31	0xbcbe9c1d	-0.0232678
32	0xbdb67b63	-0.08910253
33	0xbd160610	-0.036626875
34	0x3c5da02e	0.013526959
35	0x3d7609a0	0.060067773
36	0x3d08cfa1	0.033401135
37	0x3deb2e7c	0.114834756
38	0x3d8aae68	0.067715466
39	0xbcbafb75	-0.022824982
40	0xbc87d4f6	-0.01658104
41	0xbd19b62a	-0.03752724
42	0xbd54c5ef	-0.051946577
43	0x3c0b1309	0.008488425
44	0x3d669028	0.056289822
45	0x3db11947	0.086473994
46	0x3a1fd4b8	0.0006097066
47	0xbd3e2eb0	-0.046431243
48	0x3cd8a3d2	0.026445303
49	0xbd44dced	-0.048062254
50	0x3d9e7520	0.077371836
51	0x3cd11d8f	0.02552679
52	0x3d545318	0.051837057
53	0x3def200c	0.11676034
54	0xbd3ee741	-0.04660726
55	0xbb470a5f	-0.0030371172
56	0xbca2b632	-0.019862268
57	0xbd7a07a6	-0.06104245
58	0xbcf41fed	-0.02980038
59	0x3dad14c1	0.08451224
60	0x3d381a44	0.044946924
61	0x3daad72e	0.083418235
62	0x3dcde4ee	0.100534305
63	0x3d17b5ca	0.037038602
64	0xbb7bd64d	-0.0038427294
65	0x3a485ace	0.00076429255
66	0x3def1248	0.11673409
67	0x3ca546c7	0.02017535
68	0xbc9db16e	-0.019249644
69	0xbdae472a	-0.08509667
70	0xbd4dc87b	-0.05024002
71	0x3d1736fb	0.036917668
72	0x3b8bb464	0.0042634476
73	0x3d7fc509	0.062443767
74	0xbc36b130	-0.011150643
75	0x3caaee05	0.02086545
76	0xbd3a7bc3	-0.045528185
77	0xbcc394a1	-0.023874583
78	0xbdab303a	-0.08358808
79	0x3d5e0959	0.054208133
80	0xbc1ae61d	-0.009454277
81	0xbc8ae788	-0.016956106
82	0xbd88ce58	-0.06679982
83	0x3bc8397d	0.0061103688
84	0xbbe68dab	-0.007035931
85	0x3d3b1063	0.045669924
86	0xbb237ddb	-0.0024946842
87	0x3d99a472	0.075020686
88	0x3dce8d31	0.10085524
89	0x3dbd7d89	0.092524596
90	0x3cd27590	0.025690824
91	0xbc0545af	-0.00813429
92	0x3c6e702b	0.01455311
93	0xbd34be7f	-0.044126984
94	0x3dcff939	0.10154957
95	0x3d479523	0.048726212
96	0xbd5603a4	-0.052249566
97	0xbc39f98f	-0.011351003
98	0x3de1d24b	0.11026438
99	0x3d25c28a	0.04046873
100	0x3dab0948	0.0835138

bn_cont.running_mean f4 [101]
0	0xbd238356	-0.039920174
1	0xbd80c5e9	-0.06287748
2	0x3d841e22	0.0645106
3	0xbcaf4606	-0.021395694
4	0xbc960470	-0.018312663
5	0x3cc191ff	0.023629187
6	0xbbc171f3	-0.0059034764
7	0x3c253fbb	0.010085995
8	0x3d1c108f	0.03810173
9	0x3c3986f4	0.011323679
10	0xbc294005	-0.010330205
11	0xbc2aec3a	-0.010432297
12	0xbc2f8cd0	-0.010714725
13	0x3c0cf432	0.008603143
14	0x3d239f0e	0.03994661
15	0xbd31c2a3	-0.04339851
16	0xbad501eb	-0.0016251182
17	0xbccaee0a	-0.024771709
18	0xbd454132	-0.04815788
19	0xbc2b9063	-0.010471436
20	0xbd05e7de	-0.03269183
21	0x3d0b946b	0.03407709
22	0xbd8d481b	-0.06898519
23	0x3c264a71	0.010149584
24	0xbcc77c67	-0.024351312
25	0x3c64cfa7	0.013965524
26	0xbc3746ee	-0.011186345
27	0x3a8a9566	0.0010573089
28	0x3cdc2dd6	0.026877325
29	0x3d198193	0.037477087
30	0xbd771cc0	-0.060330153
31	0xbcf4eb09	-0.02989723
32	0x3cc86470	0.024461955
33	0x3af10b10	0.0018390138
34	0xbb009e6f	-0.0019625684
35	0x3b90facf	0.00442443
36	0x3bc604fa	0.0060430737
37	0xbce304e4	-0.027712293
38	0x3ca0a91e	0.019611891
39	0x3c802b89	0.01564576
40	0xbd3a35a9	-0.04546133
41	0xbcf84b1e	-0.030309256
42	0xbd4a4c58	-0.049389213
43	0x3c9b6421	0.018968644
44	0xbc51f7a3	-0.012815389
45	0x3a5cdaf2	0.00084249594
46	0x3b85bcba	0.004081336
47	0xbcca8540	-0.024721742
48	0xbc0516f4	-0.008123148
49	0x3d0f8841	0.03504205
50	0xbc00b6ea	-0.00785611
51	0xbcf94a2e	-0.03043088
52	0x3c9b9e08	0.018996254
53	0x3c418717	0.011811993
54	0xbc042972	-0.008066522
55	0xbc9ad91e	-0.018902358
56	0xbbb352ff	-0.0054725404
57	0x3bbe78a0	0.0058127195
58	0x3ce5f6f9	0.028071867
59	0xbce1263d	-0.027484054
60	0x3d1e7686	0.03868725
61	0xbc61a9dd	-0.013773409
62	0xba2d2fab	-0.00066065294
63	0x3d0ce978	0.03440234
64	0xbd169c4e	-0.036770158
65	0xbb09aa49	-0.002100604
66	0x3a427646	0.0007418137
67	0x3d08efe5	0.033431906
68	0x3bff8bfa	0.007798669
69	0xbcf5656c	-0.029955588
70	0xbc6897fd	-0.014196393
71	0x3c3f8160	0.01168856
72	0xbc37128c	-0.0111738555
73	0x3c4ff05f	0.012691586
74	0xbcc4a1b0	-0.02400288
75	0x3d5005b6	0.050786696
76	0x3c6b7a3a	0.014372403
77	0xbc516665	-0.01278076
78	0xbd60aa06	-0.054849647
79	0x3d2b3b9e	0.041804902
80	0xbc42c4dc	-0.011887755
81	0xbc980b18	-0.018559977
82	0xbc6cab94	-0.014445204
83	0xbd8ad761	-0.067793615
84	0xbc08ee2b	-0.008357565
85	0xbcc3c6de	-0.023898538
86	0xbd3e6dc8	-0.046491414
87	0xbc15cf7e	-0.009143708
88	0xbc86db39	-0.016461955
89	0xbc3d78ad	-0.011564416
90	0x3cb32986	0.021870386
91	0xbc54d7a9	-0.0129908705
92	0xbce7fa2b	-0.028317532
93	0x3d2a3d7e	0.04156255
94	0xbc0a05d8	-0.008424245
95	0xbbc66b68	-0.0060552843
96	0xbd3a5952	-0.04549534
97	0xbd44449a	-0.047916986
98	0x3d2834d4	0.041066006
99	0x3d0f4505	0.03497793
100	0xbc63bc73	-0.01389991

bn_cont.running_var f4 [101]
0	0x3f82ff25	1.0234114
1	0x3f7c8939	0.98646885
2	0x3f8112e4	1.008389
3	0x3f7b9ba5	0.9828437
4	0x3f81c70f	1.0138873
5	0x3f804d70	1.0023632
6	0x3f731ffe	0.9497069
7	0x3f7e8595	0.9942258
8	0x3f7dfac5	0.9921077
9	0x3f83dac3	1.0301136
10	0x3f7dc6de	0.9913157
11	0x3f80cce6	1.006253
12	0x3f7e4bcb	0.993344
13	0x3f8093b4	1.0045075
14	0x3f82c634	1.0216737
15	0x3f85fbd9	1.0467483
16	0x3f7a2323	0.97709864
17	0x3f80ce25	1.006291
18	0x3f7f16bf	0.9964408
19	0x3f81bc6c	1.0135627
20	0x3f77b532	0.9676086
21	0x3f83fb40	1.031105
22	0x3f815611	1.010439
23	0x3f779aa4	0.9672034
24	0x3f78edbc	0.97237754
25	0x3f81e63a	1.0148385
26	0x3f804836	1.0022037
27	0x3f7ec0ee	0.9951314
28	0x3f8284c5	1.0196768
29	0x3f827244	1.0191121
30	0x3f80ffd1	1.0078069
31	0x3f8366cc	1.0265746
32	0x3f80e5fe	1.0070188
33	0x3f7c4e2b	0.98556775
34	0x3f81ce83	1.0141147
35	0x3f7f3684	0.9969256
36	0x3f804572	1.0021193
37	0x3f78e559	0.97224957
38	0x3f7e65aa	0.9937388
39	0x3f825224	1.0181317
40	0x3f7d065a	0.98837817
41	0x3f823c4b	1.017465
42	0x3f80434a	1.0020535
43	0x3f7c20d0	0.9848757
44	0x3f802169	1.0010196
45	0x3f7fff93	0.9999935
46	0x3f83868c	1.0275435
47	0x3f83c4fe	1.0294492
48	0x3f801382	1.0005953
49	0x3f80072e	1.0002191
50	0x3f803875	1.0017229
51	0x3f7edc69	0.9955507
52	0x3f7db4ae	0.9910382
53	0x3f800ce9	1.000394
54	0x3f702629	0.9380823
55	0x3f758a99	0.9591461
56	0x3f7b895e	0.9825648
57	0x3f82e22f	1.0225276
58	0x3f72fc8a	0.94916594
59	0x3f7c3f69	0.98534256
60	0x3f7a20a7	0.97706074
61	0x3f83f2ff	1.0308532
62	0x3f820c6a	1.0160038
63	0x3f79d76f	0.9759435
64	0x3f7db40b	0.9910285
65	0x3f833da7	1.025319
66	0x3f80935b	1.0044969
67	0x3f6fc32b	0.9365718
68	0x3f83a865	1.0285765
69	0x3f816782	1.0109713
70	0x3f79b356	0.9753927
71	0x3f80275e	1.0012014
72	0x3f77993c	0.9671819
73	0x3f80b0ad	1.0053917
74	0x3f7eb0d1	0.9948855
75	0x3f84ac75	1.036513
76	0x3f805fc8	1.002923
77	0x3f83eb32	1.0306151
78	0x3f7f25ae	0.9966687
79	0x3f833128	1.0249376
80	0x3f839440	1.0279617
81	0x3f7a3660	0.9773922
82	0x3f810a41	1.0081254
83	0x3f805166	1.0024841
84	0x3f82cbee	1.0218484
85	0x3f7ba2c0	0.9829521
86	0x3f7fff67	0.9999909
87	0x3f798059	0.9746147
88	0x3f7fbb89	0.9989553
89	0x3f7fd092	0.9992763
90	0x3f7bbb85	0.9833301
91	0x3f80c153	1.0058998
92	0x3f788bae	0.97088134
93	0x3f7e5077	0.9934153
94	0x3f80be16	1.005801
95	0x3f7594a3	0.95929927
96	0x3f830bc2	1.0237963
97	0x3f7e53e9	0.99346787
98	0x3f7b68fa	0.98207057
99	0x3f8629ab	1.0481466
100	0x3f82656a	1.0187199

layers.0.weight f4 [20, 101]
0	0x3d5e1494	0.054218844
1	0xbe0312df	-0.12800168
2	0xbaec8d24	-0.0018047434
3	0xbd786fa1	-0.060653333
4	0x3dc91703	0.09818842
5	0xbcb5eb97	-0.022207065
6	0xbc57bfd6	-0.013168296
7	0x3dc49fa7	0.09600764
8	0x3cd5a5a7	0.026079966
9	0xbdbb56f4	-0.09147444
10	0x3c2f96bb	0.010717089
11	0xbdc04dfe	-0.09389876
12	0xbd6b8320	-0.057498097
13	0x3beb9304	0.0071891565
14	0xbd8adf73	-0.06780901
15	0xbcd4adca	-0.025961775
16	0x3c51ea1d	0.012812165
17	0xbc37c559	-0.011216485
18	0xbc318422	-0.010834726
19	0xbe3caaa5	-0.1842447
20	0xbd1c2fce	-0.038131528
21	0xbaa8515f	-0.0012841633
22	0x3cd63f38	0.026153192
23	0xbd806033	-0.062683485
24	0xbbec61a8	-0.00721379
25	0xbd4785d9	-0.04871163
26	0x3d48ac74	0.04899259
27	0x3b35f1a3	0.0027762435
28	0x3d1f031c	0.038821325
29	0xbdb3a128	-0.087709725
30	0xbd7c46ad	-0.06159084
31	0x3d395582	0.045247562
32	0xbcdcd58a	-0.026957292
33	0x3dcfd8e6	0.10148792
34	0x3c43563d	0.011922416
35	0xbb5f0691	-0.0034031013
36	0x3a94ccec	0.0011352575
37	0xbe078b92	-0.13236836
38	0xbc9da7ca	-0.019245047
39	0xbbe4d4ae	-0.006983361
40	0xbd54569f	-0.05184042
41	0xbdaa36e1	-0.083112486
42	0x3d3da2b0	0.04629773
43	0xbcaee1b3	-0.021347856
44	0xbcdf3ede	-0.027251657
45	0xbdaf78a6	-0.08567934
46	0x3d9e28c1	0.07722617
47	0xbd6ccfdd	-0.05781542
48	0x3d8fa106	0.07013135
49	0x3daa0f94	0.083037525
50	0xbd3f87f4	-0.046760514
51	0x3b21fe13	0.002471809
52	0x3cf52e71	0.029929372
53	0x3c22c11f	0.009933739
54	0xbdaa69c1	-0.08320952
55	0x3dc88b31	0.09792174
56	0xbca7e028	-0.020492628
57	0xbb8c32bb	-0.0042785085
58	0x3ddd97c7	0.10819965
59	0xbda01e5a	-0.07818289
60	0xbd30c31f	-0.043154832
61	0x3d680b3c	0.05665134
62	0x3cec4817	0.028842969
63	0xbcfa63be	-0.030565139
64	0x397b223f	0.00023949983
65	0x3db00295	0.085942425
66	0x3dc42192	0.095767155
67	0xbce3c128	-0.027802065
68	0xbd2dad94	-0.042401865
69	0xbc902a0b	-0.017598173
70	0x3c8eb25d	0.017419035
71	0x3d4eb019	0.05046091
72	0xbc06cc2a	-0.008227387
73	0xbc9d5600	-0.019206047
74	0x3d061f8e	0.032744937
75	0xbd960338	-0.07324833
76	0x3c979169	0.018501954
77	0xbca69860	-0.02033633
78	0x3d4b0c0c	0.049572036
79	0xbdc7a319	-0.09747905
80	0xbdbb25d6	-0.09138076
81	0x3d45b06c	0.048263952
82	0x3c9ff0d9	0.019524025
83	0xbda24c36	-0.07924692
84	0xbd8d87d6	-0.06910674
85	0xbd5d51e8	-0.05403319
86	0x3d4d395d	0.050103534
87	0x3c957a04	0.018246658
88	0x3d1959a9	0.037439022
89	0xbdcccffe	-0.10000609
90	0xbd5f2812	-0.054481573
91	0x3c413e25	0.011794602
92	0x3c80b128	0.015709475
93	0x3c6ea312	0.014565246
94	0x3d2e345e	0.04253041
95	0xbdb34a12	-0.08754362
96	0x3d2ebb7f	0.04265928
97	0xbe16ca5f	-0.14725636
98	0x3d5ff65c	0.054678306
99	0x3c34797a	0.01101529
100	0x3da84f11	0.08218206
101	0xbdaee3d8	-0.085395515
102	0xbd123559	-0.035695408
103	0xbb6ebc4b	-0.003642815
104	0xbc943545	-0.018091807
105	0x3de5f10c	0.11227617
106	0xbc5e4da7	-0.013568318
107	0x3d4fc1e6	0.050722025
108	0x3cac0042	0.020996217
109	0x3c5608bb	0.013063605
110	0xbc65a749	-0.014016935
111	0x3d632103	0.055451404
112	0xba852234	-0.0010157288
113	0xbd839cfa	-0.06426425
114	0x3d1a1922	0.037621625
115	0xbd905dfa	-0.070491746
116	0x3dce2d77	0.100672655
117	0xbdadd21f	-0.08487343
118	0x3b21fa2f	0.0024715771
119	0xbd44222a	-0.047884144
120	0xbcc03f94	-0.023467816
121	0xbd53fe6a	-0.0517563
122	0x3d0ea2fb	0.0348234
123	0xbb092fbe	-0.0020932998
124	0xbd9f6a57	-0.077839546
125	0x3d4b0709	0.049567256
126	0xbce8945c	-0.028391056
127	0xbd390e60	-0.045179725
128	0xbd27b484	-0.040943637
129	0x3dc0bbf6	0.09410851
130	0xbbdeda7c	-0.0068009477
131	0xbcfb7954	-0.030697502
132	0x3d6079c6	0.054803632
133	0xbd26a241	-0.04068208
134	0x3d24159e	0.04005968
135	0x3cbab54f	0.022791533
136	0xbd4e79bf	-0.050409075
137	0xbe024b05	-0.1272393
138	0x3d733cb4	0.059384063
139	0xbca0fcb7	-0.019651754
140	0xbdae3b0d	-0.08507357
141	0x3d6179d1	0.055047814
142	0x3daa5717	0.08317392
143	0x3d30f66c	0.043203756
144	0x3d84501f	0.064605944
145	0xbd61cf5b	-0.05512939
146	0x3dd04424	0.10169247
147	0x3d9a0780	0.07520962
148	0xbca39f6f	-0.019973485
149	0x3d105eb3	0.035246562
150	0x3dbd0afe	0.09230612
151	0x3e372f61	0.17889167
152	0xbd3e036f	-0.046389993
153	0xbc18eb71	-0.009333477
154	0x3d8bcc0b	0.068260275
155	0xbc4bda42	-0.012442173
156	0x3df88173	0.121340655
157	0x3dd1d303	0.102453254
158	0xbd5177be	-0.051139586
159	0x3d7d60a6	0.06185975
160	0xbb882e2e	-0.0041558957
161	0x3d66c0f9	0.056336377
162	0x3d62aca3	0.05534042
163	0x3ca3ec20	0.020010054
164	0x3dab746f	0.08371817
165	0x3c9cbc31	0.019132705
166	0xbd95b323	-0.07309558
167	0x3dbf695c	0.093462676
168	0xbcf8eaa2	-0.03038532
169	0x3d1e5c5a	0.038662292
170	0x3d05c5ce	0.032659344
171	0x3d47437b	0.04864834
172	0xbd1e6824	-0.038673535
173	0x3da957d4	0.08268705
174	0x3c863408	0.016382232
175	0xbd11d832	-0.03560657
176	0x3ca0c349	0.01962437
177	0x3cb6f80f	0.02233508
178	0xbd1cf732	-0.03832168
179	0xbdf4212c	-0.119203895
180	0x3d97b3a2	0.07407309
181	0xbd8f607f	-0.07000827
182	0x3d052cff	0.032513615
183	0xbd50ae23	-0.05094732
184	0xbd85ccc0	-0.065331936
185	0xbcd5a3ed	-0.026079142
186	0x3d8235ab	0.063578926
187	0x3d0c69ca	0.034280576
188	0x3d5effd1	0.054443184
189	0x3d81fd15	0.063471
190	0x3da9bd1c	0.08288023
191	0x3ce209ec	0.027592622
192	0x3d2c6991	0.042092863
193	0xbba344f7	-0.0049825865
194	0x3cfd6df0	0.030936211
195	0x3dc37f59	0.09545774
196	0x3d8ece5e	0.06972955
197	0x3c90e1a6	0.017685723
198	0xbb8abe6d	-0.0042341263
199	0xbd869922	-0.065721765
200	0xbdc3ac8f	-0.09554397
201	0xbca50b7a	-0.020147074
202	0xbd8ad244	-0.06778386
203	0x3c51bfcb	0.012802075
204	0x3c9883a8	0.018617466
205	0x3c9c71b6	0.01909719
206	0x3db65c1b	0.089042865
207	0xbd406a26	-0.04697623
208	0x3d0d49b1	0.034494106
209	0xbdcdcf50	-0.10049307
210	0x3d7e61e7	0.062105086
211	0xbc153982	-0.009107949
212	0xbde49dae	-0.111628875
213	0x3d575505	0.052571315
214	0x3cc5313c	0.024071328
215	0xbdd80535	-0.10547868
216	0x3d6f97f6	0.05849453
217	0x3cacdc2d	0.021101082
218	0x3dd5485a	0.104141906
219	0x3d1b1f50	0.03787166
220	0xbda60fbc	-0.0810847
221	0x3d462aeb	0.048380774
222	0xbd2bd38b	-0.04194979
223	0x3d48cd04	0.049023643
224	0x3da53bf5	0.080680765
225	0x3d9f3bbc	0.07775065
226	0x3da65719	0.08122081
227	0x3daa479c	0.0831444
228	0x3cf7965a	0.03022306
229	0xbd6c80ea	-0.05774013
230	0xbd8d3e26	-0.068966195
231	0xbcb36500	-0.021898746
232	0xbd108c76	-0.035290204
233	0x3da2f054	0.07955995
234	0xbdb2ef73	-0.087370776
235	0xbd3b7191	-0.045762602
236	0xbd85b56b	-0.06528743
237	0x3d43dacf	0.047816094
238	0x3cc7f2e8	0.024407819
239	0xbc26024d	-0.0101323845
240	0x3d948ccf	0.072534196
241	0xbcb88cb2	-0.022528026
242	0xbcc7eb73	-0.024404263
243	0xbcaad7c1	-0.020854833
244	0x3cef9c30	0.02924928
245	0x3bd96fce	0.0066356426
246	0x3d1e2b79	0.038615678
247	0xbe14734b	-0.14497106
248	0xbe09282a	-0.13394228
249	0x3c84323b	0.016137233
250	0x3ca00361	0.019532861
251	0xbd10f8d0	-0.035393536
252	0xbc846deb	-0.016165694
253	0xbd4687ed	-0.048469473
254	0x3d8fb66e	0.070172176
255	0xbc9883a4	-0.018617459

layers.0.bias f4 [20]
0	0x3dd09937	0.101854734
1	0x3da58a44	0.08083013
2	0x3dfeb6c2	0.12437202
3	0x3d8e5aa2	0.069508806
4	0x3e273775	0.16329749
5	0x3dc8fe08	0.098140776
6	0xbcb71f3b	-0.022353759
7	0xbc342fd9	-0.010997736
8	0xbd05fbea	-0.032710947
9	0xbc94aa48	-0.018147603
10	0xbc356df6	-0.01107358
11	0xbc95962e	-0.018260088
12	0xbd88c2cd	-0.0667778
13	0x3dacaf3f	0.08431863
14	0xbda181c9	-0.07886083
15	0x3d2e638e	0.04257541
16	0x3c50f5fd	0.012753961
17	0xbd9ac923	-0.07557895
18	0x3da2135a	0.07913847
19	0xbcd4d62a	-0.025981028

layers.2.weight f4 [20]
0	0x3f7d9c20	0.9906635
1	0x3f79fe6a	0.9765383
2	0x3f71362b	0.9422328
3	0x3f7c1761	0.98473173
4	0x3f911666	1.133496
5	0x3f7ee71f	0.9957141
6	0x3f780b25	0.96892005
7	0x3f758cbd	0.95917875
8	0x3f74ebe3	0.95672435
9	0x3f82838e	1.0196397
10	0x3f6d07e8	0.9259019
11	0x3f7095c3	0.9397852
12	0x3f826869	1.0188113
13	0x3f787ac2	0.97062314
14	0x3f87e6d0	1.0617313
15	0x3f84b5b3	1.036795
16	0x3f88a9fa	1.0676873
17	0x3f82e5f0	1.0226421
18	0x3f6fefe5	0.93725425
19	0x3f6e3ec8	0.93064547

layers.2.bias f4 [20]
0	0x3d186233	0.037203025
1	0x3d142d05	0.036175746
2	0x3d895d81	0.067072876
3	0x3db6a8d9	0.08918924
4	0xbd13685a	-0.03598819
5	0xbdd69d77	-0.10479253
6	0x3d656bc5	0.05601098
7	0x3d75235a	0.059848167
8	0x3e105261	0.14093925
9	0xbc99c70a	-0.018771667
10	0x3ab419d1	0.0013740604
11	0x3d6d092f	0.057870086
12	0x3d15ddee	0.0365886
13	0xbdaf2f08	-0.085538924
14	0xbdc7c9c4	-0.097552806
15	0x3d5bcbb2	0.053661056
16	0x3c01d162	0.007923456
17	0x3d83ffdd	0.064452864
18	0xbd0bcdbb	-0.034131747
19	0xbd8a6191	-0.067568906

layers.2.running_mean f4 [20]
0	0x3e954b4a	0.29159003
1	0x3ea6fb17	0.3261344
2	0x3ebe097c	0.3711661
3	0x3e950de9	0.29112175
4	0x3ef82bd0	0.48470926
5	0x3eb06f8e	0.3446011
6	0x3e8208fc	0.2539748
7	0x3e80e17f	0.2517204
8	0x3e5c835e	0.21534488
9	0x3e89f482	0.26944357
10	0x3e582690	0.2110846
11	0x3ea1f570	0.31632566
12	0x3e6a13f2	0.22859171
13	0x3e8a9b48	0.27071595
14	0x3e675ebb	0.2259473
15	0x3e9587ae	0.29205078
16	0x3e69a42e	0.22816536
17	0x3e5dd099	0.21661605
18	0x3e92df1c	0.28685844
19	0x3e744ffd	0.23858638

layers.2.running_var f4 [20]
0	0x3e16c994	0.14725333
1	0x3e285be6	0.16441306
2	0x3e45f901	0.19333269
3	0x3e1b22e5	0.1515003
4	0x3e6f6e3c	0.23381895
5	0x3e38721e	0.18012282
6	0x3e0e3532	0.1388748
7	0x3e1aa1b0	0.15100741
8	0x3defdd74	0.11712161
9	0x3e21b7c3	0.15792756
10	0x3de53803	0.11192324
11	0x3e3b9b89	0.1832105
12	0x3e0475d5	0.12935574
13	0x3e1e93f4	0.15486127
14	0x3e03dfd2	0.1287835
15	0x3e1f40a3	0.15552
16	0x3df000e8	0.11718923
17	0x3df970dc	0.12179729
18	0x3e1ae394	0.15125877
19	0x3e013c48	0.12620652

layers.3.weight f4 [10, 20]
0	0x3dbb2d22	0.09139468
1	0xbde765cb	-0.11298712
2	0x3dca0979	0.09865088
3	0x3da253fd	0.07926176
4	0xbe8ebb57	-0.27877304
5	0xbe634c4f	-0.22197078
6	0xbe5a89a4	-0.21341568
7	0xbe2ce2e0	-0.16883421
8	0x3dcb5e67	0.09930115
9	0x3e3629ec	0.1778943
10	0x3dc1aad1	0.09456409
11	0xbe12f325	-0.14350565
12	0xbd9166d2	-0.070996895
13	0x3d6df4c5	0.05809476
14	0x3d9ef308	0.07761198
15	0xbe238a05	-0.15970619
16	0x3e1bb5ee	0.1520612
17	0x3dfdb433	0.12387886
18	0xbdd60912	-0.10450949
19	0xbdb0ba08	-0.08629233
20	0x3d891c7f	0.06694888
21	0xbdbdca09	-0.09267051
22	0x3d0b7102	0.03404332
23	0xbd914e08	-0.070949614
24	0x3e193b48	0.1496402
25	0xbe4004ac	-0.18751782
26	0x3e4acf12	0.19805554
27	0xbd65b432	-0.05608005
28	0x3d3e5114	0.04646404
29	0xbe046b91	-0.12931658
30	0x3d01a6e4	0.0316533
31	0x3e3c01e8	0.18360102
32	0x3e82a8d9	0.25519446
33	0xbe7769e2	-0.24161485
34	0x3c20a623	0.009805235
35	0x3e38998d	0.18027325
36	0x3e3c2d6e	0.18376705
37	0x3c944fa3	0.01810438
38	0xbe5d1464	-0.2158981
39	0xbd0ae942	-0.03391386
40	0xbd5828fd	-0.052773464
41	0xbdaa67e8	-0.083206
42	0xbd89cc51	-0.067284234
43	0xbdb4205d	-0.08795235
44	0x3defc39c	0.117072314
45	0xbdac3bd4	-0.08409849
46	0x3e15f489	0.14644064
47	0xbe598d41	-0.2124529
48	0xbd9579b5	-0.072986044
49	0xbe43d966	-0.191259
50	0x3d99d818	0.0751192
51	0xbd7aca08	-0.06122783
52	0x3dd45aa2	0.10368849
53	0xbe0349bf	-0.128211
54	0xbdc7439f	-0.097296946
55	0x3e70064a	0.23439899
56	0x3e9129d5	0.28352228
57	0x3d12a5ae	0.035802536
58	0xbe249259	-0.16071452
59	0x3e202fd1	0.1564324
60	0x3d6084eb	0.05481426
61	0xbe0013dd	-0.12507577
62	0x3e03998f	0.12851547
63	0x3e13913e	0.14410874
64	0xbe6a9f88	-0.22912419
65	0xbe288178	-0.16455638
66	0x3ce75360	0.028237998
67	0x3dd694d4	0.104776055
68	0x3d394171	0.045228425
69	0xbe3800a2	-0.17968991
70	0xbdf5cc50	-0.1200186
71	0xbcba6ee1	-0.02275795
72	0x3db66ee3	0.08907869
73	0x3da6c4da	0.08143015
74	0xbe83d078	-0.25744987
75	0x3d6dae85	0.058027763
76	0x3e57a141	0.21057607
77	0x3e21d4dd	0.15803857
78	0x3dcebc30	0.10094488
79	0x3e087518	0.13325918
80	0xbdca7ca7	-0.09887057
81	0x3def9bcf	0.1169964
82	0xbe5268a8	-0.20547736
83	0x3cd6d819	0.02622609
84	0x3e392c70	0.18083358
85	0xbe095f82	-0.1341534
86	0x3e1d58e0	0.15365934
87	0xbd8b1948	-0.067919314
88	0x3deb9a33	0.115040205
89	0xbd88de0c	-0.06682977
90	0x3db4f584	0.08835891
91	0x3db95e14	0.09051147
92	0xbdca9a18	-0.09892672
93	0x3cc72ac2	0.02431238
94	0xbe86ee3f	-0.26353642
95	0x3e1799df	0.14804791
96	0xbe24f296	-0.16108164
97	0xbdabea65	-0.083943166
98	0xbd001e66	-0.03127899
99	0xbe5b95b0	-0.2144382
100	0x3dbbb652	0.09165634
101	0x3e236716	0.15957293
102	0x3def0f37	0.11672824
103	0xbe379c98	-0.1793083
104	0xbe4487e2	-0.1919246
105	0xbd03cfcd	-0.032180596
106	0x3dfc9588	0.12333208
107	0x3e09d5fe	0.13460538
108	0x3dd38bee	0.10329424
109	0x3e393a6c	0.18088692
110	0x3e426241	0.18982793
111	0xbd736a70	-0.05942768
112	0x3e2c88bc	0.16849035
113	0xbe1ee8cf	-0.15518497
114	0xbd4d2a7a	-0.050089337
115	0xbe432a2e	-0.19059059
116	0xbe80d4d1	-0.25162366
117	0xbe1eddbf	-0.15514277
118	0x3e678983	0.2261105
119	0xbe4fadd3	-0.20281152
120	0xbe3e81cb	-0.186042
121	0xbbcf22ab	-0.0063212714
122	0x3cbc0a02	0.02295399
123	0x3e6e2377	0.23255716
124	0x3df59376	0.119910166
125	0x3e50de22	0.20397237
126	0xbc35c6a8	-0.011094727
127	0xbc007942	-0.00784141
128	0x3e1c81dc	0.15283912
129	0x3d93790e	0.07200824
130	0x3d815b4f	0.06316244
131	0x3d91ce6b	0.07119449
132	0xbdd427ab	-0.103591286
133	0xbd98abec	-0.074546665
134	0x3db40d62	0.08791615
135	0x3cf21c89	0.029554622
136	0xbe4fcdfb	-0.20293419
137	0x3e24f8bd	0.16110511
138	0xbe762e7f	-0.24041174
139	0xbdc64932	-0.0968193
140	0x3d6cc1c6	0.057801984
141	0x3cd6e8ef	0.026234118
142	0x3d8b97f1	0.0681609
143	0x3e5715e5	0.21004446
144	0x3cae59ce	0.021283057
145	0xbdde1910	-0.10844624
146	0x3e164f53	0.14678697
147	0x3e619f24	0.22033364
148	0x3e55f599	0.2089447
149	0xbe5912f8	-0.21198642
150	0xbe424595	-0.18971856
151	0x3e1ae7d7	0.15127502
152	0x3defd2da	0.117101386
153	0xbe14f14e	-0.14545175
154	0xbe75c095	-0.23999245
155	0x3e0e46a9	0.13894142
156	0x3cef4502	0.02920771
157	0x3d9eb523	0.07749393
158	0xbd8aae67	-0.06771546
159	0xbd766a9e	-0.06016027
160	0xbc081c2c	-0.008307498
161	0xbd6d45ce	-0.0579279
162	0xbc3ace4d	-0.011401725
163	0xbd9f001d	-0.077636935
164	0x3e6ec948	0.2331897
165	0x3c564d19	0.013079905
166	0x3d7ae35c	0.061251983
167	0xbd8647a3	-0.06556632
168	0x3d5949d0	0.05304891
169	0xbcda98d0	-0.026684195
170	0x3dcd3957	0.10020702
171	0x3e16d1db	0.14728491
172	0x3debc66f	0.115124576
173	0x3e2a0628	0.16603911
174	0xbdad8073	-0.08471765
175	0xbd6a0b05	-0.057139415
176	0xbcd5531d	-0.026040608
177	0xbc3f2e71	-0.011668787
178	0x3dc6a97a	0.09700294
179	0xbe54913a	-0.20758525
180	0x3ceee543	0.029162055
181	0x3dca596a	0.09880336
182	0x3d6a3416	0.05717858
183	0xbd8009ce	-0.0625187
184	0xbe2273f6	-0.15864548
185	0xbd0bed8d	-0.034162093
186	0x3e029603	0.12752537
187	0xbc1152ea	-0.008869866
188	0x3d9236b1	0.07139338
189	0x3d52bf96	0.05145224
190	0x3de3bd72	0.11120118
191	0xbd2305d2	-0.039800473
192	0x3dfd795e	0.123766646
193	0xbe1374d6	-0.14400038
194	0xbca75226	-0.020424914
195	0xbc4bb63d	-0.012433586
196	0xbe548a2d	-0.20755835
197	0xbc5f3620	-0.013623744
198	0x3db3bbe6	0.08776073
199	0xbdc18696	-0.09449498

layers.3.bias f4 [10]
0	0x3e7ce098	0.2469505
1	0x3e44941a	0.19197121
2	0xbdd30ac1	-0.103047855
3	0x3de73917	0.11290186
4	0x3e0b18db	0.135837
5	0xbddefab5	-0.10887662
6	0xbd89fa88	-0.06737238
7	0xbd0cd902	-0.034386642
8	0x3d68a2dd	0.056795944
9	0xbc2425f9	-0.010018819

layers.5.weight f4 [10]
0	0x3f81b1ad	1.0132347
1	0x3f65b761	0.8973294
2	0x3f5d27cd	0.86388856
3	0x3f68cb31	0.90935045
4	0x3f84da70	1.0379162
5	0x3f6a6711	0.91563517
6	0x3f6eb6e2	0.9324781
7	0x3f6f1158	0.9338584
8	0x3f7ed564	0.9954436
9	0x3f685120	0.90748787

layers.5.bias f4 [10]
0	0x3dd0bbc6	0.10192065
1	0xbea7a60d	-0.32743874
2	0x3ec50c33	0.3848587
3	0xbe926e1f	-0.2859964
4	0xbec2540c	-0.37954748
5	0xbea2cb03	-0.3179551
6	0xbedb0f6c	-0.42785203
7	0x3e9f04a9	0.31058243
8	0x3ea678ce	0.32514042
9	0x3e9cb811	0.30609182

layers.5.running_mean f4 [10]
0	0x3f088217	0.533235
1	0x3edc9adf	0.43086907
2	0x3e59f5f8	0.21285236
3	0x3ec5a9ad	0.38606015
4	0x3edd14ea	0.4318002
5	0x3e8db3c6	0.2767622
6	0x3e8329e9	0.25617912
7	0x3ebcd971	0.36884645
8	0x3e6d401e	0.2316899
9	0x3e4eb63b	0.20186703

layers.5.running_var f4 [10]
0	0x3eb9e3c3	0.3630658
1	0x3e75f867	0.24020539
2	0x3e032373	0.12806492
3	0x3e620494	0.22072059
4	0x3e8b899e	0.2725343
5	0x3e4bdce8	0.19908488
6	0x3e1ea812	0.15493801
7	0x3e93e82e	0.28888077
8	0x3dd7bd19	0.105341144
9	0x3da76348	0.08173233

layers.6.weight f4 [3, 10]
0	0xbdfc5036	-0.123199865
1	0xbe299acb	-0.16562955
2	0x3d7a0385	0.061038513
3	0xbeb9e1b4	-0.3630501
4	0xbad07c84	-0.0015906249
5	0xbeb3509c	-0.35022438
6	0x3e3e8169	0.18604054
7	0x3eaa12cc	0.33217466
8	0xbd2c4807	-0.042060878
9	0x3d8f4460	0.06995463
10	0xbd4eff69	-0.050536547
11	0x3eea3ac8	0.45747972
12	0xbec82b16	-0.39095372
13	0x3ebd8eab	0.3702291
14	0x3ebe901c	0.37219322
15	0x3ead8fba	0.33898717
16	0x3f054560	0.5205898
17	0xbf093c95	-0.53608066
18	0xbeda6a30	-0.4265914
19	0xbed7aa0a	-0.42121917
20	0x3eaa156e	0.33219475
21	0xbde85fa5	-0.11346368
22	0x3e03a276	0.12854943
23	0xbc25af64	-0.010112617
24	0xbe84767a	-0.2587164
25	0xbe13edf9	-0.14446248
26	0x3d9d267c	0.07673356
27	0xbd7d84c6	-0.0618942
28	0xbe576743	-0.21035485
29	0x3e34bcd0	0.17650151

layers.6.bias f4 [3]
0	0x3f01886c	0.5059879
1	0xbe02da5d	-0.12778611
2	0x3e8f0d0f	0.2793965

exp_avg f4 [20, 101]
0	0xbba31ea4	-0.004978018
1	0x3b215f1c	0.002462334
2	0xbae7a1b8	-0.0017672097
3	0xbb2a8acd	-0.0026022673
4	0x39e28867	0.00043207707
5	0xbb3bb9e2	-0.002864473
6	0xb9b79514	-0.00035015552
7	0x3b84b677	0.004050072
8	0xb89456d6	-7.0733644e-05
9	0x3ac3fa58	0.0014951928
10	0xb7011cb6	-7.695684e-06
11	0xbad36332	-0.0016127585
12	0x3b564627	0.0032695623
13	0x3b16a303	0.0022985346
14	0xbb580b28	-0.0032965634
15	0xbb64d08d	-0.0034914345
16	0x3a3563f0	0.0006919494
17	0xbb3ec9b3	-0.0029111921
18	0x3b485822	0.003057011
19	0xbb14d174	-0.0022707852
20	0x38a0cda3	7.667697e-05
21	0x3bdc31f5	0.0067198225
22	0xb98c2936	-0.00026733585
23	0xbadecf87	-0.0016999104
24	0xbb2788be	-0.0025563682
25	0xbb12c8be	-0.0022397484
26	0x394c9575	0.00019510633
27	0xbb696bf6	-0.0035617328
28	0x3be0b5e8	0.0068576224
29	0xbb2f1813	-0.002671723
30	0xbbb43bba	-0.005500284
31	0x3b45746b	0.0030129205
32	0xb90426ad	-0.00012602909
33	0xb9c4219f	-0.00037409083
34	0x3b21385d	0.0024600246
35	0x3b52d25a	0.0032168836
36	0xbb1cf30a	-0.0023948574
37	0x3bab4611	0.0052268584
38	0x3ab21a13	0.0013588093
39	0x3b3b7f21	0.002860971
40	0x3b9d9029	0.004808445
41	0x397f88bb	0.00024369631
42	0x3957c69d	0.00020577987
43	0x3b50efbc	0.0031881174
44	0x3b1552fa	0.0022785054
45	0xbb1668c6	-0.0022950633
46	0x3b0e10ba	0.002167745
47	0xba92366e	-0.0011155137
48	0xbbcaa1df	-0.0061838473
49	0xbb3f29da	-0.0029169233
50	0x3bcc9a9b	0.0062440163
51	0x39d79078	0.00041115633
52	0x39b75e25	0.00034974623
53	0xbab82d80	-0.0014051646
54	0x398d552f	0.00026957082
55	0xba596cf1	-0.00082941266
56	0x3a251b76	0.00062983425
57	0x3b116c59	0.0022189824
58	0xbb36566c	-0.0027822508
59	0x3b81b251	0.0039580246
60	0xb9fe76dd	-0.00048535215
61	0xb9d0fd91	-0.00039861773
62	0x37138adc	8.7942135e-06
63	0x38e1e8e5	0.00010772216
64	0x3860c710	5.3591153e-05
65	0x3b736071	0.003713634
66	0xbb1e6c3e	-0.0024173404
67	0x3b839a3d	0.0040161894
68	0xba9af4f6	-0.0011822272
69	0xb816511f	-3.5838337e-05
70	0x39e5c6b6	0.00043826335
71	0xbad28175	-0.001606031
72	0xbb8b565b	-0.0042522377
73	0x3b9e8e7a	0.004838762
74	0x3b115ec5	0.0022181731
75	0x3b85eb2b	0.004086872
76	0xbbd8a7f7	-0.00661182
77	0x3ab12848	0.0013516033
78	0xbb5e4d6d	-0.003392066
79	0x3b4bed8f	0.0031116938
80	0x39836f93	0.00025069396
81	0xbb6def27	-0.0036305876
82	0x38c3a956	9.329866e-05
83	0xbb0871a6	-0.0020819693
84	0x3b95ff63	0.0045775636
85	0x3b4ba728	0.0031074975
86	0xbb050917	-0.0020299607
87	0xb9c1e424	-0.00036981807
88	0x3bae2838	0.005314853
89	0xb9d60339	-0.00040819662
90	0xbb37f4ce	-0.00280695
91	0xba8948d3	-0.0010473974
92	0x3b60b5c5	0.003428803
93	0x3b378782	0.0028004353
94	0xbb1cb506	-0.002391161
95	0x3aa40e41	0.0012516455
96	0xbb420b9d	-0.0029608973
97	0x3b11e307	0.0022260563
98	0x3ad370f1	0.0016131682
99	0x3bda2f84	0.0066584963
100	0xba0aaadc	-0.0005289742
101	0x3a95b96a	0.0011423056
102	0xbac3c259	-0.001493524
103	0xb8a037cc	-7.6397875e-05
104	0xbaa061cb	-0.0012236176
105	0xbbe868f3	-0.007092589
106	0x3b0bb42a	0.0021317103
107	0xbaff33e3	-0.001947042
108	0x3b3aa501	0.0028479698
109	0x3b5f8f97	0.0034112686
110	0x3b8becba	0.0042701634
111	0xbb5a7f96	-0.0033340207
112	0xbb5ed1d5	-0.0033999581
113	0xba39e0f0	-0.0007090708
114	0xbb252daf	-0.0025204231
115	0x3bc5166e	0.0060146367
116	0xba38ada9	-0.00070449203
117	0xbb8ca389	-0.004291956
118	0x3a1b7c11	0.0005931268
119	0x3b183894	0.0023227083
120	0x3b5106ef	0.0031895002
121	0x3b6dfd21	0.0036314207
122	0xbb56f2f5	-0.0032798622
123	0x3ac47690	0.0014988948
124	0x3af2bf1c	0.001852009
125	0x381af3de	3.694358e-05
126	0xba85ee81	-0.0010218174
127	0x3b93b157	0.0045072245
128	0xbaa62996	-0.0012677188
129	0xba956549	-0.0011397983
130	0x3b4c53c5	0.003117786
131	0xbab2e45d	-0.001364838
132	0xba6a9933	-0.000894922
133	0xb8b50cd4	-8.633142e-05
134	0xba09df88	-0.0005259444
135	0xbb166e11	-0.0022953788
136	0xbab8facc	-0.0014112829
137	0xbb431125	-0.0029764858
138	0xbba587c6	-0.005051586
139	0xbaa0c87a	-0.0012266778
140	0xba16098c	-0.00057234685
141	0x3ac18034	0.0014762939
142	0xbb2ff308	-0.0026847739
143	0x3aaec916	0.0013335075
144	0x3a8cfe17	0.0010756877
145	0x3b8259a5	0.0039779716
146	0xba50b08d	-0.00079608784
147	0xbae9893f	-0.0017817392
148	0xb9bdd186	-0.00036204996
149	0x3bc9b4f7	0.006155606
150	0x3958c6a8	0.0002067337
151	0xb9ef2187	-0.00045610612
152	0xbb528ee5	-0.0032128629
153	0x3a1a62de	0.0005889366
154	0x3a095598	0.000523889
155	0x3b400fba	0.0029306249
156	0x3a8af24d	0.0010600776
157	0xbb4fa147	-0.0031681822
158	0x39ac457c	0.00032858166
159	0x3b9734a6	0.0046144305
160	0x3bc28e12	0.0059373463
161	0x38476501	4.7539364e-05
162	0xbafeb3e2	-0.0019432271
163	0x3a3c7f28	0.00071905786
164	0xb92ce48a	-0.00016488336
165	0xbb465dca	-0.0030268305
166	0x3a178fd4	0.0005781625
167	0x3b4b87e9	0.003105635
168	0xbb2403e7	-0.002502674
169	0xbadeb256	-0.0016990404
170	0x3b3e30ec	0.002902086
171	0x3a25de62	0.0006327388
172	0xbb1cb72c	-0.002391289
173	0x3bbd4b0f	0.00577677
174	0xba82f587	-0.0009991386
175	0xba689c0d	-0.0008873351
176	0xb9dbec66	-0.00041947066
177	0x3a31a258	0.0006776205
178	0x3ae4181e	0.0017402207
179	0x3b40bcaa	0.0029409328
180	0x3a9c780b	0.0011937631
181	0xbb4c74cd	-0.0031197548
182	0x3aa164e3	0.0012313392
183	0x3a5ea22d	0.0008492794
184	0x3ac72276	0.0015192765
185	0xbad9a968	-0.0016606273
186	0x3b708cea	0.0036705085
187	0xb9ae3970	-0.0003323066
188	0x3ba1f34a	0.0049423324
189	0xbb55de43	-0.00326337
190	0x3ae0f0d2	0.0017161614
191	0x3ab82b98	0.0014051078
192	0xbb43fc8d	-0.002990517
193	0xbb4c2b33	-0.0031153678
194	0xb94dad54	-0.00019614893
195	0xbb84639d	-0.004040195
196	0xbb29f679	-0.0025934263
197	0x3b8ed349	0.0043586832
198	0x3ad19163	0.0015988763
199	0xbaa5bc35	-0.0012644591
200	0x3b55f510	0.003264729
201	0xb9dd1b84	-0.00042172906
202	0xbb7fe3d4	-0.0039045708
203	0x3ad9f705	0.0016629404
204	0x3b01a288	0.0019780714
205	0x3b4ddd55	0.0031412442
206	0x3bd7026b	0.0065615675
207	0xbb37166c	-0.0027936948
208	0x3b3de01e	0.0028972696
209	0x3a392baf	0.00070636993
210	0x39a9f08b	0.0003241341
211	0x3ab7da6e	0.0014026889
212	0x387da67f	6.0474962e-05
213	0xba48938c	-0.0007651381
214	0x3b2743a8	0.0025522504
215	0x3afd5cd4	0.0019330033
216	0xbb9ab230	-0.0047209486
217	0xba48c49d	-0.0007658692
218	0x3b9d2eb1	0.004796826
219	0x3ab82616	0.0014049436
220	0xbb05c9b3	-0.0020414412
221	0x3b07a934	0.0020700218
222	0x3c1a1f46	0.00940687
223	0x3b73f39c	0.003722406
224	0xbbca126c	-0.006166747
225	0x3b0e2ab1	0.0021692927
226	0xbb2fb70c	-0.0026811985
227	0xba5224f1	-0.0008016369
228	0xbbb95329	-0.0056556654
229	0x3ba605d1	0.0050666113
230	0x3bf693b1	0.0075249304
231	0xbb33834e	-0.0027391496
232	0xbb6e8f9d	-0.0036401518
233	0x39c9f213	0.00038518067
234	0xbb09c3e5	-0.0021021303
235	0x38d9da5a	0.000103880375
236	0x3b8e726a	0.0043471353
237	0x3b3907b5	0.0028233354
238	0x39f6202a	0.0004694474
239	0x3bc98972	0.006150418
240	0x3b7f403e	0.0038948203
241	0x3a8017d8	0.0009772731
242	0xb994d453	-0.00028386954
243	0x3b30fa7b	0.0027004767
244	0x3b468d60	0.0030296668
245	0x39f46e1b	0.00046621342
246	0x3b7f489d	0.0038953193
247	0x3ab8a534	0.001408732
248	0x3c0ff91f	0.008787422
249	0xbab06ec3	-0.0013460744
250	0xbb8cacdf	-0.004293069
251	0xbb00cd0e	-0.0019653472
252	0x3b61a127	0.003442833
253	0xb9f6718d	-0.00047005378
254	0xbaf5407e	-0.0018711237
255	0xbac9a1af	-0.0015383268

exp_avg_sq f4 [20, 101]
0	0x3947fb50	0.0001907174
1	0x3988d8e6	0.00026101543
2	0x39600f7b	0.00021368072
3	0x39887e8d	0.0002603423
4	0x397ec376	0.00024296143
5	0x3954071a	0.00020220541
6	0x39721160	0.00023085391
7	0x398429db	0.00025208187
8	0x394d168a	0.0001955872
9	0x394fa11f	0.0001980108
10	0x393f2756	0.00018229833
11	0x39818518	0.0002470396
12	0x397f3f0c	0.00024342182
13	0x39711496	0.0002299122
14	0x39708fff	0.00022941826
15	0x3950e4ba	0.00019921633
16	0x39791a08	0.00023756188
17	0x39632007	0.00021660338
18	0x3951a53d	0.00019993349
19	0x3981237a	0.0002463123
20	0x394c572b	0.00019487429
21	0x396845c8	0.0002215124
22	0x3962e370	0.00021637767
23	0x3997854b	0.00028900275
24	0x3969c8dc	0.00022295438
25	0x39634145	0.00021672722
26	0x397e5ca1	0.00024257835
27	0x39833010	0.00025022076
28	0x39703f26	0.00022911708
29	0x3955e83a	0.00020399774
30	0x397c9900	0.0002408959
31	0x3974de11	0.0002335238
32	0x39546edf	0.00020259198
33	0x3956a6cb	0.00020470766
34	0x395b2290	0.00020898343
35	0x39710c9a	0.00022988245
36	0x399418be	0.00028247194
37	0x399c65f2	0.00029830594
38	0x3949cceb	0.00019245192
39	0x3969bf7f	0.0002229195
40	0x394ec546	0.00019719181
41	0x3978fc7b	0.0002374518
42	0x3967dc75	0.00022112003
43	0x3969ca2a	0.00022295924
44	0x3951cd32	0.00020008234
45	0x39af8c25	0.00033483017
46	0x39420f45	0.0001850697
47	0x393322fe	0.00017083806
48	0x39824c8a	0.00024852558
49	0x397f40ee	0.00024342883
50	0x39cdb114	0.0003923258
51	0x39827be9	0.00024887852
52	0x39754f5b	0.00023394583
53	0x394735ca	0.00018998157
54	0x39834e4c	0.00025044603
55	0x397d70fc	0.0002417005
56	0x3979a102	0.0002380647
57	0x3968a41f	0.00022186384
58	0x396f5926	0.00022826027
59	0x397178da	0.00023028572
60	0x397c306f	0.00024050636
61	0x398591d8	0.000254764
62	0x398a57b8	0.00026386767
63	0x39445deb	0.00018727004
64	0x394758cc	0.00019011198
65	0x395a0ee7	0.00020795652
66	0x3955f879	0.00020405826
67	0x395829ab	0.00020614888
68	0x39487b95	0.00019119524
69	0x394792c8	0.00019032799
70	0x394db3f4	0.00019617361
71	0x39823fe4	0.00024843134
72	0x3950f4af	0.00019927578
73	0x397887f4	0.0002370177
74	0x396bd8e2	0.00022492142
75	0x396f4a29	0.00022820443
76	0x398e0956	0.00027091306
77	0x39558797	0.00020363774
78	0x398663c6	0.0002563281
79	0x398db742	0.00027030153
80	0x3981b1b6	0.00024737202
81	0x39894db7	0.00026188578
82	0x3984f432	0.00025358942
83	0x394b4cc0	0.0001938818
84	0x3958f0b5	0.00020689036
85	0x394ff0ec	0.00019830809
86	0x395aa0a1	0.00020849939
87	0x3939ef33	0.00017732084
88	0x3981ad3c	0.00024733867
89	0x3963e7f1	0.00021734812
90	0x39a06054	0.00030589348
91	0x398261d3	0.00024868417
92	0x394bebee	0.0001944748
93	0x3983ee9e	0.0002516405
94	0x39901e20	0.00027488265
95	0x3981723d	0.00024689912
96	0x39822461	0.00024822637
97	0x393aef80	0.00017827563
98	0x395ba2c6	0.00020946105
99	0x399c49ca	0.00029809616
100	0x397f430f	0.00024343676
101	0x396c5b2f	0.00022540682
102	0x397eaf2e	0.00024288587
103	0x39602898	0.00021377427
104	0x3960962b	0.00021418247
105	0x3982132f	0.00024809825
106	0x3970b7e6	0.00022956691
107	0x39719985	0.00023040742
108	0x39525c02	0.00020061436
109	0x3978514a	0.00023681406
110	0x395b497e	0.00020912846
111	0x397efff7	0.00024318682
112	0x3971d55d	0.00023063035
113	0x3986fe82	0.00025748095
114	0x396e8780	0.00022747926
115	0x397ab833	0.00023910477
116	0x395d1384	0.00021083473
117	0x3995a7ea	0.000285446
118	0x395b7db9	0.00020932303
119	0x39494fb7	0.0001919855
120	0x3969cd10	0.00022297003
121	0x3966cd22	0.00022010927
122	0x396d3139	0.00022620418
123	0x39791d85	0.00023757487
124	0x39745572	0.00023301484
125	0x397e2824	0.00024238281
126	0x3975ff14	0.00023460045
127	0x396a5c70	0.00022350415
128	0x3950f59f	0.00019927927
129	0x39518049	0.00019979583
130	0x395b2748	0.00020900101
131	0x39622643	0.00021567293
132	0x3968c34c	0.00022197998
133	0x39803058	0.0002445008
134	0x395d6cd5	0.00021116745
135	0x3981e22a	0.00024773303
136	0x39678066	0.00022077709
137	0x396e46d4	0.00022723834
138	0x39993ae5	0.00029226314
139	0x394446b8	0.00018718361
140	0x39515fba	0.00019967454
141	0x3953f997	0.00020215508
142	0x3970e788	0.00022974436
143	0x396c2830	0.00022521685
144	0x393cafb9	0.00017994539
145	0x3956040d	0.0002041014
146	0x39c1233f	0.0003683809
147	0x396e93e8	0.00022752548
148	0x39589f00	0.00020658597
149	0x39523087	0.00020045238
150	0x3980489c	0.0002446816
151	0x399af236	0.0002955363
152	0x398242d8	0.00024845335
153	0x3953032d	0.00020123711
154	0x39615588	0.00021489535
155	0x396a847a	0.0002236533
156	0x3956ce09	0.00020485384
157	0x396d56e1	0.00022634446
158	0x3976c232	0.00023532732
159	0x394f4a36	0.00019768704
160	0x3991f18d	0.00027836525
161	0x397c5bc2	0.00024066775
162	0x393d688d	0.00018063393
163	0x39716411	0.00023020829
164	0x398f4433	0.00027325898
165	0x398f648d	0.00027350002
166	0x3985c8a5	0.0002551723
167	0x39853ba4	0.00025412173
168	0x39561dda	0.00020419751
169	0x3967dc78	0.00022112008
170	0x39544dea	0.00020246921
171	0x3977ce89	0.00023632696
172	0x39608538	0.00021411933
173	0x39670d02	0.00022034722
174	0x39714e63	0.00023012752
175	0x395976fe	0.0002073906
176	0x396288cc	0.00021604
177	0x396718dd	0.00022039139
178	0x398159d9	0.0002467174
179	0x39693271	0.00022239402
180	0x3960fa22	0.00021455486
181	0x39807095	0.00024497943
182	0x3944ccd3	0.0001876832
183	0x398c194a	0.00026721723
184	0x39569988	0.00020465825
185	0x395d7cd9	0.00021122712
186	0x39466471	0.00018920169
187	0x39547268	0.00020260515
188	0x3961c739	0.00021531888
189	0x3974a256	0.00023330128
190	0x3953c3b8	0.00020195439
191	0x39725e42	0.00023114032
192	0x39720869	0.00023082051
193	0x3978534a	0.0002368215
194	0x396888ef	0.00022176256
195	0x39893f44	0.00026177813
196	0x3997e626	0.00028972438
197	0x39824910	0.00024849968
198	0x39531619	0.0002013076
199	0x394dbfea	0.00019621817
200	0x39744be5	0.00023297926
201	0x395319a7	0.00020132084
202	0x39a0200d	0.00030541458
203	0x39ede3d7	0.00045373917
204	0x399ed6f3	0.00030296258
205	0x39c60e41	0.00037776123
206	0x39ba31cc	0.00035513786
207	0x39a49263	0.00031389584
208	0x39db33e6	0.00041809602
209	0x39b7c936	0.00035054394
210	0x39b66400	0.0003478825
211	0x39c7fd33	0.00038144886
212	0x39bd2101	0.0003607348
213	0x39b2797b	0.00034041316
214	0x39b039a3	0.0003361228
215	0x39a3eaf9	0.0003126485
216	0x39b6c855	0.00034863004
217	0x39c0e3f4	0.00036790932
218	0x39d47e8c	0.00040530076
219	0x39c00ad4	0.0003662916
220	0x39a287da	0.00031000265
221	0x39e415c2	0.0004350376
222	0x39a3e5da	0.00031261035
223	0x39d37376	0.0004033108
224	0x39d015a3	0.00039688972
225	0x39ed808a	0.00045299932
226	0x39cab225	0.0003866117
227	0x39baedf1	0.00035653965
228	0x39bbe4c1	0.00035837854
229	0x39c597fd	0.00037688008
230	0x39cb0680	0.0003872402
231	0x39b9f5f7	0.00035469208
232	0x39cc9f28	0.00039028493
233	0x39c70c5c	0.00037965446
234	0x39d44188	0.00040484616
235	0x39a32d89	0.0003112371
236	0x39ad851a	0.000330963
237	0x39de7159	0.0004242759
238	0x39c9f1b5	0.00038517793
239	0x39dea544	0.00042466272
240	0x39c02bed	0.0003665382
241	0x39b1dbba	0.0003392378
242	0x39b5f62e	0.00034706428
243	0x39d9d2a2	0.000415464
244	0x39cf2244	0.00039507647
245	0x39a163e8	0.0003078275
246	0x39bff3ae	0.00036611914
247	0x3a0244e3	0.00049693714
248	0x39b2082c	0.00033956894
249	0x39c2d515	0.00037161322
250	0x39b27ab4	0.00034042227
251	0x39b0db27	0.00033732617
252	0x3a1a471b	0.00058852293
253	0x39ccbdf7	0.00039051447
254	0x39e1d8cf	0.0004307688
255	0x39ae5ac5	0.00033255495

exp_avg f4 [10, 20]
0	0x3bf07cdd	0.0073391036
1	0x3bbf9821	0.0058469926
2	0xbb30d24a	-0.002698081
3	0x3bddc16b	0.006767442
4	0x3b46c176	0.0030327714
5	0xbbd18421	-0.006393925
6	0xba7e1605	-0.0009692612
7	0x3a60bace	0.0008572758
8	0x3b072b95	0.0020625342
9	0xb99dc540	-0.00030092336
10	0xbc2a7fa2	-0.010406407
11	0xba432ffb	-0.00074458093
12	0x3ab9c6f0	0.0014173668
13	0xbb055dcd	-0.00203501
14	0xbc283722	-0.010267051
15	0x39153d29	0.00014232531
16	0x3c6b14f0	0.014348254
17	0x3b03da18	0.0020119008
18	0x3b33d9f1	0.0027443136
19	0x3c705e6f	0.014670952
20	0x3a949412	0.0011335632
21	0xba2f6bdb	-0.0006691792
22	0x3a6c43d3	0.0009012792
23	0x3a143c2f	0.000565472
24	0xb97c3549	-0.00024052443
25	0xb9e21860	-0.0004312424
26	0xba9eef6d	-0.0012125798
27	0xb9f99522	-0.00047604094
28	0x3a9f003a	0.0012130805
29	0x3aa7c78b	0.0012800557
30	0xbaf62132	-0.0018778204
31	0x390c555d	0.00013383241
32	0xba9d58c6	-0.0012004606
33	0x3a394c03	0.00070685166
34	0x3b2b0fb2	0.0026101884
35	0x39a613e8	0.0003167682
36	0x3a5c45c8	0.0008402732
37	0xba16a5cc	-0.00057467516
38	0xbace0310	-0.0015717465
39	0x3a99347b	0.0011688614
40	0x37afb77c	2.0947067e-05
41	0x3ab9a676	0.0014163989
42	0xbb03c198	-0.0020104405
43	0x3a03fef0	0.0005035242
44	0xb97d286a	-0.00024143016
45	0x3a6de7f7	0.0009075398
46	0x3af69e84	0.0018815552
47	0x392a4418	0.0001623783
48	0xb99036c3	-0.0002750662
49	0x3a41a474	0.0007386871
50	0xbb1a3514	-0.0023530172
51	0xba8f1502	-0.0010916295
52	0x3acf7cc8	0.0015830034
53	0x3a9cb78c	0.0011956557
54	0xb9d96239	-0.00041462647
55	0xbb9ade9a	-0.004726243
56	0x3afb57ea	0.0019175981
57	0xbb4002fd	-0.0029298656
58	0x39811ad4	0.00024624786
59	0x3b51ce5b	0.0032013867
60	0x3bf2b3c9	0.007406686
61	0x3bba705e	0.0056896647
62	0xb9bd9b01	-0.00036164376
63	0x3c1ea8c7	0.009683794
64	0x3b8d52bc	0.004312841
65	0xbaaa5653	-0.0012995697
66	0xbb1731cf	-0.002307046
67	0xbb83d7a6	-0.00402351
68	0xbab3a916	-0.0013707008
69	0xbb850eef	-0.004060618
70	0xbc0fafa3	-0.008769902
71	0xb9796a01	-0.0002378598
72	0xba5ef90a	-0.00085057376
73	0x3bac164f	0.005251683
74	0x3b8687be	0.004105537
75	0x3a2c0a13	0.00065627805
76	0xbb29f9bf	-0.0025936214
77	0xbc3765cd	-0.011193705
78	0x3aa3c43d	0.0012494397
79	0x3b931ab3	0.004489267
80	0xbb91838e	-0.0044407314
81	0xbbda283f	-0.0066576297
82	0x3a343dae	0.0006875646
83	0xbb8f7656	-0.0043781204
84	0xbab02093	-0.0013437442
85	0x3a10ee8a	0.0005528709
86	0xbb1079f7	-0.0022045353
87	0x3b204d93	0.00244603
88	0x3afbe281	0.0019217284
89	0x3b4877fa	0.003058909
90	0x3bd58f10	0.0065172985
91	0x3b3f709d	0.002921141
92	0xbbfd2bfa	-0.0077261897
93	0xbb2fda68	-0.002683306
94	0x3b949e75	0.004535491
95	0xba59dac5	-0.0008310492
96	0xbb47287f	-0.0030389128
97	0x3a852e19	0.0010160833
98	0xbaab51da	-0.0013070658
99	0xbaab31ad	-0.0013061069
100	0x3b03c1a3	0.002010443
101	0x3b2cee13	0.002638702
102	0xbb914c75	-0.004434163
103	0x3acb787c	0.0015523578
104	0x3a9a0770	0.0011751484
105	0x3ad07715	0.001590463
106	0xb9eb22a9	-0.00044848517
107	0x399d6bc2	0.0003002566
108	0xb9edd86e	-0.00045365415
109	0x3b19e148	0.0023480225
110	0xba951ddc	-0.0011376697
111	0xba993786	-0.0011689521
112	0x3aa3097a	0.0012438737
113	0x3b0f5020	0.0021867827
114	0xbaec8b54	-0.0018046894
115	0xb9d04102	-0.00039721286
116	0x3b115233	0.0022174239
117	0x3a86a0d2	0.0010271317
118	0x3ba5cbbd	0.005059688
119	0x3b792f03	0.0038022406
120	0xbaf8dfb2	-0.0018987565
121	0xbaf23f2e	-0.0018481964
122	0xba7c9946	-0.00096358766
123	0xbb6ebe93	-0.003642951
124	0xbb24c234	-0.0025140168
125	0xbb3f3726	-0.0029177158
126	0xba390bf7	-0.0007058973
127	0xbb363564	-0.002780282
128	0x3a9c289b	0.0011913957
129	0x3af1ed74	0.0018457607
130	0x3b2c0e55	0.002625366
131	0x38be72ab	9.0812646e-05
132	0xbae8c3c6	-0.001775854
133	0xbad5fa5b	-0.0016325222
134	0x3b330f8e	0.0027322504
135	0x3ab50adf	0.0013812444
136	0x39b18b9a	0.00033864082
137	0x39944448	0.00028279633
138	0xb84e83be	-4.923692e-05
139	0x3ab196de	0.001354899
140	0xbbe6f235	-0.0070479163
141	0x3917fb32	0.0001449406
142	0x3a41684d	0.0007377908
143	0xbc1886ce	-0.009309484
144	0x3c1e633d	0.009667215
145	0x3c278979	0.010225647
146	0x3bf2d26d	0.0074103386
147	0x39872da2	0.00025783206
148	0x3ac55cd7	0.0015057576
149	0x3b1fd17b	0.0024386335
150	0x3bd1fadf	0.00640808
151	0x3b9cdfb0	0.004787408
152	0xbb90b712	-0.004416355
153	0xbc052dea	-0.008128623
154	0xbb5f6495	-0.0034087051
155	0x39e2ec32	0.00043282058
156	0x39c5ab41	0.00037702362
157	0x3bb2879b	0.0054482943
158	0x3bc6ea18	0.0060703866
159	0xbbbebd3a	-0.0058208974
160	0x394f106a	0.00019747173
161	0xbb0f4883	-0.0021863289
162	0x3b373a85	0.0027958464
163	0xbb917239	-0.004438665
164	0xbb9eb9bb	-0.004843918
165	0xbb91fec0	-0.0044554174
166	0xbb14a3a4	-0.0022680545
167	0x3adff5ef	0.0017086844
168	0xbbf63006	-0.007513049
169	0xbb8dc23c	-0.004326133
170	0x3b986eb7	0.00465187
171	0x3c250e8c	0.010074269
172	0xbbb69092	-0.0055714333
173	0xbba10b92	-0.0049147094
174	0x3bafc383	0.005363883
175	0x3a2c5217	0.00065735116
176	0xbb19a6b6	-0.0023445315
177	0xbb64a9c0	-0.0034891218
178	0xbb6a4029	-0.003574381
179	0xbb4815d6	-0.0030530593
180	0x3b12af5c	0.0022382354
181	0x3b43c3c7	0.002987133
182	0xbbb0e16b	-0.0053979657
183	0x3b0cfcf6	0.002151308
184	0xba953b06	-0.0011385388
185	0x3a61228b	0.0008588216
186	0xbaa36576	-0.0012466151
187	0xbb9268dd	-0.004468067
188	0xbb311de9	-0.0027025884
189	0x38f891f2	0.00011852746
190	0xbb3ddcf9	-0.0028970821
191	0x3a48da63	0.00076619367
192	0x3b65d603	0.0035070188
193	0x3994492b	0.00028283274
194	0xbae985f4	-0.001781641
195	0x3b50ccbd	0.0031860315
196	0x3a51d068	0.0008003772
197	0x3ab2083b	0.0013582775
198	0x3b11aeef	0.0022229513
199	0x3b026ce4	0.001990133
