code/models/tmp.pth (torch_old, 12550 bytes, 42 tensors)

bn_cont.weight f4 [100]
0	0x3ebaab6b	0.36458907
1	0x3ec5dd45	0.38645378
2	0x3eef23ed	0.46707097
3	0x3ecade38	0.39622664
4	0x3efb1fee	0.49047798
5	0x3edcf654	0.43156683
6	0x3e830ba2	0.25594813
7	0x3eaf1254	0.3419367
8	0x3ea7f3ba	0.32803136
9	0x3ec5eb34	0.38656008
10	0x3ec22109	0.3791583
11	0x3ebf691e	0.37384886
12	0x3e94e110	0.2907796
13	0x3ec6b273	0.3880802
14	0x3ed05959	0.40693167
15	0x3eb773e8	0.35830617
16	0x3e9f7d4e	0.31150287
17	0x3ed6b2cd	0.4193329
18	0x3ea4c064	0.32178032
19	0x3ef1dd9f	0.47239396
20	0x3ec07bfb	0.3759459
21	0x3ea15b02	0.31514746
22	0x3ebfeaef	0.37483928
23	0x3eb4252e	0.35184616
24	0x3eb4b272	0.35292393
25	0x3ed1c220	0.40968418
26	0x3e9f947a	0.31167966
27	0x3ec847e0	0.39117336
28	0x3eb91742	0.36150557
29	0x3ea7ecd1	0.32797864
30	0x3ec967c1	0.3933697
31	0x3e5f9d7c	0.2183742
32	0x3ec506f5	0.3848187
33	0x3eca3994	0.39497054
34	0x3ea83779	0.32854822
35	0x3eb43a42	0.35200697
36	0x3ebd366e	0.3695559
37	0x3eb1b44b	0.34707865
38	0x3e8b7fe9	0.27246025
39	0x3ed443db	0.4145802
40	0x3ed52416	0.41629094
41	0x3ebfc6b6	0.37456292
42	0x3eb4c54a	0.3530677
43	0x3ed57640	0.4169178
44	0x3ead38ed	0.33832493
45	0x3e9bfab9	0.30464724
46	0x3eacda17	0.3376014
47	0x3e930096	0.28711385
48	0x3eb87213	0.36024532
49	0x3eb4a304	0.3528062
50	0x3eed6891	0.4636884
51	0x3e509238	0.20368278
52	0x3e6c076c	0.23049706
53	0x3ebfeffe	0.37487787
54	0x3e91589f	0.28387925
55	0x3ea51af7	0.32247135
56	0x3ec24cc0	0.3794918
57	0x3e9d64ba	0.3074091
58	0x3ebbc48f	0.366734
59	0x3ec2566d	0.37956563
60	0x3ecec6ea	0.40386134
61	0x3ec443e8	0.38333058
62	0x3eb3a578	0.3508718
63	0x3eb1bcf3	0.3471447
64	0x3eba0e5a	0.36339074
65	0x3e84c0c7	0.25928327
66	0x3eb83472	0.35977513
67	0x3ea73fe8	0.32665944
68	0x3ec84ed2	0.39122635
69	0x3ed65679	0.41862848
70	0x3ea91675	0.33024946
71	0x3eb1e484	0.34744656
72	0x3ec8d016	0.39221257
73	0x3e96fa42	0.29487807
74	0x3ead0243	0.33790788
75	0x3ec8d990	0.39228487
76	0x3e86fd40	0.2636509
77	0x3ec0aac0	0.37630272
78	0x3ecd561e	0.40104765
79	0x3eb53cb8	0.35397887
80	0x3e9d4924	0.30719864
81	0x3e8c30c9	0.2738097
82	0x3eace5e3	0.3376914
83	0x3e60c13a	0.2194871
84	0x3e8ca52e	0.27469772
85	0x3ed7145f	0.4200773
86	0x3ec93e7a	0.39305478
87	0x3ed9bd2d	0.42527142
88	0x3eae0147	0.3398535
89	0x3ebb4cd6	0.3658206
90	0x3e41dec3	0.18932633
91	0x3eb6113f	0.35560033
92	0x3eb16264	0.3464538
93	0x3ebad1cf	0.36488196
94	0x3ea6748e	0.325108
95	0x3ed1c2f7	0.4096906
96	0x3ebf3758	0.3734691
97	0x3ed26f39	0.4110048
98	0x3ed02d71	0.4065967
99	0x3ebe2dc7	0.371443

bn_cont.bias f4 [100]
0	0xbb2f9db9	-0.002679689
1	0xba9a8c10	-0.001179101
2	0x3a03cdf8	0.0005027945
3	0x3bc500d5	0.006012062
4	0x3bbfd824	0.0058546234
5	0x3cc2a6bf	0.023761151
6	0xbcc37e3a	-0.0238639
7	0x3b50f555	0.003188451
8	0x3bb8e4fb	0.005642531
9	0x3b0f16e2	0.0021833708
10	0x3c36b0b0	0.011150524
11	0xbc897647	-0.016780032
12	0xbc421687	-0.011846191
13	0xbb789622	-0.0037931283
14	0xbc72998d	-0.014807117
15	0xbb457fb2	-0.0030135927
16	0x3a39f6bf	0.0007093958
17	0xbc72fcf6	-0.014830818
18	0xbca6f078	-0.020378336
19	0xbb739017	-0.0037164742
20	0x3a8f318a	0.0010924798
21	0xbc80f376	-0.015741091
22	0x3cafc333	0.021455383
23	0x3aec085d	0.0018007864
24	0xbc2c75a0	-0.010526091
25	0xbc2680f6	-0.010162583
26	0xbb01b601	-0.001979232
27	0x3c32e3ce	0.010918571
28	0x3b95a645	0.00456694
29	0xbc2cc049	-0.010543891
30	0x3ca66e1e	0.02031618
31	0xba0a070a	-0.0005265331
32	0x3aea0d37	0.0017856722
33	0xbad2632d	-0.0016051285
34	0xbc43e84a	-0.0119572375
35	0x3c091ade	0.008368222
36	0x3c8cdd79	0.01719545
37	0x3ba255f8	0.004954096
38	0x3c8c549e	0.017130192
39	0xbb906fa3	-0.0044078394
40	0x3bb88a99	0.0056317565
41	0xba6cfdb0	-0.0009040488
42	0xbca7a4a6	-0.020464253
43	0x3c6a01e0	0.014282674
44	0xbcb380a4	-0.021911927
45	0x3cc12cb0	0.023580879
46	0xbca194b8	-0.019724235
47	0x3be96b1a	0.007123363
48	0x3c23a272	0.00998746
49	0xb92091c0	-0.00015313085
50	0xbcc14d5c	-0.023596458
51	0x3bd8c2fe	0.0066150418
52	0xbc7ffcb6	-0.015624216
53	0x3c8db208	0.017296806
54	0xbc11aba1	-0.008891017
55	0x3cb19930	0.02167949
56	0xbbacaad6	-0.0052693887
57	0xbcdc264d	-0.026873732
58	0x3b95f56b	0.0045763752
59	0xbc80151d	-0.015635068
60	0xbab2b5cc	-0.0013634502
61	0x3a818cca	0.0009883877
62	0x3bbb0526	0.005707401
63	0x3bb55aee	0.0055345213
64	0xbb26c6f5	-0.0025448177
65	0x39c65edc	0.0003783618
66	0x3c0174f4	0.007901419
67	0x3c08fc42	0.008360924
68	0xbb78d2d0	-0.003796745
69	0x3a552eb3	0.0008132264
70	0x39e4da93	0.000436504
71	0x3cba7a9e	0.022763547
72	0xbc9bee3f	-0.019034503
73	0xbc492789	-0.012277492
74	0x3cafb8e7	0.021450473
75	0x3c8db71f	0.017299233
76	0xbc888e86	-0.016669523
77	0xbbf384d5	-0.0074316063
78	0x3c9c4cc9	0.019079583
79	0x3afd10cc	0.0019307374
80	0x3be92354	0.007114807
81	0xbca68c4f	-0.020330576
82	0x3cb6a9ff	0.022297857
83	0x3b3e28c5	0.0029016
84	0xbbeed738	-0.0072888397
85	0x3c8f0574	0.017458655
86	0xbc4865ba	-0.012231285
87	0x3cb27814	0.021785773
88	0xbbb744b5	-0.0055929073
89	0x3c24818e	0.010040654
90	0xbd034592	-0.03204877
91	0xbbab08ba	-0.005219546
92	0xbc1f7059	-0.009731376
93	0xbc911bfe	-0.017713543
94	0x3bcd16e9	0.0062588346
95	0xbcb6d6f1	-0.022319289
96	0x3c93ccf9	0.018042075
97	0xbc9662a6	-0.018357586
98	0xbc69fb36	-0.014281085
99	0xbc7c0656	-0.01538237

bn_cont.running_mean f4 [100]
0	0xbbcc2065	-0.0062294477
1	0xba4b0b0b	-0.0007745481
2	0xbcba22ea	-0.022721726
3	0x3c8c5107	0.01712848
4	0xbc313d17	-0.010817788
5	0xbc3ddaca	-0.011587808
6	0x3cba4aa1	0.022740664
7	0xbcbd21ec	-0.023087464
8	0xbd0c2cfa	-0.03422258
9	0xbbebd21d	-0.0071966783
10	0x3ca93771	0.02065632
11	0xbbfe4ab2	-0.007760369
12	0xbc7bf0a1	-0.015377195
13	0x3d24ed8a	0.040265597
14	0x3ca1470c	0.019687198
15	0x3c75205b	0.014961327
16	0xbbe588fb	-0.0070048547
17	0xbca6f696	-0.020381253
18	0x3ca43f1e	0.020049628
19	0xbcc3b140	-0.02388823
20	0x3c87478e	0.016513612
21	0xbc33437d	-0.010941383
22	0xbc04e595	-0.008111377
23	0xbcc06417	-0.023485227
24	0x3c62f7fc	0.013853069
25	0x3bf4e79f	0.0074739004
26	0x3d4fc91b	0.0507289
27	0xbc76a78c	-0.015054595
28	0xbd34e618	-0.044164747
29	0x3c4702b3	0.01214664
30	0xbc49f04b	-0.012325357
31	0x3c57564b	0.013143132
32	0xba71a536	-0.0009218039
33	0x3adcf501	0.0016857685
34	0xbd0216e0	-0.031760097
35	0xbca5dff5	-0.020248393
36	0x3a2fe80a	0.0006710297
37	0x3a5a1698	0.0008319407
38	0xbc4e741d	-0.012600926
39	0x3bff2689	0.007786576
40	0x3c1e5e95	0.009666105
41	0x3ba299bb	0.0049621738
42	0x3c96d65e	0.018412765
43	0xbc004774	-0.007829536
44	0xbb4dae13	-0.0031384274
45	0xbd237f3b	-0.03991626
46	0x3b9b0ee8	0.0047320016
47	0xbc30cecc	-0.010791492
48	0x3cadbbf0	0.02120778
49	0x3aae04e3	0.0013276603
50	0xbc9f55aa	-0.019450027
51	0xbd54b05e	-0.05192601
52	0xbc661c35	-0.014044811
53	0xbc38f858	-0.0112896785
54	0x3c2d42c1	0.010574997
55	0x3cd45b07	0.025922311
56	0x3c02f5e4	0.007993195
57	0x3d01dcb0	0.031704605
58	0x3c0c7716	0.008573314
59	0x39b1bf1a	0.00033902453
60	0x3bcae1a8	0.006191451
61	0xbbec757f	-0.007216155
62	0xbb8d5d08	-0.0043140687
63	0x3c3436cc	0.010999393
64	0xbc893b13	-0.016751802
65	0xbbc65705	-0.006052854
66	0x3cfec5e5	0.031100223
67	0xbb7f46de	-0.0038952152
68	0xbcd74acd	-0.026280785
69	0x39f5f6cd	0.00046913922
70	0x3d1e0a75	0.03858419
71	0xbcbf97f3	-0.023387885
72	0x3aabed53	0.0013116993
73	0x3c662e0b	0.014049063
74	0x3c67592c	0.014120381
75	0xb9984fd0	-0.00029051164
76	0x3baaaaae	0.005208335
77	0x3c959691	0.018260272
78	0xbb5880ba	-0.0033035711
79	0x3c9b7518	0.018976733
80	0xbbe13721	-0.006873027
81	0xbbf3b9ab	-0.007437905
82	0xbc6d9ebc	-0.014503177
83	0x3bf0ba28	0.0073464103
84	0xbca6d261	-0.020363988
85	0xbcb2aa2c	-0.02180966
86	0x3d0f68b6	0.03501197
87	0xbc3a8de6	-0.01138637
88	0xbcccaebc	-0.024985664
89	0xbce2869d	-0.02765208
90	0xbb9aa3c2	-0.0047192285
91	0x3ccefe9f	0.025267897
92	0xbc5ddbc4	-0.013541166
93	0x3cea8c45	0.028631339
94	0x3cb9cec7	0.022681607
95	0xbc2426bd	-0.010019002
96	0x3cf1e880	0.02952981
97	0x3be640bb	0.0070267594
98	0x3aa9185d	0.0012900938
99	0x3ba6feab	0.0050962768

bn_cont.running_var f4 [100]
0	0x3f7defa5	0.99193794
1	0x3f80a043	1.0048908
2	0x3f8132e7	1.0093659
3	0x3f81441d	1.0098912
4	0x3f816ecb	1.0111936
5	0x3f8150ae	1.0102746
6	0x3f7e41c6	0.9931911
7	0x3f7f56bb	0.99741715
8	0x3f7f17eb	0.9964587
9	0x3f80e665	1.0070311
10	0x3f83cc7b	1.0296777
11	0x3f7f293b	0.9967229
12	0x3f80dcbd	1.0067364
13	0x3f7f55ad	0.99740106
14	0x3f7f2c60	0.99677086
15	0x3f81453f	1.0099257
16	0x3f7fb3f7	0.9988398
17	0x3f7f8702	0.9981538
18	0x3f7350dd	0.9504526
19	0x3f81a7eb	1.012937
20	0x3f7dc5da	0.9913002
21	0x3f820ea0	1.0160713
22	0x3f7e994c	0.9945266
23	0x3f8350b2	1.0259001
24	0x3f80c696	1.0060604
25	0x3f84e93f	1.0383681
26	0x3f7d3b36	0.98918474
27	0x3f806716	1.0031459
28	0x3f823c77	1.0174702
29	0x3f84c783	1.0373386
30	0x3f82dc32	1.0223448
31	0x3f801d16	1.0008876
32	0x3f7c38f0	0.9852438
33	0x3f8052d5	1.0025278
34	0x3f82fdd3	1.0233711
35	0x3f7f055c	0.9961755
36	0x3f7ae71f	0.9800891
37	0x3f811c35	1.0086733
38	0x3f7bd6ef	0.9837484
39	0x3f82e10a	1.0224926
40	0x3f826e94	1.0189996
41	0x3f8172db	1.0113176
42	0x3f8352a9	1.0259601
43	0x3f83d42a	1.0299122
44	0x3f82106b	1.016126
45	0x3f7e1639	0.9925266
46	0x3f773eeb	0.9658038
47	0x3f7ea605	0.99472076
48	0x3f8072d6	1.0035045
49	0x3f82a41e	1.0206335
50	0x3f7f8bba	0.9982258
51	0x3f7aa954	0.97914624
52	0x3f7de963	0.99184245
53	0x3f873452	1.0562842
54	0x3f7e994a	0.9945265
55	0x3f841697	1.0319394
56	0x3f7c3239	0.98514134
57	0x3f866433	1.0499328
58	0x3f7b793f	0.9823188
59	0x3f7bbd19	0.98335415
60	0x3f80c8b8	1.0061255
61	0x3f81cece	1.0141237
62	0x3f7f57f7	0.997436
63	0x3f7eee67	0.99582523
64	0x3f80e3ae	1.0069482
65	0x3f7cf657	0.98813385
66	0x3f80856f	1.0040721
67	0x3f7f71a2	0.99782765
68	0x3f80b1b9	1.0054237
69	0x3f81ec98	1.0150328
70	0x3f841706	1.0319526
71	0x3f7c0240	0.98440933
72	0x3f7e2cd5	0.9928716
73	0x3f7a8ae3	0.97868174
74	0x3f81e944	1.0149312
75	0x3f7b3617	0.9812941
76	0x3f7e95ca	0.9944731
77	0x3f81191a	1.0085785
78	0x3f7a07b7	0.9766802
79	0x3f7e9487	0.99445385
80	0x3f7ab24e	0.9792832
81	0x3f818718	1.0119352
82	0x3f8225f6	1.0167835
83	0x3f849ed4	1.036097
84	0x3f84f73d	1.0387951
85	0x3f7dcef6	0.9914392
86	0x3f8116ff	1.0085143
87	0x3f810fa4	1.0082898
88	0x3f7f4bb5	0.99724895
89	0x3f7ba4c7	0.98298305
90	0x3f801202	1.0005496
91	0x3f810274	1.0078874
92	0x3f7fc009	0.999024
93	0x3f7c57c6	0.9857143
94	0x3f79c2d6	0.9756292
95	0x3f80ba93	1.0056938
96	0x3f82a2e2	1.0205958
97	0x3f85f2e4	1.0464749
98	0x3f82a1f8	1.0205679
99	0x3f7eff7c	0.9960859

layers.0.weight f4 [2, 100]
0	0x3cfb399e	0.030667122
1	0x3d9362ca	0.07196577
2	0x3d080a29	0.033212814
3	0x3ca3f722	0.020015303
4	0x3e2a7616	0.16646609
5	0x3cc172fd	0.023614401
6	0x3cb783fc	0.022401802
7	0x3c180ea7	0.009280837
8	0x3d1d946c	0.038471624
9	0x3d8564df	0.0651338
10	0x3d6ccf82	0.057815082
11	0x3d829374	0.06375781
12	0xbc42d471	-0.01189147
13	0x3ce2ff97	0.027709765
14	0xbd7b2f73	-0.061324548
15	0x3c9a1214	0.018807448
16	0x3c48a575	0.012246479
17	0xbda4c4fc	-0.08045384
18	0xbc7467b6	-0.014917305
19	0x3e02a2e4	0.1275745
20	0x3d6cdd52	0.057828255
21	0xb8a48473	-7.8448e-05
22	0x3d2ef16d	0.04271071
23	0x3d195907	0.03743842
24	0xbcb7e8e1	-0.022449913
25	0x3da7337d	0.081641175
26	0x3ca09ece	0.019606974
27	0x3d848f08	0.064725935
28	0xbc7158bf	-0.014730631
29	0x3c5b6b8d	0.013392341
30	0x3d595f7c	0.053069577
31	0xbb0ae98d	-0.0021196336
32	0x3c822ee9	0.01589151
33	0xbc844ca1	-0.01614982
34	0x3c8e2e91	0.017356189
35	0x3c811390	0.015756398
36	0x3d7e6fe6	0.062118433
37	0x3d125be5	0.03573217
38	0xbc95575a	-0.018230129
39	0xbcd55017	-0.026039166
40	0x3da5a016	0.080871746
41	0xbd135b17	-0.035975542
42	0x3cfc1f06	0.030776512
43	0x3d8c9c2d	0.06865726
44	0xbd0eaa2e	-0.034830265
45	0xbc9fe218	-0.01951699
46	0x3bf87ed7	0.00758348
47	0x39cd7d03	0.00039193788
48	0x3cd9e7ff	0.026599882
49	0x3d08cda5	0.033399243
50	0x3c0a6aba	0.008448297
51	0x3b7d7454	0.0038674073
52	0xbcb5ae2e	-0.022177782
53	0x3d4ebf9e	0.05047571
54	0x3ce6af4d	0.028159762
55	0xb95cc0c8	-0.00021052652
56	0xbd23a948	-0.03995636
57	0x3cfb6611	0.030688317
58	0x3c7dbe85	0.015487318
59	0x3d68372f	0.056693252
60	0xbd83e4f7	-0.06440156
61	0x3ce884ad	0.028383577
62	0x3d50c636	0.05097028
63	0x3cc53cd6	0.02407686
64	0xbb4e4458	-0.0031473842
65	0x3c3b4115	0.011429091
66	0x3d31f08b	0.04344229
67	0xbcff0c78	-0.031133875
68	0xbd87b075	-0.066254534
69	0x3db2d2e9	0.08731634
70	0x3d13ebcc	0.036113545
71	0x3ca0b182	0.019615892
72	0xbc594a8f	-0.013262405
73	0x3c33d9e3	0.010977241
74	0x3d096655	0.033544857
75	0x3d71a84d	0.058998395
76	0xbc6b53ad	-0.014363212
77	0x3cc0f2d5	0.023553291
78	0x3d30f860	0.04320562
79	0x3d0fba62	0.035089858
80	0x3d01ee73	0.031721544
81	0xbc047bf0	-0.00808619
82	0xbd126dad	-0.035749126
83	0xbc8b58db	-0.017010143
84	0xbca8c2a4	-0.020600624
85	0x3d8b6498	0.06806296
86	0xbd94498b	-0.0724059
87	0x3d8c30d8	0.06845254
88	0xbce3cb96	-0.027807038
89	0x3d3a74b3	0.04552145
90	0x3b18973b	0.00232835
91	0xbd4d6893	-0.050148558
92	0x3d511a53	0.051050495
93	0xbccbc19d	-0.024872595
94	0xbccd9328	-0.025094584
95	0x3c857194	0.01628951
96	0x3d4d76fb	0.050162297
97	0xbd8900c8	-0.06689602
98	0xbd9da29f	-0.07697033
99	0xbd57bf0a	-0.052672423
100	0xbd758747	-0.059943464
101	0xbc4dd681	-0.012563349
102	0x3e0fb2cb	0.14033048
103	0x3da3d0aa	0.07998784
104	0x3cb83e78	0.022490725
105	0xbdc4ac89	-0.09603221
106	0x38a3aaec	7.804282e-05
107	0x3d120269	0.03564683
108	0xbb86641e	-0.0041012904
109	0xbd04d74a	-0.03243188
110	0xbcb0784b	-0.021541735
111	0xbc0e1101	-0.008671046
112	0x3cadbd1f	0.021208344
113	0x3d663c90	0.0562101
114	0x3d558794	0.05213125
115	0xbd8e4c06	-0.06948094
116	0xbc9eb55e	-0.019373592
117	0x3d5277e4	0.051383868
118	0x3d13c377	0.03607508
119	0x3d828bef	0.063743465
120	0x3ce08231	0.02740583
121	0x3c97f0cd	0.01854744
122	0xbceeba39	-0.029141532
123	0xbd1b44aa	-0.03790728
124	0x3d26ee07	0.040754344
125	0x3c9c998a	0.019116182
126	0xbb414c04	-0.0029494772
127	0xbd09f842	-0.033684023
128	0xbcf5e1de	-0.030014928
129	0xbd11bbac	-0.03557937
130	0xbd8a7f97	-0.06762617
131	0xbc08203b	-0.008308466
132	0x3d9125db	0.070872985
133	0x3d9c3b00	0.07628441
134	0x3d0aa2b8	0.033846587
135	0xbd55deee	-0.052214555
136	0xbbe46338	-0.0069698356
137	0xba1f30ab	-0.0006072621
138	0x3c9311c2	0.017952804
139	0xbdc9d7ce	-0.098556146
140	0xbca2137d	-0.019784683
141	0x3d56f7a4	0.052482262
142	0x3d2b1de4	0.041776553
143	0xbd302417	-0.043003168
144	0x3ceace8b	0.02866294
145	0xbc4b032d	-0.012390894
146	0x3d359715	0.044333536
147	0xbca5b834	-0.020229436
148	0xbd3ce4df	-0.046116706
149	0x3ca75f1a	0.02043109
150	0x3e1a8b3b	0.15092175
151	0x3beb9233	0.007189059
152	0x3c3010d5	0.010746201
153	0xbd1c84c8	-0.038212568
154	0xbca9ffca	-0.020751853
155	0xbcbc3d0f	-0.022978334
156	0x3d27cbe8	0.040965945
157	0xbc8e26a9	-0.017352419
158	0xbd5e917b	-0.05433796
159	0xbd332e19	-0.043745134
160	0x3cfda925	0.030964443
161	0xbd9720c5	-0.07379297
162	0x3c261b4c	0.010138344
163	0x3d36ed48	0.044659883
164	0xbd548fa5	-0.051894803
165	0x3c9455f3	0.01810739
166	0xbca8b8bb	-0.020595899
167	0x3b279265	0.0025569436
168	0x3cdad833	0.02671442
169	0x3d38d8eb	0.045128744
170	0xba89d5b8	-0.0010515964
171	0xbd076056	-0.033050857
172	0x3d98a16f	0.07452666
173	0x3c8f6ded	0.017508471
174	0xbc9c2762	-0.019061748
175	0xbd2b5a9d	-0.041834462
176	0xbcd08059	-0.025451826
177	0x3d87ba71	0.06627358
178	0xbd9f1cfa	-0.07769199
179	0x3d085511	0.03328425
180	0xbc2522e9	-0.010079124
181	0x38d83834	0.00010310151
182	0xbca2c5b5	-0.019869665
183	0xbc525c69	-0.012839415
184	0xbcc7a866	-0.02437229
185	0xbd814f84	-0.063139945
186	0x3c59d357	0.013295016
187	0xbd9ae2d2	-0.07562794
188	0xb9e9ae48	-0.00044571073
189	0x3d17b32f	0.037036117
190	0x399f5946	0.00030393357
191	0xbc9db1c8	-0.019249812
192	0x3c5f3c62	0.013625236
193	0x3d357e3d	0.044309843
194	0xbbdab98c	-0.006674951
195	0x3d92e4a0	0.07172513
196	0xbd428608	-0.047491103
197	0x3d8edc80	0.06975651
198	0x3d2a1d64	0.041531935
199	0x3d05da6d	0.03267901

layers.0.bias f4 [2]
0	0xbcc3cab0	-0.02390036
1	0x3bf09c94	0.0073428843

layers.2.weight f4 [2]
0	0x3ecdd262	0.40199572
1	0x3ed957c7	0.4244978

layers.2.bias f4 [2]
0	0x3c472162	0.012153955
1	0xbd22ca16	-0.039743505

layers.2.running_mean f4 [2]
0	0x3d9889da	0.07448168
1	0x3d756d8c	0.059918925

layers.2.running_var f4 [2]
0	0x3c3f69cd	0.01168294
1	0x3c200304	0.009766344

layers.3.weight f4 [2, 2]
0	0x3e990dba	0.29893285
1	0xbe0330f1	-0.12811638
2	0xbe5ec33e	-0.21754166
3	0xbe4a1cd2	-0.19737557

layers.3.bias f4 [2]
0	0x3d5185c3	0.051152956
1	0xbda78ec7	-0.081815295

layers.5.weight f4 [2]
0	0x3e8fece3	0.28110418
1	0x3f640aac	0.89078784

layers.5.bias f4 [2]
0	0xbf5c8156	-0.8613485
1	0xbebd76b7	-0.37004635

layers.5.running_mean f4 [2]
0	0x3da083c8	0.07837635
1	0x3c5eb2d7	0.013592443

layers.5.running_var f4 [2]
0	0x3c5fd022	0.013660463
1	0x39b2a6a9	0.00034074977

layers.6.weight f4 [3, 2]
0	0x3e58f628	0.21187651
1	0xbf45609f	-0.7710056
2	0x405110c5	3.2666485
3	0x3fa198f3	1.2624801
4	0xbe96338b	-0.293362
5	0x3f14e541	0.58162314

layers.6.bias f4 [3]
0	0x3ed1974a	0.40935737
1	0xc037d6bc	-2.8724813
2	0x3ef25911	0.47333577

exp_avg f4 [2, 100]
0	0xbe178852	-0.14798096
1	0x3d93c8fd	0.0721607
2	0xbbb280f6	-0.0054475022
3	0xbe11edd9	-0.14250888
4	0xbd494045	-0.049133558
5	0x3d5de913	0.054177355
6	0x3cec06e1	0.028811874
7	0xbd6f069f	-0.058355924
8	0x3d91a188	0.07110888
9	0xbd65afae	-0.056075744
10	0x3d4310d0	0.047623456
11	0x3d1a2435	0.037632186
12	0x3bed0132	0.0072328085
13	0xbd64d3f4	-0.055866197
14	0xbe0888b4	-0.13333398
15	0x3d6c4566	0.05768337
16	0xbda8d28d	-0.082432844
17	0x3d44d5df	0.048055526
18	0xbe0bab48	-0.13639557
19	0x3d42ddb2	0.047574706
20	0xbc977d7f	-0.018492458
21	0xbcb7ba13	-0.022427594
22	0x3d8fbc72	0.07018365
23	0xbdb41c0f	-0.08794414
24	0xbcbbdc06	-0.022932064
25	0xbdd3fdac	-0.103511184
26	0xbe1a7d81	-0.15086938
27	0xbcf2c896	-0.029636662
28	0x3cc31d7f	0.023817776
29	0xbd601d03	-0.054715168
30	0x3e26cd37	0.16289221
31	0xbd002a64	-0.031290427
32	0x3d2bc164	0.04193248
33	0x3cbeaaa1	0.023274722
34	0x3e07394d	0.13205452
35	0xbcc2e9e6	-0.023793172
36	0xbdad81f7	-0.084720545
37	0xbd2a130a	-0.041522063
38	0x3d216a2e	0.0394079
39	0xbd3b3e82	-0.04571391
40	0xbd06f25d	-0.03294598
41	0xbb95ae62	-0.004567907
42	0x3cb06cee	0.021536317
43	0x3dbe838a	0.09302433
44	0xbdd3a49b	-0.103341304
45	0xbcfe075c	-0.031009369
46	0xbcde0ab5	-0.027104715
47	0x3d700b7e	0.05860471
48	0xbc433527	-0.011914528
49	0x3e0471da	0.12934056
50	0x3d57e5e3	0.05270947
51	0xba831c41	-0.0010002927
52	0x3d06774d	0.032828618
53	0x3d57908e	0.052628092
54	0xbce3cba3	-0.027807062
55	0x3e4c13af	0.19929384
56	0x3d8db52f	0.06919324
57	0xbe09962c	-0.13436192
58	0xbd861ca8	-0.065484345
59	0xbd3be9a7	-0.045877125
60	0x3d05053f	0.032475706
61	0xbd8baa46	-0.068195865
62	0xbd79450d	-0.060856868
63	0xbcbd70a1	-0.023124995
64	0xbd7558e1	-0.059899215
65	0x3c0ec9fd	0.00871515
66	0x3c253a39	0.010084682
67	0xbd8ff13b	-0.07028433
68	0xbdf690dc	-0.120393485
69	0xbb8bea28	-0.004269857
70	0xbc0226d3	-0.007943827
71	0x3c31efb6	0.010860374
72	0x3dc0c946	0.0941339
73	0xbd9da986	-0.0769835
74	0xbd1d125b	-0.038347583
75	0xbdcfaa70	-0.1013993
76	0x3cc61220	0.024178565
77	0x3d37225d	0.044710506
78	0xbd35a52c	-0.044346973
79	0xbdc0a7fb	-0.0940704
80	0xbc06bfc8	-0.008224435
81	0x3da8e050	0.08245909
82	0x3c24102f	0.010013624
83	0x3d099bac	0.033595726
84	0xbd8ff437	-0.07029002
85	0x3d95fe8d	0.07323942
86	0xbde1fc30	-0.11034429
87	0x3dd67896	0.10472219
88	0x3cb16a6e	0.021657195
89	0xbe1f0089	-0.15527548
90	0xbcb9ac67	-0.022665216
91	0x3dc73eb6	0.09728758
92	0x3dbc99ca	0.092090204
93	0x3d8019db	0.062549315
94	0x3cb8cbc5	0.022558102
95	0x3dafe5c4	0.08588746
96	0xbdf857c8	-0.12126118
97	0xbd90f51d	-0.07078002
98	0x3dee1b44	0.11626294
99	0xbe1ce17a	-0.15320387
100	0xbda56179	-0.08075232
101	0x3d9d2541	0.07673121
102	0x3d3889b9	0.045053218
103	0xbdb2c640	-0.087292194
104	0xbcdd04ba	-0.026979793
105	0x3d7a21fa	0.06106756
106	0xbc048be9	-0.008089998
107	0x3cfea3b4	0.03108392
108	0x3cf57004	0.02996064
109	0x3b0783c9	0.0020677915
110	0x3d92eaaa	0.07173665
111	0xbdec2cd1	-0.115319856
112	0xbd661c2b	-0.056179207
113	0x3e0fb4eb	0.14033858
114	0xbd8b0f25	-0.06789998
115	0x3c9c2482	0.019060377
116	0xbe0108f7	-0.12601076
117	0x3cc029b4	0.023457386
118	0xbc62de7a	-0.013846988
119	0x3dd0a313	0.10187354
120	0xbdae63f8	-0.08515161
121	0xbe113024	-0.1417852
122	0x3d321f82	0.04348708
123	0xbe22952f	-0.15877222
124	0x3c599504	0.013280157
125	0xbe1c13f3	-0.15241985
126	0xbd69ae9a	-0.05705128
127	0xbd118178	-0.03552386
128	0xbad85e53	-0.0016507603
129	0xbcbd39bf	-0.023098825
130	0x3da7fc74	0.082024485
131	0xbda315d3	-0.07963147
132	0xbce4591a	-0.027874518
133	0xbd3a584d	-0.045494366
134	0xbd6b495e	-0.057443015
135	0xbdd433af	-0.1036142
136	0xbd9a83a9	-0.075446434
137	0xbda38c60	-0.07985759
138	0x3c08f706	0.008359676
139	0xbcc377d5	-0.023860851
140	0xbdf22206	-0.11822896
141	0xbd38f922	-0.045159467
142	0x3dad5fe3	0.084655546
143	0x3dc24b64	0.09487036
144	0x38d298fe	0.00010042077
145	0x3d83deca	0.06438978
146	0x3d540159	0.051759098
147	0x3d806e1b	0.06271001
148	0x3daf6a7d	0.08565233
149	0x3d29dd4e	0.04147082
150	0x3c872a63	0.016499704
151	0xbcdf9747	-0.027293814
152	0xbd31893d	-0.04334377
153	0x3d974bc2	0.073874965
154	0x3d42c4c7	0.047550943
155	0x3dca6313	0.09882178
156	0x3c5136c9	0.012769409
157	0xbcde337e	-0.027124163
158	0xbd3526e0	-0.044226527
159	0xbe0718f4	-0.13193113
160	0xbd01fe21	-0.031736497
161	0xbc9c9cdb	-0.019117763
162	0xbd3cd999	-0.046105955
163	0xbdb577f7	-0.08860772
164	0x3ddf8366	0.10913734
165	0xbd05f1f7	-0.03270146
166	0xbdb228c5	-0.086991824
167	0x3ddb814f	0.10718023
168	0xbd286c78	-0.04111907
169	0x3c2be7eb	0.010492305
170	0xbdad429a	-0.08459969
171	0x3d2ec32d	0.042666603
172	0xbd813716	-0.06309335
173	0xbd5f7cac	-0.054562256
174	0x39e12151	0.00042940167
175	0xbdea2672	-0.11433114
176	0x3c874df7	0.016516669
177	0x3d1c4023	0.038147103
178	0xbc05f82c	-0.008176845
179	0x3ced359b	0.028956225
180	0x3d0af112	0.03392131
181	0x3d8a85ee	0.06763826
182	0xbc440c26	-0.011965787
183	0xbb96d982	-0.0046035657
184	0x3cc57ab8	0.024106368
185	0x3ca909a2	0.020634476
186	0x3b721fe7	0.0036945285
187	0x3e2bcbd6	0.16776976
188	0x3d5b706f	0.053574022
189	0x3ce43e79	0.02786182
190	0x3c3ecfde	0.011646239
191	0x3c837c3a	0.016050447
192	0x3e275d52	0.16344193
193	0xbca62d86	-0.02028538
194	0xbc6f9afe	-0.014624355
195	0xbd86fb6e	-0.06590925
196	0xbd98a121	-0.07452608
197	0xbda8e539	-0.08246846
198	0x3e10277c	0.14077562
199	0x3d40510b	0.04695229

exp_avg_sq f4 [2, 100]
0	0x3d8ea816	0.069656536
1	0x3d971bf2	0.07378377
2	0x3da9af8e	0.082854375
3	0x3da38294	0.0798389
4	0x3e01beba	0.12670413
5	0x3d8d0489	0.06885631
6	0x3d06bfd3	0.03289778
7	0x3d6c91ab	0.057756107
8	0x3d96e0f5	0.07367126
9	0x3d8e47a9	0.06947262
10	0x3d96ba9e	0.07359813
11	0x3d9a12c7	0.07523113
12	0x3d2eee5b	0.042707782
13	0x3d9f9197	0.07791441
14	0x3dd55b91	0.104178555
15	0x3d83de46	0.0643888
16	0x3d2da87b	0.042397004
17	0x3dbde1c3	0.09271576
18	0x3d3887e8	0.045051485
19	0x3de1edad	0.11031661
20	0x3d952f23	0.07284381
21	0x3d5f1e2a	0.054472126
22	0x3d9a65f6	0.07538979
23	0x3d7d0242	0.06176973
24	0x3da0e7f3	0.07856741
25	0x3dac09e9	0.08400328
26	0x3d5d61d8	0.05404839
27	0x3da0b238	0.078464925
28	0x3d6244b4	0.0552413
29	0x3d240526	0.040043972
30	0x3d9fb69d	0.077985026
31	0x3ccf203a	0.025283922
32	0x3d9fa817	0.077957325
33	0x3d89878a	0.06715305
34	0x3d644e15	0.055738527
35	0x3d71fe79	0.059080575
36	0x3d87c3e0	0.06629157
37	0x3d64fe47	0.05590656
38	0x3d04c6dc	0.03241621
39	0x3da76cb9	0.08175034
40	0x3d9903af	0.07471406
41	0x3da93076	0.08261196
42	0x3d6592ea	0.05604831
43	0x3dde7fa0	0.10864186
44	0x3d6a98e9	0.057274733
45	0x3d2f187d	0.042747963
46	0x3d512e90	0.051069796
47	0x3d239e93	0.03994615
48	0x3d7b3d57	0.061337795
49	0x3d73a8c8	0.059487134
50	0x3daa6518	0.08320063
51	0x3cb4b208	0.022057548
52	0x3ce079f5	0.027401904
53	0x3d8f36af	0.06992852
54	0x3d0b94a3	0.034077298
55	0x3d6b952d	0.057515312
56	0x3d8b3bd0	0.06798518
57	0x3d4b37a1	0.0496136
58	0x3d80bf61	0.06286503
59	0x3d9099ba	0.07060571
60	0x3d9ae92f	0.075640075
61	0x3da51631	0.08060873
62	0x3d3f89e8	0.046762377
63	0x3d5beddd	0.05369364
64	0x3d6fb620	0.058523297
65	0x3d15fd45	0.03661849
66	0x3d79a6bf	0.060950037
67	0x3d3e73d4	0.04649718
68	0x3d956e7a	0.07296462
69	0x3db75f1c	0.089536875
70	0x3d7d10fd	0.06178378
71	0x3d6df8c5	0.058098573
72	0x3da820a2	0.08209349
73	0x3d2ad28f	0.04170471
74	0x3d6b9a3e	0.057520144
75	0x3d9b8e27	0.07595473
76	0x3d06b9f7	0.032892194
77	0x3d874ce4	0.066064626
78	0x3d9022db	0.07037898
79	0x3d7834d9	0.060597274
80	0x3d3c7980	0.04601431
81	0x3d22c4e8	0.039738566
82	0x3d6af23a	0.05735991
83	0x3c994b22	0.018712584
84	0x3d2eb5c7	0.042653825
85	0x3db4537e	0.08804987
86	0x3d8f4941	0.06996394
87	0x3db756dc	0.08952114
88	0x3d710b8e	0.05884891
89	0x3d7fb8e2	0.062432177
90	0x3c78195d	0.015142766
91	0x3d8c6bea	0.068565205
92	0x3d579870	0.05263561
93	0x3d98a72a	0.07453759
94	0x3d57c119	0.052674387
95	0x3da33355	0.07968775
96	0x3d879cf1	0.06621731
97	0x3db5d01f	0.088775866
98	0x3db9177f	0.09037685
99	0x3d8ccdac	0.06875166
100	0x3d424680	0.047430515
101	0x3d8b7f70	0.06811416
102	0x3d910642	0.07081272
103	0x3d5db641	0.05412889
104	0x3dc8a716	0.09797494
105	0x3d8b36be	0.067975506
106	0x3cb5e9b5	0.022206167
107	0x3d578b6f	0.05262321
108	0x3d300952	0.04297764
109	0x3d7a6d3d	0.061139334
110	0x3d56d5c1	0.052449945
111	0x3d7f0afe	0.062266342
112	0x3d19156e	0.037373953
113	0x3d734ee5	0.05940141
114	0x3da5c834	0.08094826
115	0x3d63b204	0.05558969
116	0x3d331729	0.04372326
117	0x3daab8ea	0.08336051
118	0x3d1feaec	0.0390424
119	0x3dd020eb	0.101625286
120	0x3d79450f	0.060856875
121	0x3d42b1eb	0.047532957
122	0x3d5e6465	0.054294962
123	0x3d811881	0.06303502
124	0x3d4e2661	0.05032957
125	0x3d9067ba	0.07051034
126	0x3d432d87	0.04765084
127	0x3d827311	0.063696034
128	0x3d540c29	0.05176941
129	0x3d2e4f2d	0.042555977
130	0x3d910d42	0.07082607
131	0x3ca1fcbc	0.019773833
132	0x3d72adfa	0.05924795
133	0x3d87c0e5	0.066285886
134	0x3d452cc5	0.0481384
135	0x3d634702	0.05548764
136	0x3d5adf24	0.05343546
137	0x3d3fa82e	0.046791248
138	0x3ced29fa	0.02895068
139	0x3d92b226	0.07162885
140	0x3d8798ae	0.06620918
141	0x3d51ef14	0.051253393
142	0x3d539325	0.051654
143	0x3da55a1f	0.0807383
144	0x3d21b646	0.03948047
145	0x3d2d3973	0.042291116
146	0x3d7114a0	0.05885756
147	0x3d1b0431	0.037845794
148	0x3d7b435a	0.06134353
149	0x3d7ce2b0	0.061739624
150	0x3db649d9	0.08900804
151	0x3c791ba8	0.015204348
152	0x3cbfbd6f	0.023405759
153	0x3d7c7147	0.061631467
154	0x3cf65ba6	0.030072998
155	0x3d21384e	0.039360337
156	0x3d814b29	0.06313164
157	0x3d10ae38	0.035322398
158	0x3d470cea	0.0485963
159	0x3d8f498c	0.0699645
160	0x3d85c424	0.065315515
161	0x3d95e948	0.073198855
162	0x3d44bd2a	0.048031963
163	0x3d491102	0.049088486
164	0x3d6c0817	0.057624903
165	0x3ccd7a4c	0.02508273
166	0x3d65eb93	0.056132864
167	0x3d390229	0.045168076
168	0x3d89b2a0	0.06723523
169	0x3d8eceb3	0.069730185
170	0x3d545c62	0.051845916
171	0x3d537318	0.051623434
172	0x3d996d55	0.074915566
173	0x3d10503a	0.03523276
174	0x3d2f8a35	0.042856414
175	0x3d9963ce	0.07489739
176	0x3d038b14	0.032115057
177	0x3d6493c6	0.05580499
178	0x3d8659f9	0.0656013
179	0x3d411bab	0.047145527
180	0x3d0ed740	0.034873247
181	0x3d171e43	0.036894094
182	0x3d600986	0.054696582
183	0x3c967f25	0.018371174
184	0x3d0127da	0.031532146
185	0x3d8a8c1d	0.06765006
186	0x3d94751f	0.072489016
187	0x3dabf2c6	0.08395915
188	0x3d5ba2c0	0.053622007
189	0x3d7ae857	0.061256733
190	0x3c9aa8b9	0.018879281
191	0x3d4c85ef	0.049932417
192	0x3d73c07d	0.059509743
193	0x3d5f523e	0.05452179
194	0x3d28eed8	0.041243404
195	0x3d8abe69	0.06774599
196	0x3d8b7556	0.068094894
197	0x3d6f641c	0.05844508
198	0x3d6eac6a	0.058269896
199	0x3d53ecb5	0.051739413

exp_avg f4 [2, 2]
0	0xb96fe22e	-0.00022877075
1	0x3a0264f6	0.0004974151
2	0xbbc71290	-0.006075211
3	0x3c850216	0.016236346

exp_avg_sq f4 [2, 2]
0	0x38969016	7.1793955e-05
1	0x3971d5ce	0.000230632
2	0x3d0fd3f0	0.03511423
3	0x3cf1263f	0.029437182

exp_avg f4 [3, 2]
0	0xbca81245	-0.020516524
1	0x3a95ea90	0.0011437703
2	0xba237f4b	-0.00062369247
3	0xb6773fb6	-3.6842953e-06
4	0x3cad2e42	0.021140222
5	0xba956eec	-0.0011400855

exp_avg_sq f4 [3, 2]
0	0x3b2de2eb	0.0026532959
1	0x3b2ac449	0.0026056936
2	0x34db2f1a	4.08262e-07
3	0x30613854	8.193457e-10
4	0x3b2e0e20	0.0026558712
5	0x3b2abe20	0.0026053265

exp_avg f4 [100]
0	0x3acaa20e	0.0015459673
1	0x3c3c06e6	0.011476254
2	0x3c617d73	0.01376282
3	0xbcc9ff3a	-0.024657834
4	0xbc96fcec	-0.01843115
5	0xbc240b57	-0.010012469
6	0x3b680655	0.0035404165
7	0x3aed7f0a	0.0018119526
8	0x3c048582	0.008088471
9	0xbc1c069f	-0.009523063
10	0x3b4ee442	0.0031569158
11	0x3c3e1dc6	0.011603778
12	0xbb872856	-0.0041246815
13	0x3c8c8a28	0.017155722
14	0x3c3f5cb9	0.011679822
15	0xb9eec03a	-0.00045538117
16	0x3bb2a92d	0.005452296
17	0xbbda28b4	-0.006657684
18	0x3bb87c50	0.0056300536
19	0x3cde613a	0.02714597
20	0xbc0fa564	-0.00876746
21	0xbbf3157c	-0.0074183326
22	0x3b919d89	0.0044438285
23	0x3c0ddfec	0.008659344
24	0x3b676a93	0.0035311326
25	0xbcdac441	-0.02670491
26	0xbc07b8dd	-0.008283821
27	0xbb077f17	-0.0020675117
28	0xb9fc8b36	-0.00048168906
29	0x3a4fa8db	0.0007921585
30	0x3c09236d	0.008370263
31	0x3b86fcc0	0.0041194856
32	0xbb506536	-0.0031798608
33	0xbc155c04	-0.0091161765
34	0x3b0eda34	0.002179754
35	0x3c701641	0.014653743
36	0xbc562149	-0.013069459
37	0xbb50f857	-0.0031886303
38	0xbae86491	-0.0017730166
39	0x3c0b203f	0.008491575
40	0xba163557	-0.0005729994
41	0xbbb9bdea	-0.0056683915
42	0x3c5e1251	0.013554172
43	0x3bb0bb67	0.005393434
44	0x3c2e5352	0.010639982
45	0x39163e58	0.0001432834
46	0x3bf35451	0.007425823
47	0xbb733a1a	-0.0037113489
48	0xbc3dbaf3	-0.011580217
49	0x3c7b9002	0.015354158
50	0x3c065ede	0.008201329
51	0xb9fb4ba1	-0.000479308
52	0xbb92c29f	-0.004478767
53	0xba0560bb	-0.00050879613
54	0xbbbb1f6e	-0.005710534
55	0xbbbd7a3c	-0.0057823937
56	0xbbb577fd	-0.0055379854
57	0xbc2de1dd	-0.010612932
58	0x3b8b8082	0.0042572627
59	0x3c149cb9	0.009070569
60	0xbbea8acf	-0.0071576606
61	0xba3bcf2a	-0.0007164354
62	0xbc27750e	-0.010220779
63	0xbc545022	-0.012958558
64	0xbc6be359	-0.014397466
65	0xbae5abce	-0.0017522515
66	0x3bcd5f2c	0.006267449
67	0x3c08b334	0.008343507
68	0x3c90baaa	0.017667133
69	0x39d330ba	0.0004028136
70	0xb7faa15a	-2.9877458e-05
71	0xbb4fa1de	-0.0031682174
72	0xbc69d4ff	-0.014271974
73	0xbbb3840d	-0.005478388
74	0xbb874c4c	-0.0041289683
75	0xbb441a60	-0.0029922947
76	0xbb36a5b4	-0.0027869763
77	0x3c25eba3	0.010126981
78	0xbb3d3750	-0.002887208
79	0xbbd04908	-0.0063563623
80	0xbaf0ef21	-0.0018381813
81	0xbadf7a99	-0.0017050087
82	0x3a5a65b0	0.00083311927
83	0xbb070515	-0.0020602394
84	0x3b5dfdb2	0.0033873138
85	0x3c16d900	0.00920701
86	0x3ca5f538	0.020258531
87	0xbc518b06	-0.012789493
88	0xbaae65c1	-0.0013305472
89	0xbc85da7f	-0.016339539
90	0x397aa169	0.00023901988
91	0xbc6c5857	-0.014425359
92	0x3cb6010d	0.022217298
93	0xbbd7790f	-0.0065757106
94	0xba8afda3	-0.0010604154
95	0xbbe2d78d	-0.0069226683
96	0xbbdb7c74	-0.0066981856
97	0xbad13e64	-0.0015964028
98	0xbbf7c752	-0.0075616026
99	0x3cd39920	0.025829852

exp_avg_sq f4 [100]
0	0x3a908005	0.0011024481
1	0x3b123fdd	0.0022315898
2	0x3bf05002	0.0073337564
3	0x3b21b3cf	0.0024673825
4	0x3c711f86	0.014716988
5	0x3b5fb295	0.0034133543
6	0x393e0d1f	0.000181247
7	0x3a35406b	0.0006914201
8	0x3a872067	0.0010309339
9	0x3b0c8349	0.0021440557
10	0x3ad93ad4	0.0016573318
11	0x3af52bf4	0.0018705116
12	0x39a6c639	0.00031809675
13	0x3af76a6c	0.0018876321
14	0x3b52a01e	0.0032138894
15	0x3b076179	0.0020657463
16	0x39607286	0.00021404968
17	0x3b839a59	0.0040162024
18	0x39f45015	0.00046598972
19	0x3c2aefdc	0.0104331635
20	0x3b153a77	0.0022770443
21	0x39911026	0.00027668587
22	0x3a84f879	0.0010144851
23	0x3aa95a05	0.0012920505
24	0x3a7637a2	0.0009392445
25	0x3b6c8e00	0.003609538
26	0x39531a0e	0.00020132234
27	0x3b0f6603	0.0021880872
28	0x3a0f85dd	0.0005474964
29	0x39ddba02	0.0004229099
30	0x3b2f0f74	0.0026712092
31	0x3885790a	6.3644795e-05
32	0x3b1b9470	0.0023739599
33	0x3b030fc8	0.001999842
34	0x3a341742	0.0006869921
35	0x3aaad674	0.0013033883
36	0x3adbeebf	0.0016779526
37	0x39efe450	0.00045755738
38	0x38f74332	0.00011790394
39	0x3b9c9a4e	0.0047791367
40	0x3b3f60d6	0.0029202006
41	0x3ab6926c	0.0013929135
42	0x3ab1fb8e	0.0013578997
43	0x3b3a5749	0.0028433374
44	0x3a45e2f4	0.0007548772
45	0x39bd5060	0.00036108773
46	0x3a9ce941	0.001197137
47	0x391c37b0	0.00014898065
48	0x3a8e421a	0.001085344
49	0x3a8d4850	0.0010778997
50	0x3c15dd09	0.009146937
51	0x382d55fc	4.1326493e-05
52	0x3985a264	0.00025488727
53	0x3ad0476c	0.0015890426
54	0x39a91514	0.00032249896
55	0x39133530	0.00014038826
56	0x3a91761f	0.0011097825
57	0x3a375fec	0.00069951895
58	0x3a963912	0.00114611
59	0x3b17116b	0.0023051153
60	0x3af83831	0.0018937645
61	0x3b3913bd	0.0028240525
62	0x3a5d2779	0.0008436363
63	0x3a9b754c	0.0011860519
64	0x3a92078e	0.0011141167
65	0x393998fe	0.00017699969
66	0x3a885897	0.0010402378
67	0x39b868e5	0.00035173367
68	0x3b026b24	0.0019900287
69	0x3bb49f87	0.005512181
70	0x3a6ff841	0.0009154119
71	0x39d538cd	0.00040668846
72	0x3b10215b	0.0021992538
73	0x38cfd2b1	9.9097735e-05
74	0x3a24603b	0.0006270443
75	0x3b067868	0.0020518545
76	0x39b79761	0.00035017266
77	0x3b0aad56	0.0021160445
78	0x3b232feb	0.0024900388
79	0x3a8ad085	0.0010590708
80	0x39e53176	0.00043715135
81	0x380804da	3.2429445e-05
82	0x3a96443a	0.0011464425
83	0x390fb2a7	0.00013704096
84	0x3a30a4c6	0.00067384203
85	0x3b528727	0.0032124014
86	0x3b11863e	0.0022205259
87	0x3b6e7e67	0.003639126
88	0x3a314725	0.00067626155
89	0x3afa2f22	0.0019087533
90	0x37425c50	1.1584794e-05
91	0x3ac5134f	0.0015035662
92	0x3aaa9e3a	0.0013017126
93	0x3a6f60c3	0.0009131545
94	0x39c5f025	0.0003775369
95	0x3b1bd8c1	0.0023780318
96	0x3b07ea1a	0.00207389
97	0x3b49b8c5	0.0030780297
98	0x3b692e9e	0.0035580765
99	0x3acd69b1	0.0015671757

exp_avg f4 [100]
0	0xbab80c24	-0.0014041704
1	0x3c96ee20	0.018424094
2	0x3d032ff0	0.03202814
3	0x3c9570cc	0.018242262
4	0x3d4f72a5	0.050646443
5	0xbc0a375a	-0.008436048
6	0x3bc8b969	0.0061256182
7	0x3c097d74	0.008391727
8	0x3c26f4df	0.010190218
9	0x3c59c5b5	0.013291766
10	0x3c5733a6	0.013134873
11	0x3c89cd43	0.01682151
12	0x389b3043	7.3999654e-05
13	0x3c89d49f	0.016825018
14	0xbc12aec9	-0.008952805
15	0xbbc16bd8	-0.0059027486
16	0x399a2d61	0.0002940698
17	0xbc7124a1	-0.014718206
18	0x3a81dfbc	0.0009908597
19	0x3d3df1b8	0.0463731
20	0x3ca8e3cd	0.020616436
21	0x3b2abcdc	0.002605251
22	0x3bf2c3dc	0.007408602
23	0x3b8215a1	0.0039698635
24	0x39214312	0.00015379142
25	0x3cd6138d	0.02613237
26	0x3ba20178	0.0049440227
27	0x3c501fdd	0.012702909
28	0xbc116271	-0.008873568
29	0xbb23a5e9	-0.0024970716
30	0x3b96273d	0.0045823143
31	0xbb136df0	-0.0022495948
32	0x3c861ce7	0.016371204
33	0x3c059e45	0.00815541
34	0x3c2aeec5	0.010432904
35	0xbb8a9f44	-0.0042304117
36	0x3c849341	0.016183497
37	0x3c17c6c6	0.0092637
38	0xbafd9d36	-0.0019349221
39	0xbcbd4d1e	-0.023108061
40	0x3ca12e81	0.019675495
41	0xbaf78532	-0.00188843
42	0x3c818921	0.015812458
43	0x3c4fcc22	0.012682946
44	0xbbb348d8	-0.00547133
45	0xbbf0f824	-0.0073537994
46	0x3c1a46f3	0.00941633
47	0xbb562980	-0.0032678545
48	0x395411c7	0.00020224518
49	0x3c59967b	0.013280506
50	0x3cd9e33a	0.026597608
51	0x3aff9069	0.0019497994
52	0xbb979c93	-0.0046268194
53	0x3c06d698	0.008229874
54	0x3b98de0d	0.0046651424
55	0xbb477307	-0.0030433552
56	0xbb94f834	-0.0045461897
57	0x3bb828e9	0.0056201112
58	0xbb99399e	-0.004676058
59	0x3c0df86a	0.008665184
60	0xbc557aac	-0.013029736
61	0xbb74200d	-0.003725055
62	0x3c823df3	0.01589868
63	0x3c66127d	0.014042494
64	0xbc1adee1	-0.009452553
65	0x3bcbd6f8	0.0062206946
66	0x3c1750b2	0.009235548
67	0xbc096594	-0.0083860345
68	0xbc70333a	-0.014660651
69	0x3d03bc81	0.032162193
70	0x3c264d2a	0.010150233
71	0xb874a17f	-5.832454e-05
72	0x3c07eb35	0.008295824
73	0x3bc193a9	0.005907495
74	0x3bd4376f	0.0064763348
75	0x3c1d7631	0.009610699
76	0xbbfa5710	-0.007639773
77	0x3c910e97	0.017707152
78	0xb9ca771f	-0.00038617195
79	0x3c74dc67	0.014945126
80	0x3bf66f7c	0.007520614
81	0xbb2185fb	-0.002464651
82	0xbc5d5098	-0.013507985
83	0xbbe1fb15	-0.0068963864
84	0xbc218a3f	-0.009859621
85	0x3c18931f	0.00931242
86	0xbc94949c	-0.018137269
87	0x3bee77a4	0.007277446
88	0xbc07dcff	-0.008292436
89	0x3c967cf5	0.018370131
90	0x3a314179	0.00067617703
91	0xbc8aba9b	-0.016934684
92	0x3c8819de	0.016613897
93	0x39369096	0.00017410735
94	0xbc08a16a	-0.008339265
95	0x3c85b62c	0.016322218
96	0x3bc85a64	0.006114291
97	0xbbfb5546	-0.0076700775
98	0xbc714276	-0.014725318
99	0xbc258fbe	-0.010105072

exp_avg_sq f4 [100]
0	0x3b2aed4e	0.0026081386
1	0x3b21a361	0.0024664032
2	0x3c325736	0.0108850505
3	0x3b5331d5	0.0032225747
4	0x3c3ad826	0.011404073
5	0x3bc4e10d	0.0060082735
6	0x391f08e2	0.00015166731
7	0x3a4ca332	0.00078063004
8	0x3a401630	0.0007327525
9	0x3b4be703	0.0031113036
10	0x3b0def1e	0.0021657418
11	0x3b009cfd	0.0019624822
12	0x3a031f65	0.00050019316
13	0x3b04a37d	0.0020239048
14	0x3b755606	0.0037435307
15	0x3b50f091	0.003188167
16	0x39d74674	0.00041060487
17	0x3bb62b5a	0.005559367
18	0x3a4f6a60	0.00079122745
19	0x3bef7663	0.007307814
20	0x3ac6b80a	0.0015161049
21	0x39bcf3cc	0.00036039797
22	0x3a9b0597	0.0011827227
23	0x3afe8ae5	0.0019420056
24	0x3abbb4b0	0.0014320817
25	0x3b2e4487	0.0026591138
26	0x39544454	0.0002024335
27	0x3b3c38d1	0.0028720389
28	0x3a3cc1f8	0.00072005345
29	0x3a4b76d6	0.00077615434
30	0x3ba9ac76	0.0051780296
31	0x3882a83c	6.230219e-05
32	0x3b294972	0.002583113
33	0x3b41fbed	0.0029599622
34	0x3a36a371	0.00069671037
35	0x3af94741	0.0019018428
36	0x3ade6bb1	0.001696935
37	0x39ddc056	0.00042295706
38	0x39261ec7	0.00015842459
39	0x3bb2a1a5	0.0054513984
40	0x3b649787	0.0034880356
41	0x3b15327c	0.0022765687
42	0x3aa52f5d	0.0012602616
43	0x3b6e2212	0.0036336225
44	0x3a8cdd5a	0.001074712
45	0x39967c7e	0.00028702983
46	0x3aad2202	0.0013208988
47	0x3947f3f3	0.00019068997
48	0x3adc5976	0.0016811329
49	0x3a53ed71	0.0008084393
50	0x3c4c6b5c	0.012476768
51	0x386da2ac	5.6656703e-05
52	0x39955702	0.0002848432
53	0x3b218259	0.0024644344
54	0x39f78ea7	0.00047217796
55	0x3967b6b0	0.00022097933
56	0x3ae9eecd	0.0017847657
57	0x3a512fcb	0.0007979839
58	0x3b07d82c	0.0020728214
59	0x3b4f83b5	0.0031664197
60	0x3b2c830e	0.0026323232
61	0x3b82787f	0.0039816494
62	0x3a69ae41	0.00089142105
63	0x3a999143	0.0011716265
64	0x3ab4d329	0.0013795841
65	0x39397da1	0.00017689775
66	0x3aa7306b	0.0012755519
67	0x39d34d0f	0.0004030247
68	0x3b24f5db	0.0025170955
69	0x3b7fe984	0.0039049098
70	0x3a3be11a	0.00071670266
71	0x3a3bd678	0.0007165442
72	0x3b42f5f7	0.0029748657
73	0x38beb803	9.094181e-05
74	0x3a6dcae5	0.0009071066
75	0x3b572dbe	0.003283366
76	0x39b4ea01	0.00034506622
77	0x3b22dfcc	0.0024852632
78	0x3b87d6a9	0.0041454625
79	0x3a6d3ecc	0.000905019
80	0x3a073b95	0.000515872
81	0x38434d6f	4.656374e-05
82	0x3a342cef	0.00068731507
83	0x391174c1	0.00013871772
84	0x3a0a240b	0.0005269653
85	0x3bb2801d	0.005447401
86	0x3b2e7fb7	0.0026626417
87	0x3bd519d0	0.006503321
88	0x3a1e8abe	0.0006047896
89	0x3acffd68	0.0015868368
90	0x377a3b64	1.4914989e-05
91	0x3a959881	0.0011413248
92	0x3a82d179	0.0009980641
93	0x3ab5e333	0.0013876915
94	0x39b482a0	0.000344296
95	0x3b46d74a	0.0030340725
96	0x3b3c6ac5	0.0028750163
97	0x3bab4272	0.0052264268
98	0x3b926f60	0.0044688433
99	0x3b11eca3	0.002226629

exp_avg f4 [2]
0	0x3e90f542	0.28312117
1	0x3e2571dc	0.16156715

exp_avg_sq f4 [2]
0	0x3edfb10c	0.43689764
1	0x3f0ffc69	0.5624452

exp_avg f4 [2]
0	0x3b432708	0.0029777903
1	0xbbf9d043	-0.0076237037

exp_avg_sq f4 [2]
0	0x3c380e3f	0.011233865
1	0x3b8b6449	0.0042538983

exp_avg f4 [2]
0	0x3b3989a0	0.002831079
1	0x3af451d0	0.0018640105

exp_avg_sq f4 [2]
0	0x3d13f05d	0.0361179
1	0x3cebdd4f	0.028792052

exp_avg f4 [2]
0	0x3b160424	0.0022890652
1	0xbc439f10	-0.011939779

exp_avg_sq f4 [2]
0	0x3a1dd44b	0.0006020709
1	0x3f34b2c4	0.70585275

exp_avg f4 [2]
0	0xbb183d3c	-0.0023229858
1	0xbc5ee4c8	-0.01360435

exp_avg_sq f4 [2]
0	0x3a4a48fc	0.0007716564
1	0x3b9ac70a	0.0047234343

exp_avg f4 [2]
0	0x3c61ad24	0.01377419
1	0xbce85de2	-0.02836508

exp_avg_sq f4 [2]
0	0x3a615a27	0.00085965026
1	0x3bc045ea	0.0058677094

exp_avg f4 [3]
0	0x3caf156e	0.021372523
1	0x3a6382be	0.0008678845
2	0xbcb63188	-0.022240415

exp_avg_sq f4 [3]
0	0x3b53bfaa	0.0032310286
1	0x35483962	7.458931e-07
2	0x3b53d8f6	0.0032325364
