code/models/v1.pth (torch_old, 12549 bytes, 42 tensors)

bn_cont.weight f4 [100]
0	0x3f610420	0.8789692
1	0x3f6713d9	0.9026466
2	0x3f83bfe8	1.029294
3	0x3f6bc95f	0.9210414
4	0x3f8382aa	1.027425
5	0x3f74ffb4	0.9570267
6	0x3f559cd5	0.8344243
7	0x3f694a0b	0.91128606
8	0x3f5b38ce	0.8563355
9	0x3f6689fb	0.9005429
10	0x3f60542e	0.8762845
11	0x3f63ad35	0.8893617
12	0x3f63fef2	0.8906089
13	0x3f746506	0.9546665
14	0x3f636eb0	0.8884077
15	0x3f582920	0.8443775
16	0x3f5f3497	0.8718962
17	0x3f776363	0.9663603
18	0x3f6a612b	0.91554517
19	0x3f7d5ca3	0.9896948
20	0x3f6a1fda	0.9145485
21	0x3f5ecba1	0.87029463
22	0x3f746af8	0.9547572
23	0x3f645eae	0.8920697
24	0x3f69e71d	0.91368276
25	0x3f74120f	0.95340055
26	0x3f6051d0	0.87624836
27	0x3f6bf893	0.9217617
28	0x3f6fb942	0.93642056
29	0x3f624dfa	0.8840023
30	0x3f66b701	0.9012299
31	0x3f5edc53	0.8705494
32	0x3f6e047d	0.929756
33	0x3f6a8934	0.91615605
34	0x3f6a052d	0.9141415
35	0x3f5cccf2	0.8625022
36	0x3f674c5b	0.90350884
37	0x3f6a0709	0.91416985
38	0x3f5ca72c	0.86192584
39	0x3f6897f4	0.9085686
40	0x3f7395c9	0.9515043
41	0x3f6acf0f	0.91722196
42	0x3f6597cb	0.8968474
43	0x3f71de69	0.94479996
44	0x3f695b0f	0.9115457
45	0x3f662bbf	0.899105
46	0x3f643cd9	0.89155346
47	0x3f5f3a11	0.8719798
48	0x3f68405d	0.9072321
49	0x3f64711b	0.89235085
50	0x3f6bd3e3	0.9212019
51	0x3f66d8ea	0.90174735
52	0x3f631422	0.88702595
53	0x3f6cd9dd	0.92519933
54	0x3f562524	0.8365042
55	0x3f6466dc	0.8921945
56	0x3f6c4c95	0.92304355
57	0x3f653713	0.8953716
58	0x3f5eccb7	0.8703112
59	0x3f58ebad	0.8473461
60	0x3f69d213	0.9133617
61	0x3f639bb0	0.88909435
62	0x3f6b01b3	0.9179947
63	0x3f6091e3	0.87722605
64	0x3f64b74b	0.8934218
65	0x3f689415	0.90850955
66	0x3f636073	0.88819045
67	0x3f5bf3dd	0.8591898
68	0x3f696efd	0.9118498
69	0x3f7786c3	0.96690005
70	0x3f5de475	0.8667672
71	0x3f60549f	0.8762912
72	0x3f685b86	0.90764654
73	0x3f6c68ee	0.9234761
74	0x3f6c685f	0.9234676
75	0x3f65af09	0.8972021
76	0x3f6b5d1b	0.9193894
77	0x3f723dab	0.9462535
78	0x3f65b8d6	0.8973516
79	0x3f6f9282	0.9358293
80	0x3f6cad0b	0.9245154
81	0x3f69dce5	0.91352683
82	0x3f63c095	0.8896573
83	0x3f618c41	0.88104635
84	0x3f5f35b8	0.87191343
85	0x3f78c237	0.9717135
86	0x3f6c9361	0.9241238
87	0x3f74625e	0.95462596
88	0x3f6e483c	0.9307897
89	0x3f622366	0.88335264
90	0x3f638c4a	0.8888594
91	0x3f5b9401	0.8577271
92	0x3f5fb1e0	0.8738079
93	0x3f6b3361	0.91875273
94	0x3f68f3ea	0.90997183
95	0x3f73bd78	0.9521098
96	0x3f66a030	0.90088177
97	0x3f699d1f	0.9125537
98	0x3f69470d	0.9112404
99	0x3f673cf9	0.9032741

bn_cont.bias f4 [100]
0	0xbc631d96	-0.013862034
1	0xba035f84	-0.00050114864
2	0x3cc531f3	0.02407167
3	0x3d0d3de4	0.03448285
4	0x3d11d22c	0.035600826
5	0x3d07c66d	0.033148218
6	0xbd074822	-0.033027776
7	0x3d01da94	0.031702593
8	0x3d04cfdb	0.03242479
9	0x3ccb555e	0.02482098
10	0x3c8eb75f	0.017421423
11	0xbcc685fb	-0.024233809
12	0xbcc12289	-0.023576038
13	0x3c9eae86	0.019370329
14	0xbcdde765	-0.027087877
15	0xbd072608	-0.032995254
16	0xbc1fbaa2	-0.009749087
17	0xbd1d8e18	-0.03846559
18	0xbca5e0a3	-0.020248717
19	0x3c063a2d	0.008192581
20	0x3ce4484e	0.027866509
21	0xbc984fd8	-0.01859276
22	0x3d3698fd	0.044579495
23	0xbc11d29b	-0.00890031
24	0xbc0d70fb	-0.008632894
25	0xbbaeec57	-0.0053382325
26	0xbb046f5f	-0.0020207984
27	0x3d2325ab	0.039830845
28	0xbd0277ab	-0.031852406
29	0xbd002246	-0.031282686
30	0x3d0aac7a	0.033855893
31	0x3cbf879c	0.023380093
32	0x3d036ff8	0.032089204
33	0x3cd4a07d	0.025955433
34	0xbc9a8aa9	-0.018864946
35	0xbc79ef79	-0.015254849
36	0x3d290a38	0.04126951
37	0x3ccfff51	0.025390299
38	0x3cb8cf31	0.022559734
39	0xbd17a206	-0.037019752
40	0x3cd09b79	0.02546476
41	0x3cd907bd	0.026492948
42	0xbcc1ac95	-0.023641864
43	0x3d30b613	0.04314239
44	0xbd038aea	-0.0321149
45	0x3ceeddcf	0.029158501
46	0xbd23b176	-0.03996416
47	0xbce9829c	-0.028504662
48	0x3b34729f	0.002753414
49	0x3cb44a9d	0.022008235
50	0xbcc94ea5	-0.024573633
51	0x3d2920bb	0.04129098
52	0xbd027698	-0.03185138
53	0x3cf76349	0.03019871
54	0xbc1be0ae	-0.009514017
55	0x3d152390	0.03641087
56	0x3c081ac6	0.008307165
57	0xbcb9ffc2	-0.022704963
58	0xbb0781d4	-0.0020676749
59	0xbcd2ca5e	-0.025731262
60	0xbac8ad0d	-0.0015310362
61	0xbcd71383	-0.026254421
62	0x3d1dfa7b	0.038568955
63	0x3d1c2ab7	0.038126674
64	0xbd0d54d4	-0.034504727
65	0xbbc29479	-0.0059381095
66	0x3c1aa830	0.009439513
67	0x3cb095ee	0.021555867
68	0xbcf52043	-0.02992261
69	0x3cbf9bbd	0.023389691
70	0x3ce2f8c1	0.027706506
71	0x3d0036fa	0.03130243
72	0xbcc528f0	-0.024067372
73	0xbc22955d	-0.009923306
74	0x3d2eb676	0.042654477
75	0x3cb06039	0.021530258
76	0xbd27953e	-0.040913813
77	0x3cac36f3	0.021022296
78	0x3cd0f8fc	0.02550935
79	0x3d11af70	0.0355677
80	0x3d071970	0.032983243
81	0xbcfb03b6	-0.030641418
82	0x3cba9838	0.022777662
83	0xbd05658d	-0.03256755
84	0xbc9a2de4	-0.01882071
85	0x3cfc12f4	0.030770756
86	0xbd1faaf3	-0.03898139
87	0x3d180907	0.037117984
88	0xbd262a8a	-0.040567912
89	0x3d216405	0.039402027
90	0xbd106214	-0.035249785
91	0xbcf5d613	-0.030009305
92	0x39dfa57d	0.00042657173
93	0xbd0a76d1	-0.03380472
94	0xbc8ff6a5	-0.017573664
95	0xbc4f8615	-0.012666245
96	0x3d143cec	0.036190912
97	0xbd1107c2	-0.03540779
98	0xbd1301a6	-0.035890244
99	0xbd2e8a52	-0.04261238

bn_cont.running_mean f4 [100]
0	0x3c8a9a5c	0.016919307
1	0x3c663510	0.014050737
2	0x3a89c9ad	0.0010512375
3	0xbc9a59f9	-0.01884173
4	0xbc0d2164	-0.008613918
5	0xbb3eb766	-0.0029101013
6	0xbc42f11f	-0.011898308
7	0xba0a2fa2	-0.000527138
8	0x3bcf2c1c	0.006322397
9	0x3ce4f63d	0.027949447
10	0x3c54e8ef	0.012994989
11	0xbc476d39	-0.012172037
12	0x3c881897	0.016613288
13	0xb8b16fe6	-8.4608604e-05
14	0x3c4c3130	0.012462899
15	0x3c31fa74	0.010862935
16	0x3cfafb0c	0.030637287
17	0x3b8a5c85	0.004222455
18	0x3c5fb174	0.013653148
19	0xbc46ec6e	-0.01214133
20	0xbba6511e	-0.005075588
21	0xbbc7a020	-0.0060920864
22	0x3d10f7a6	0.035392426
23	0xbbb13a2d	-0.0054085464
24	0x3b69a079	0.0035648628
25	0xba2010e8	-0.0006106035
26	0x3c393932	0.01130514
27	0x3c13d925	0.009023939
28	0xbc9068ac	-0.017628036
29	0xbad47f33	-0.0016212225
30	0x3c3cbfcf	0.01152034
31	0xbbc5615c	-0.006023569
32	0x3c0c2921	0.008554728
33	0x3cc9c387	0.024629368
34	0x3c0dd98c	0.008657824
35	0xbca95340	-0.02066958
36	0x3d1974ef	0.037465032
37	0xbccbd5af	-0.024882166
38	0xbc8cfc12	-0.01721004
39	0xbc274a92	-0.01021065
40	0xbd22e9c7	-0.03977373
41	0x3c92208a	0.017837781
42	0xbc2e7e14	-0.010650177
43	0x3bda751f	0.006666794
44	0x3c95bad1	0.018277558
45	0xbc960d92	-0.018317018
46	0x3bec46a1	0.007210568
47	0xbaeef407	-0.0018230685
48	0x3a8d2ba7	0.0010770456
49	0xbb20238a	-0.0024435245
50	0xbca6b65f	-0.020350633
51	0x3b05fb67	0.0020444037
52	0x3ad130ac	0.001595994
53	0xbc8b8ca6	-0.01703484
54	0x3cce404e	0.025177147
55	0x3ba989f5	0.0051739165
56	0x3c99b2e8	0.018762067
57	0xbba02cc2	-0.004888148
58	0xbc1d1c8a	-0.009589324
59	0xbd18f3f9	-0.037342045
60	0x3c374667	0.011186219
61	0xba2595ce	-0.0006316573
62	0x3c12f560	0.008969635
63	0xbbd93c7e	-0.0066295257
64	0xb8e9068d	-0.00011111526
65	0xbc8f111f	-0.017464219
66	0xbbf02014	-0.0073280428
67	0xbb80d642	-0.0039317915
68	0xbca1e1e4	-0.019761033
69	0xbabdc952	-0.0014479554
70	0xbc6622de	-0.014046399
71	0x3c15a563	0.00913367
72	0xbd0abb5a	-0.03387008
73	0x3c26159b	0.010136987
74	0x3cbebea7	0.02328427
75	0x3c782cae	0.015147371
76	0xbcacb1fe	-0.021080967
77	0x3c59f00c	0.013301861
78	0x3c54062a	0.012940923
79	0xbbce1fd3	-0.006290415
80	0xbbc13074	-0.0058956686
81	0x3ba6d626	0.0050914465
82	0xbba59085	-0.0050526285
83	0x3c809a21	0.015698494
84	0x3a983cd5	0.0011614809
85	0xbc540ad6	-0.012942037
86	0x3cc6b92d	0.02425822
87	0xbd216f45	-0.039412756
88	0x3c952431	0.018205734
89	0x3baac625	0.005211609
90	0x3b2d4f33	0.0026444911
91	0xbb87806e	-0.004135183
92	0x3cab6550	0.020922333
93	0x3c826200	0.01591587
94	0x3cb82264	0.022477336
95	0x3d23f925	0.040032525
96	0xbcda7a18	-0.026669547
97	0x3d02c50f	0.03192621
98	0x3cb284bb	0.021791806
99	0x3c547b2d	0.0129688205

bn_cont.running_var f4 [100]
0	0x3f79d68f	0.97593015
1	0x3f8252c4	1.0181508
2	0x3f7e2dd7	0.99288696
3	0x3f80ccda	1.0062516
4	0x3f7fdc05	0.999451
5	0x3f801b5b	1.0008348
6	0x3f8133a9	1.009389
7	0x3f82cce3	1.0218776
8	0x3f7f7286	0.99784124
9	0x3f7c2036	0.9848665
10	0x3f7cc1dc	0.98733306
11	0x3f7e2e23	0.9928915
12	0x3f79cc0f	0.97576994
13	0x3f8026d3	1.0011848
14	0x3f7b106b	0.98071927
15	0x3f7ca63a	0.9869114
16	0x3f7cacc4	0.9870112
17	0x3f7f215b	0.9966027
18	0x3f81f72e	1.0153558
19	0x3f7ceb31	0.98796374
20	0x3f80eb05	1.0071722
21	0x3f7a92c6	0.9788021
22	0x3f830f9f	1.0239142
23	0x3f80ac88	1.0052652
24	0x3f816b37	1.0110844
25	0x3f8099a8	1.0046892
26	0x3f819840	1.0124588
27	0x3f84049b	1.0313905
28	0x3f809a53	1.0047096
29	0x3f820b85	1.0159765
30	0x3f801051	1.0004979
31	0x3f7dbb14	0.99113584
32	0x3f81eaaf	1.0149745
33	0x3f808e1b	1.0043367
34	0x3f78637b	0.97026795
35	0x3f7b19d5	0.9808629
36	0x3f7c6b13	0.9860088
37	0x3f801d90	1.0009022
38	0x3f7d49d5	0.98940784
39	0x3f7ab952	0.97939026
40	0x3f8052eb	1.0025305
41	0x3f81f4b1	1.0152799
42	0x3f80dccc	1.0067382
43	0x3f79c26d	0.97562295
44	0x3f816685	1.0109411
45	0x3f80380b	1.0017103
46	0x3f8107e7	1.0080537
47	0x3f7f7a05	0.9979556
48	0x3f7818dd	0.9691294
49	0x3f839b58	1.0281782
50	0x3f7be3f7	0.9839472
51	0x3f79b837	0.97546715
52	0x3f7e61d5	0.9936803
53	0x3f7b2127	0.9809746
54	0x3f825b3d	1.0184094
55	0x3f8139cf	1.0095767
56	0x3f7e259d	0.99276143
57	0x3f800160	1.000042
58	0x3f7d8efb	0.99046296
59	0x3f82838a	1.0196393
60	0x3f82297a	1.0168908
61	0x3f80ef4d	1.0073029
62	0x3f7dbd9a	0.99117434
63	0x3f807d7b	1.0038294
64	0x3f81bbed	1.0135475
65	0x3f809930	1.0046749
66	0x3f7cd5aa	0.98763525
67	0x3f82d79e	1.0222051
68	0x3f7cd293	0.9875881
69	0x3f7d6b59	0.98991925
70	0x3f807459	1.0035506
71	0x3f7cda3f	0.9877052
72	0x3f7e4602	0.99325573
73	0x3f80c3d1	1.0059758
74	0x3f8247e1	1.0178186
75	0x3f800e87	1.0004433
76	0x3f7a6558	0.9781089
77	0x3f7fe992	0.99965775
78	0x3f7b9a3d	0.98282224
79	0x3f7c561c	0.9856889
80	0x3f7efcb7	0.9960436
81	0x3f7fcc0b	0.9992072
82	0x3f7ee986	0.9957508
83	0x3f8090f8	1.0044241
84	0x3f81c55c	1.0138354
85	0x3f7cbe4e	0.9872788
86	0x3f84ec0b	1.0384535
87	0x3f832396	1.0245235
88	0x3f7f3a2b	0.9969813
89	0x3f808a3b	1.0042185
90	0x3f7dd9ca	0.99160445
91	0x3f8246b4	1.0177827
92	0x3f80b0d8	1.0053968
93	0x3f768399	0.9629455
94	0x3f826289	1.018632
95	0x3f82c9b2	1.0217803
96	0x3f8088d4	1.0041757
97	0x3f7f7342	0.99785244
98	0x3f7f5f06	0.9975437
99	0x3f80564c	1.0026336

layers.0.weight f4 [2, 100]
0	0x3ca45619	0.020060586
1	0x3d8d273f	0.06892251
2	0x3e044b24	0.12919289
3	0x3dc16650	0.09443343
4	0x3e448211	0.19190241
5	0x3d89e9ee	0.06734072
6	0xbccbc1c4	-0.024872668
7	0x3d4a7d7f	0.04943609
8	0x3d689d19	0.056790445
9	0x3d79726f	0.060900148
10	0x3c4fa770	0.012674198
11	0x3d5fd02a	0.05464188
12	0xbc9b846e	-0.018984046
13	0x3d6c2609	0.05765346
14	0xbd0f5a1c	-0.034998044
15	0xbc8aa7bf	-0.01692569
16	0xbc33a207	-0.010963923
17	0xbe06f03f	-0.13177584
18	0xbbbd64bc	-0.0057798307
19	0x3e0cff91	0.13769366
20	0x3d9055c3	0.07047608
21	0x3c93dc21	0.018049302
22	0x3d871014	0.065948635
23	0x3bfb0054	0.007659951
24	0xbcf9022a	-0.03039654
25	0x3dc2a10c	0.095033735
26	0x3cc5d01e	0.02414709
27	0x3d88b078	0.06674284
28	0xbc86cf71	-0.016456338
29	0xbcacd01b	-0.021095326
30	0x3dae4335	0.085089125
31	0x3822bcec	3.8799757e-05
32	0x3d91e8cc	0.071244806
33	0x3cd3fba4	0.025876828
34	0xbd31ec35	-0.043438155
35	0xbc6356fd	-0.01387572
36	0x3daa68b9	0.083207555
37	0x3d0a85b4	0.033818915
38	0xbaf2bdf5	-0.0018519746
39	0xbd9e7161	-0.07736469
40	0x3dafd55d	0.08585618
41	0x3d76c80c	0.060249373
42	0xbc1f3271	-0.009716616
43	0x3d963543	0.073343776
44	0xbd4b96cb	-0.049704354
45	0x3c8526f0	0.016253918
46	0xbcd30e27	-0.025763584
47	0x3b02ec0d	0.0019977123
48	0x3ccd9b0a	0.025098342
49	0x3d1b8cb4	0.03797598
50	0xbbe63513	-0.00702537
51	0x3d452e17	0.048139658
52	0xbd34096f	-0.04395431
53	0x3da5e9a8	0.08101207
54	0x3cd15a57	0.025555773
55	0x3be8a5d2	0.0070998454
56	0x3bfa79c3	0.0076439097
57	0x3bab9dec	0.0052373316
58	0x3cdeb78b	0.02718713
59	0x3c9d085c	0.019169025
60	0xbcee1e77	-0.029067261
61	0xbcb93cb5	-0.022611955
62	0x3daea145	0.085268535
63	0x3d4b849e	0.04968702
64	0xbcfc71bb	-0.03081595
65	0x3d1601e0	0.036622882
66	0x3cdd06b1	0.02698073
67	0xbc2d7b21	-0.010588438
68	0xbd731cad	-0.05935352
69	0x3dcad2f3	0.099035166
70	0x3d44e8c5	0.04807355
71	0x3b6f39e5	0.0036503014
72	0x3ce6922b	0.02814587
73	0x3c7159f3	0.014730918
74	0x3d764432	0.06012363
75	0x3d07a433	0.033115577
76	0xbd355aea	-0.044276156
77	0x3d01a69c	0.03165303
78	0x3d08867d	0.033331383
79	0x3ddfaedf	0.10922026
80	0x3cf61a24	0.030041762
81	0xbd26a0c3	-0.040680658
82	0x3b59994e	0.003320295
83	0xbce087d1	-0.027408512
84	0xbc61d0b5	-0.01378267
85	0x3dabc0c8	0.083863795
86	0xbdc26540	-0.09491968
87	0x3d937d78	0.07201666
88	0xbdb482a8	-0.08813983
89	0x3d80a6e3	0.06281831
90	0xbd62e066	-0.055389784
91	0xbd01b3b8	-0.031665534
92	0x3c476e81	0.012172342
93	0xbd40421a	-0.04693804
94	0xbcaa9b26	-0.020825934
95	0x3c06bdca	0.00822396
96	0x3dba4aa0	0.09096265
97	0xbdb9a1a1	-0.090640314
98	0xbdab62ee	-0.08368479
99	0xbda60b1e	-0.08107589
100	0xbd8a8ae7	-0.06764775
101	0xbcec2d8c	-0.028830312
102	0x3e1cb29a	0.15302506
103	0x3ca6c4e7	0.020357562
104	0x3db3ff10	0.08788884
105	0xbdaa4743	-0.08314373
106	0xba0e6955	-0.0005432566
107	0x3cc77740	0.024348855
108	0xbc1b1b64	-0.00946698
109	0x3d37b962	0.04485453
110	0xbd1f5fa4	-0.03890957
111	0x3d2550db	0.040360313
112	0x3d6bd4e6	0.057576083
113	0x3db0d84e	0.08635007
114	0x3cce80ec	0.02520796
115	0xbc4b4048	-0.012405463
116	0xbd3797f5	-0.044822652
117	0x3b130914	0.002243583
118	0x3dbc0328	0.091802895
119	0x3d6e3d82	0.058164127
120	0x3d1b142d	0.037861038
121	0x39a797fe	0.00031965965
122	0xbd15c2f5	-0.03656288
123	0xbdc90bf0	-0.0981673
124	0x3cd7b0d5	0.026329437
125	0x3d43a985	0.04776909
126	0xbd4124f3	-0.04715438
127	0x3cd395bb	0.025828233
128	0xbd302f4d	-0.04301386
129	0x3ccd9458	0.02509515
130	0xbd462e22	-0.04838384
131	0x3c6b8052	0.014373856
132	0x3da06353	0.078314446
133	0x3be6a619	0.0070388434
134	0x3d91c0a4	0.071168214
135	0xbd0dded6	-0.03463634
136	0x3be673b8	0.0070328377
137	0x3cee3c4d	0.029081488
138	0xbd32c97c	-0.04364918
139	0xbd6b9df9	-0.0575237
140	0xbccc402f	-0.024932949
141	0x3da43521	0.08017946
142	0x3dc588eb	0.09645256
143	0x3b91f0bd	0.004453747
144	0x3dabf3e0	0.08396125
145	0xbdc0a6f8	-0.09406847
146	0x3cae6659	0.021289038
147	0xbc4bc0be	-0.01243609
148	0xbd776e25	-0.060407776
149	0x3d15dde2	0.036588557
150	0x3e029f6a	0.12756124
151	0xbc952554	-0.018206276
152	0x3d9d1efd	0.07671926
153	0xbda628cc	-0.0811325
154	0x3aa8f729	0.0012891042
155	0xbcb60761	-0.022220315
156	0x3d7b2d1c	0.061322317
157	0x3d59eb9d	0.053203214
158	0xbb73a2dc	-0.003717593
159	0x3d029e3a	0.031889178
160	0x3d1d8cbc	0.038464293
161	0xbdb5ae7c	-0.08871171
162	0x3c87b760	0.016566932
163	0xbc5ea403	-0.013588908
164	0xbd0c7164	-0.034287825
165	0xbd23b0f9	-0.039963696
166	0xbd4d9813	-0.050193857
167	0x3d22c21e	0.039735906
168	0xbd2a389d	-0.041557897
169	0x3dd2bd0b	0.10289963
170	0x3d2198f0	0.039452493
171	0xbd009d96	-0.031400286
172	0x3d1a0f73	0.03761239
173	0x3d24a4cd	0.04019623
174	0xbd0fe14f	-0.03512698
175	0xbd5aa945	-0.053384084
176	0x3cdeeff6	0.027214032
177	0x3e165889	0.14682211
178	0xbd96025e	-0.0732467
179	0x3d6d47a5	0.057929654
180	0xbcc04e38	-0.023474798
181	0xbd42745c	-0.04747425
182	0xbda37e56	-0.07983081
183	0x3d35a9ae	0.044351272
184	0x3d143b11	0.036189143
185	0xbdcf8d65	-0.10134391
186	0x3c535c39	0.012900406
187	0xbddfb09f	-0.1092236
188	0xbc74a032	-0.014930772
189	0x3c346469	0.011010268
190	0x3d6931bb	0.056932192
191	0xbcbcfe4f	-0.023070483
192	0x3d0864ca	0.033299245
193	0x3c9df5b6	0.019282203
194	0xbd9d540a	-0.07682045
195	0x3d845932	0.06462325
196	0xbd057436	-0.03258153
197	0x3d4f0053	0.05053742
198	0x3c8e5f7a	0.017379511
199	0x3c32251e	0.010873107

layers.0.bias f4 [2]
0	0xbd343306	-0.043993972
1	0x3d72b73b	0.059256773

layers.2.weight f4 [2]
0	0x3f5df5a0	0.8670292
1	0x3f6ed28c	0.9329002

layers.2.bias f4 [2]
0	0x3dba4562	0.09095265
1	0xbc98c9d6	-0.01865093

layers.2.running_mean f4 [2]
0	0x3e8696b6	0.26286858
1	0x3e717fca	0.23583904

layers.2.running_var f4 [2]
0	0x3e0242b0	0.12720752
1	0x3de45094	0.111481816

layers.3.weight f4 [2, 2]
0	0x3f2cf60a	0.67562926
1	0xbeb82641	-0.35966685
2	0xbedac161	-0.4272566
3	0xbebc3891	-0.36761907

layers.3.bias f4 [2]
0	0x3dbb102d	0.09133945
1	0xbe909bbe	-0.28243822

layers.5.weight f4 [2]
0	0x3f18aeae	0.5964154
1	0x3f6e3854	0.930547

layers.5.bias f4 [2]
0	0xbf11898b	-0.568505
1	0xbec798a0	-0.3898363

layers.5.running_mean f4 [2]
0	0x3e9b54f6	0.30338258
1	0x3d8a2912	0.06746115

layers.5.running_var f4 [2]
0	0x3e780025	0.24218805
1	0x3c0ef08a	0.008724341

layers.6.weight f4 [3, 2]
0	0x3ef2b991	0.474072
1	0xbf2aa5ce	-0.6665925
2	0x3f93ba3e	1.1541212
3	0x3f07754c	0.52913356
4	0xbe1e98f3	-0.15488033
5	0x3e822fe4	0.25427163

layers.6.bias f4 [3]
0	0x3f536c62	0.82587254
1	0xbe53863f	-0.2065668
2	0x3f2d95f6	0.6780695

exp_avg f4 [2, 100]
0	0xbbbf04d1	-0.0058294316
1	0xbd22a27f	-0.03970575
2	0xbceb00c8	-0.028686896
3	0x3c7979bd	0.015226779
4	0x3ce2dbc0	0.027692676
5	0x3d39505f	0.045242663
6	0xbc2e3f59	-0.01063522
7	0xbc9a706c	-0.018852435
8	0xbc218569	-0.009858468
9	0x3b82c116	0.003990303
10	0x3bb2db99	0.005458307
11	0xbbaabf7a	-0.005210814
12	0x3ab62521	0.0013896563
13	0xbba65c04	-0.005076887
14	0xbc85162e	-0.016245928
15	0x3b0ebd86	0.0021780445
16	0x3c576c1d	0.013148335
17	0xbc417c7c	-0.011809465
18	0xba286495	-0.00064236793
19	0xbb884ddf	-0.0041596736
20	0xbc8a6c0c	-0.016897224
21	0xbcc70e61	-0.024298849
22	0x3d417e58	0.04723963
23	0xbb763298	-0.0037566777
24	0xbd22d385	-0.039752502
25	0x39f75d01	0.00047180805
26	0xbc42eef2	-0.011897789
27	0xbd0efdf2	-0.03491015
28	0xbab78aa7	-0.0014003114
29	0x3c854146	0.016266476
30	0xbc881e4f	-0.016616015
31	0xbbe128e5	-0.00687133
32	0x3d10c885	0.03534748
33	0xbd0b84ac	-0.034062073
34	0x3b747588	0.00373015
35	0xbc20f8b7	-0.009824923
36	0xbc660a55	-0.014040549
37	0xbc8e0b67	-0.017339421
38	0x3d0509a9	0.032479916
39	0x392d6dac	0.00016539422
40	0xbc570a36	-0.013124993
41	0x3cbb214e	0.02284303
42	0xbb36179d	-0.002778507
43	0xbc0c6fce	-0.008571578
44	0xbc081f8a	-0.008308301
45	0x3d1b5e09	0.037931476
46	0x3a6d2af8	0.00090472354
47	0x3ba67cf5	0.005080814
48	0x3c7cceba	0.015430147
49	0xbd4cc181	-0.049989227
50	0x3c4c65a9	0.01247541
51	0xbcb6785c	-0.022274189
52	0xbd27b96d	-0.04094832
53	0x3d0e457d	0.034734238
54	0xbd27da03	-0.040979397
55	0x3ca5cb41	0.02023852
56	0xbc49c5ae	-0.012315197
57	0xbcd5a97d	-0.026081795
58	0xbc754156	-0.014969191
59	0x3b8e3cea	0.0043407576
60	0xbc6a439c	-0.014298346
61	0xbca61e31	-0.020278068
62	0xbd2ed7ca	-0.04268626
63	0x3cf1095d	0.02942341
64	0xbc1a82d9	-0.009430611
65	0xbbbe1498	-0.005800795
66	0x3d39ea03	0.045389187
67	0x3b93e660	0.004513547
68	0x3c9ba9c1	0.019001843
69	0xbbe42721	-0.0069626723
70	0xbc063cfe	-0.008193253
71	0x3bbc154b	0.005739843
72	0x3cf24165	0.029572198
73	0xbd047b33	-0.032344054
74	0xbc730b31	-0.014834211
75	0xb6a17703	-4.8120287e-06
76	0xbc03803f	-0.008026182
77	0x3c43fb01	0.011961699
78	0x3cea5067	0.028602792
79	0xbc932a38	-0.017964467
80	0xbcb25faf	-0.021774141
81	0x3c2f46ee	0.010698063
82	0x3c905cdf	0.01762241
83	0xbc990149	-0.01867737
84	0xbd16584f	-0.03670531
85	0xbc0fdd40	-0.008780777
86	0x3ca71f32	0.020400617
87	0xbb9d54a0	-0.004801348
88	0xbccd91f7	-0.025094016
89	0x3c62cb75	0.013842453
90	0xbcc5756f	-0.024103848
91	0x3ce1d141	0.0275656
92	0x3cab71ca	0.020928282
93	0x3c551ab8	0.0130068585
94	0xbcc4b3da	-0.024011541
95	0xbcb99b8b	-0.022657176
96	0x3ca48636	0.020083528
97	0xba61dfac	-0.00086163986
98	0x3bacbdcc	0.005271649
99	0x3bf45ce5	0.007457363
100	0x3ad975a7	0.0016590849
101	0xbb432deb	-0.0029782008
102	0xbbfb00fa	-0.0076600285
103	0x3a08a6be	0.0005212835
104	0x3cff55f8	0.031168923
105	0x3d539f98	0.051665872
106	0x3be105f2	0.006867164
107	0xbb17e85d	-0.002317927
108	0x3bebc875	0.007195527
109	0x3c9284d9	0.017885612
110	0x3c8d7619	0.017268227
111	0xbd0144e4	-0.03155984
112	0xbd189eaa	-0.03726069
113	0xbca9c0b1	-0.020721765
114	0x3d1aa3b0	0.03775376
115	0xbcc1b3bc	-0.023645274
116	0x3aa72494	0.001275199
117	0xbcb98372	-0.022645686
118	0x3c7c9ec0	0.015418708
119	0xbbf09d7a	-0.0073429914
120	0x3c85faaf	0.016354887
121	0xbc31d885	-0.010854845
122	0xbb3e7123	-0.0029059134
123	0xbc2971d5	-0.010342081
124	0xbd1f6a8e	-0.038919978
125	0x3bb1e0cc	0.005428409
126	0xbbb251a9	-0.0054418636
127	0xbb65a3e4	-0.0035040313
128	0xbc2b01f3	-0.010437476
129	0x3cba9a91	0.022778781
130	0x3d094d64	0.03352107
131	0xbbd31184	-0.006441297
132	0x3cb82fc3	0.022483712
133	0xbcbb4108	-0.022858158
134	0xba7a51fb	-0.0009548959
135	0xbb3b7a7e	-0.0028606947
136	0x3b38ef43	0.0028218783
137	0xbc662dc4	-0.014048997
138	0x3b1e11fa	0.0024119602
139	0x3c88aa8f	0.016682891
140	0x3bc8c06b	0.0061264536
141	0x3c73f657	0.014890275
142	0x3d3da84b	0.046303075
143	0xbbee454a	-0.0072714435
144	0xbcbc2b15	-0.022969762
145	0xbbf2b1b7	-0.007406439
146	0x3c5d4c70	0.013506994
147	0x3c2d4add	0.010576931
148	0xbcffb722	-0.031215254
149	0xbd298d81	-0.041394714
150	0xbb91b8f4	-0.004447097
151	0xba13d40a	-0.0005639201
152	0xbbaee97f	-0.0053378935
153	0x3c2a7068	0.010402776
154	0xba316f4e	-0.00067686
155	0x3ba2414c	0.0049516317
156	0x3cf3427e	0.029694792
157	0x3c5975a0	0.013272673
158	0x3c14e361	0.0090874145
159	0x3cd0ddfe	0.02549648
160	0x3ca9b59e	0.020716485
161	0xbc0d8ce1	-0.008639545
162	0xbce83cdf	-0.028349338
163	0xbcf96e3b	-0.03044807
164	0x3ccde096	0.025131505
165	0x3ca36534	0.019945718
166	0xbc698e5e	-0.014255134
167	0xbc13d0ac	-0.009021919
168	0x3d4542e4	0.048159495
169	0x3ba659c5	0.0050766193
170	0x3c6f8c12	0.014620798
171	0xbcbe0110	-0.023193866
172	0x3cad562e	0.021159258
173	0xbcce84aa	-0.025209744
174	0xbd0d6e81	-0.034529213
175	0xbbf25263	-0.007395075
176	0xbc4cf8a6	-0.012510454
177	0xbc73a366	-0.0148705
178	0x3b84d45a	0.0040536346
179	0x3c19eb03	0.00939441
180	0xbcc40859	-0.023929762
181	0xba43309a	-0.0007445902
182	0x3ccbd938	0.024883851
183	0xbceb7c7d	-0.028745884
184	0x3c69990e	0.0142576825
185	0x3c9bd5fb	0.019022932
186	0x3d0b54f5	0.03401657
187	0xbc06836b	-0.008210043
188	0x3c2a2dbb	0.01038688
189	0xbd005d96	-0.03133925
190	0x3cc7c9a3	0.02438814
191	0xbbf994bf	-0.007616609
192	0x3a0554d0	0.00050861854
193	0x3b7b8f9a	0.0038385154
194	0xbc87c20c	-0.016572021
195	0xbc18695e	-0.009302465
196	0xbc4643cb	-0.012101124
197	0x3ca603cd	0.020265484
198	0xbd1d1eae	-0.038359337
199	0x3b6fff08	0.0036620516

exp_avg_sq f4 [2, 100]
0	0x3cd0055e	0.025393184
1	0x3ce2baca	0.027676959
2	0x3cf01dd7	0.029311104
3	0x3ccf78ce	0.025326159
4	0x3d00100a	0.031265296
5	0x3d0cb2ef	0.034350332
6	0x3cb93053	0.02260605
7	0x3cc9328f	0.024560241
8	0x3cf858f2	0.03031585
9	0x3cf07a9e	0.029355343
10	0x3cc29cd2	0.023756418
11	0x3ccdd94a	0.025128026
12	0x3cf3fd26	0.029783797
13	0x3ce44cf5	0.027868727
14	0x3ce7ef2f	0.028312294
15	0x3cc1512a	0.023598272
16	0x3ccad6c9	0.02476062
17	0x3d013aba	0.031550147
18	0x3d09ae73	0.033613633
19	0x3d0d3d62	0.034482367
20	0x3cedae15	0.029013673
21	0x3cbb7917	0.022884889
22	0x3ce461cb	0.027878663
23	0x3cebf4e5	0.028803298
24	0x3cf30fd7	0.029670639
25	0x3d1653ae	0.036700897
26	0x3cb2746b	0.021784028
27	0x3cda2ddf	0.026633201
28	0x3d0204ab	0.031742733
29	0x3cd6dc3b	0.026228061
30	0x3cbf44cd	0.023348236
31	0x3cf547bf	0.029941438
32	0x3cd44c5c	0.025915317
33	0x3cda99dc	0.026684694
34	0x3cfe413b	0.031036964
35	0x3cd42209	0.025895135
36	0x3cd1961b	0.025584271
37	0x3ccb9a03	0.024853712
38	0x3cf4c349	0.029878275
39	0x3cde611e	0.027145918
40	0x3d06a587	0.032872703
41	0x3cb2db47	0.021833075
42	0x3d033f56	0.032042824
43	0x3cf1e60d	0.029528642
44	0x3cd6d31a	0.026223708
45	0x3ccc05a6	0.024905037
46	0x3cb8c3a0	0.022554219
47	0x3ccd3999	0.025051879
48	0x3cda4773	0.026645398
49	0x3ce070ac	0.027397476
50	0x3ca8d362	0.020608608
51	0x3ce4bdd5	0.02792255
52	0x3ce39588	0.027781263
53	0x3cdb456f	0.026766507
54	0x3cb9f500	0.022699833
55	0x3cde89cc	0.027165316
56	0x3ce1de13	0.027571714
57	0x3ccf9b0e	0.02534249
58	0x3cd38610	0.025820762
59	0x3cb69f73	0.022292828
60	0x3c93bee0	0.018035352
61	0x3cbaa8c4	0.022785552
62	0x3cab48a7	0.020908667
63	0x3cee4d66	0.02908964
64	0x3cb96470	0.0226309
65	0x3cbf83d1	0.023378285
66	0x3cccf1ef	0.025017707
67	0x3cb97a6c	0.022641383
68	0x3d0fdff5	0.03512569
69	0x3cce0156	0.025147121
70	0x3cc9c0d6	0.024628084
71	0x3c98ab7f	0.018636463
72	0x3cf70223	0.030152386
73	0x3cd91737	0.026500328
74	0x3cc59352	0.0241181
75	0x3cd4b626	0.025965761
76	0x3cf4d1ad	0.029885137
77	0x3cf87414	0.030328788
78	0x3cfd0370	0.030885428
79	0x3cee320f	0.029076604
80	0x3cf77a42	0.030209664
81	0x3cc85f9e	0.024459656
82	0x3ca8ebfe	0.020620342
83	0x3cea55a4	0.02860529
84	0x3ca31905	0.019909391
85	0x3d00149f	0.031269666
86	0x3ce1aba0	0.027547657
87	0x3d02651d	0.03183471
88	0x3d03f479	0.03221557
89	0x3cd70826	0.026249003
90	0x3cc045f2	0.023470853
91	0x3cf8b80c	0.030361198
92	0x3ccc6a6e	0.024953093
93	0x3ce70826	0.028202128
94	0x3cc16aba	0.023610462
95	0x3ce2269d	0.027606303
96	0x3cd5ad2c	0.026083551
97	0x3ce1a4ef	0.027544467
98	0x3cbac155	0.022797266
99	0x3cd0cb25	0.025487492
100	0x3c76f8eb	0.015073995
101	0x3cc4390e	0.023952987
102	0x3c9f6e6b	0.019461831
103	0x3c7edc50	0.015555456
104	0x3c9ae6de	0.018908914
105	0x3c8afeba	0.016967166
106	0x3c639207	0.013889796
107	0x3c6b675b	0.014367904
108	0x3c4823ac	0.012215536
109	0x3c787751	0.015165166
110	0x3c92a991	0.017903121
111	0x3c4de369	0.012566426
112	0x3c956fe0	0.018241823
113	0x3c99efb6	0.01879106
114	0x3c657782	0.014005544
115	0x3c893cad	0.016752565
116	0x3c84103a	0.016121019
117	0x3cb5ad19	0.022177266
118	0x3c8fb584	0.017542608
119	0x3c90615e	0.017624553
120	0x3c92c33d	0.017915362
121	0x3c558293	0.01303162
122	0x3c8254f1	0.015909644
123	0x3ca7ceb4	0.020484306
124	0x3c99dd84	0.018782385
125	0x3caa80b4	0.020813324
126	0x3c6e4e3c	0.01454502
127	0x3c7563ed	0.014977437
128	0x3c73f1b4	0.0148891695
129	0x3c2f6989	0.010706314
130	0x3c95e1c7	0.018296136
131	0x3c760419	0.015015625
132	0x3c8f94fb	0.017527094
133	0x3c9ea6e2	0.019366685
134	0x3c5771c3	0.0131496815
135	0x3c5f2177	0.0136188185
136	0x3c697e17	0.014251254
137	0x3c5698a5	0.013097917
138	0x3c7553c8	0.014973588
139	0x3c9b6e38	0.018973455
140	0x3c6b6da0	0.014369398
141	0x3c953a87	0.018216385
142	0x3c9a8f23	0.018867081
143	0x3c831b31	0.016004177
144	0x3ca16934	0.019703485
145	0x3c6f69ec	0.014612656
146	0x3c7c1d57	0.015387855
147	0x3c70181f	0.014654188
148	0x3c73b391	0.014874355
149	0x3c984cd2	0.018591318
150	0x3c74d959	0.014944398
151	0x3c6f97cb	0.014623593
152	0x3c87357d	0.016504997
153	0x3c74d2ae	0.014942808
154	0x3c8ed16a	0.01743384
155	0x3c7dd760	0.015493244
156	0x3c6f93d8	0.014622651
157	0x3c8a220d	0.01686194
158	0x3c7b96dd	0.015355793
159	0x3c7f4a3e	0.015581666
160	0x3c8006b8	0.015628204
161	0x3c7429c3	0.014902535
162	0x3c7b2bfc	0.015330311
163	0x3c54ebc2	0.012995662
164	0x3c8413e1	0.01612276
165	0x3c8389f5	0.016056994
166	0x3c8ef71d	0.017451817
167	0x3c4d3c48	0.012526579
168	0x3caceb8b	0.02110841
169	0x3c9723ac	0.018449627
170	0x3ca18aa0	0.019719422
171	0x3c690a01	0.0142235765
172	0x3c86c396	0.016450685
173	0x3c920015	0.017822305
174	0x3c94e53e	0.018175717
175	0x3c5d0e17	0.013492129
176	0x3c7a1587	0.015263922
177	0x3c82b792	0.015956674
178	0x3c837bb1	0.016050192
179	0x3c6d86d3	0.014497477
180	0x3c8f792c	0.017513834
181	0x3c90e695	0.017688075
182	0x3c7f9734	0.0156000145
183	0x3c6be0de	0.014396874
184	0x3c7b0555	0.0153210955
185	0x3ca90fa5	0.020637343
186	0x3c9395ee	0.018015828
187	0x3c8a1875	0.016857365
188	0x3c79ec17	0.015254042
189	0x3ca8b813	0.020595586
190	0x3c8ccc6a	0.017187316
191	0x3c5e7115	0.013576766
192	0x3c5d3811	0.013502137
193	0x3c99d868	0.018779948
194	0x3c959caf	0.01826319
195	0x3c96a672	0.018389914
196	0x3c76215d	0.015022603
197	0x3c891d62	0.016737644
198	0x3c82a564	0.015948005
199	0x3c4a8566	0.012360906

exp_avg f4 [2, 2]
0	0xbace57ea	-0.0015742753
1	0xbb82b21c	-0.0039885174
2	0xbc4c407a	-0.012466544
3	0x3c03a298	0.008034371

exp_avg_sq f4 [2, 2]
0	0x391e0398	0.00015069393
1	0x39ff45d9	0.0004868943
2	0x3b51b7d1	0.0032000432
3	0x3b94ece9	0.0045448435

exp_avg f4 [3, 2]
0	0xbbae3072	-0.0053158337
1	0x3cae5982	0.021282915
2	0xbd0719a6	-0.032983445
3	0xbbfc682f	-0.0077028493
4	0x3d1cdfb2	0.03829927
5	0xbc5e7ef0	-0.013580069

exp_avg_sq f4 [3, 2]
0	0x3b098c83	0.0020988293
1	0x3b5c9e88	0.0033663828
2	0x3a8f3046	0.0010924421
3	0x38838e05	6.27302e-05
4	0x3b651ca2	0.0034959693
5	0x3b482179	0.003053753

exp_avg f4 [100]
0	0xb985b689	-0.00025503736
1	0xbb405fd5	-0.0029353995
2	0xbb9cdb69	-0.004786898
3	0x3ac6e8f3	0.0015175625
4	0x3bfd6e4b	0.007734095
5	0xbaafd50e	-0.0013414936
6	0x399bdefa	0.00029730034
7	0xba91ab6e	-0.0011113712
8	0xba491100	-0.00076700747
9	0x3a94b3be	0.0011345071
10	0xba35352e	-0.00069125264
11	0xbae27c42	-0.0017279463
12	0xbb204c3c	-0.0024459502
13	0xbb101f0e	-0.0021991166
14	0x3ade28d2	0.0016949421
15	0x399a135f	0.00029387602
16	0xb973a5d8	-0.00023236067
17	0x3ac15a3b	0.0014751622
18	0x3acafc02	0.0015486481
19	0xba86b8bd	-0.0010278445
20	0xba2ca2e7	-0.00065855536
21	0xba036f78	-0.00050138636
22	0x3b59fbc9	0.0033261648
23	0x3a913050	0.001107702
24	0x394ea736	0.00019707982
25	0x39abfc96	0.00032803853
26	0xb80b2270	-3.3172255e-05
27	0xbb2f0c80	-0.0026710331
28	0x3a01f72c	0.0004957791
29	0x39818bdd	0.00024709004
30	0xbb600bb3	-0.003418666
31	0xb8de9440	-0.000106133986
32	0x3b958fec	0.004564276
33	0xba968297	-0.0011483011
34	0xb98b0578	-0.0002651622
35	0x398d8f3e	0.0002700034
36	0xbaae6b1b	-0.0013307066
37	0xba90848b	-0.0011025829
38	0xb94766ac	-0.00019016367
39	0xba92c485	-0.0011197483
40	0xbab4f46b	-0.0013805752
41	0x3b35e82d	0.0027756796
42	0x3ba40f67	0.005006719
43	0xba452b8f	-0.00075214443
44	0xbadd7d78	-0.0016898355
45	0x3abe60f3	0.0014524743
46	0x3991f84a	0.00027841545
47	0xb910288e	-0.00013748018
48	0x3b242411	0.0025045911
49	0xbb7b92f4	-0.0038387151
50	0xba3af6a8	-0.00071320916
51	0xba9edce0	-0.0012120269
52	0x3aca3755	0.0015427867
53	0x3b08d8cd	0.0020881176
54	0xbaa39360	-0.0012479834
55	0x380d4ff2	3.3691475e-05
56	0x3af51e09	0.0018700968
57	0x3a275d51	0.00063844497
58	0xba044f7f	-0.0005047246
59	0x3a8be74a	0.0010673788
60	0x3aadfbec	0.0013273931
61	0x3ab34435	0.0013676943
62	0xbb94843d	-0.0045323656
63	0x3b09ea02	0.002104402
64	0xba2c5b7c	-0.00065749115
65	0xba910c3f	-0.0011066272
66	0x3b0ee3db	0.0021803293
67	0xb9f56b88	-0.00046810159
68	0xbb62e3b3	-0.0034620583
69	0xb95c658d	-0.00021018666
70	0x39447eb9	0.00018739224
71	0x3a5fb9af	0.0008534444
72	0x3aecb7b5	0.001806012
73	0xbad31795	-0.001610505
74	0x399f91ef	0.00030435572
75	0x39e08328	0.00042822328
76	0xb76b007a	-1.40072025e-05
77	0xbafb58f3	-0.0019176289
78	0x3a3bfff2	0.0007171623
79	0xbacf147a	-0.0015798949
80	0xb8f47960	-0.000116574345
81	0xb9f06147	-0.00045848844
82	0xbb0e0f8e	-0.0021676752
83	0xba66dd02	-0.00088067364
84	0x3a991069	0.0011677864
85	0xbb3667ab	-0.0027832787
86	0xbadc96b9	-0.0016829587
87	0x3a0bc9a2	0.0005332475
88	0x3b0ce210	0.0021497048
89	0x3a103eec	0.000550254
90	0x3b468fac	0.0030298037
91	0xba598101	-0.0008297116
92	0x39a3532c	0.0003115175
93	0xba20154a	-0.0006106688
94	0x3afead7e	0.0019430367
95	0xba583fe7	-0.0008249268
96	0x3b1dd09b	0.0024080637
97	0x3a971ace	0.0011528374
98	0xbaa623b3	-0.0012675434
99	0xba33a8a3	-0.0006853437

exp_avg_sq f4 [100]
0	0x38c0f5f2	9.201084e-05
1	0x392205fd	0.00015451755
2	0x3a88233c	0.0010386477
3	0x3994f244	0.00028409262
4	0x3aa12f95	0.0012297506
5	0x3991ee02	0.00027833885
6	0x37ad6f48	2.0675026e-05
7	0x38b29a14	8.516401e-05
8	0x390e57ff	0.00013574956
9	0x39409b04	0.00018368295
10	0x3821752a	3.849451e-05
11	0x38f41fb0	0.00011640729
12	0x38ac80f7	8.225621e-05
13	0x39919f41	0.0002777521
14	0x384a65a6	4.825522e-05
15	0x376a14a5	1.3952294e-05
16	0x3860506a	5.3480653e-05
17	0x3a175ea2	0.0005774294
18	0x3937e38e	0.0001753701
19	0x3a4be570	0.00077780243
20	0x395ec87a	0.00021246253
21	0x371a515b	9.198057e-06
22	0x39184edc	0.00014525227
23	0x397f7269	0.00024361316
24	0x38204e2a	3.821977e-05
25	0x39ffbeb9	0.0004877949
26	0x38653271	5.4644832e-05
27	0x3925a1b6	0.00015795868
28	0x3832458b	4.2503274e-05
29	0x37a8ccd2	2.0122538e-05
30	0x396864d0	0.000221628
31	0x369b97ea	4.637045e-06
32	0x399c4048	0.00029802532
33	0x37c6cb4e	2.369811e-05
34	0x391e186a	0.00015077149
35	0x3804c315	3.1652937e-05
36	0x39668b22	0.0002198634
37	0x3855bbaa	5.0957933e-05
38	0x3828c02d	4.02333e-05
39	0x39a973b4	0.00032320397
40	0x398a0e9a	0.0002633229
41	0x3982a465	0.00024918016
42	0x3963ba99	0.0002171792
43	0x3939989f	0.0001769983
44	0x396fcc6c	0.00022868969
45	0x393176fa	0.00016924358
46	0x37ce7cdd	2.4615258e-05
47	0x364cec06	3.0535753e-06
48	0x38a14150	7.689244e-05
49	0x38c2dbe1	9.2915965e-05
50	0x3996c1c3	0.00028754593
51	0x38a2abac	7.756738e-05
52	0x39311492	0.00016887698
53	0x398fadb2	0.00027404499
54	0x37af8845	2.0925081e-05
55	0x373fb9e8	1.1427772e-05
56	0x388f5ec6	6.836424e-05
57	0x38874264	6.449668e-05
58	0x37cbf321	2.4312701e-05
59	0x380f4886	3.41614e-05
60	0x38352888	4.319151e-05
61	0x393bf739	0.00017925807
62	0x394794f8	0.00019033614
63	0x38c7aa4d	9.5207804e-05
64	0x386af3e7	5.60171e-05
65	0x38837d5d	6.2699175e-05
66	0x38814969	6.164873e-05
67	0x37fa87da	2.9865583e-05
68	0x3960a7ea	0.00021424858
69	0x3a0d7583	0.0005396234
70	0x39127840	0.00013968442
71	0x37944e4a	1.7679431e-05
72	0x3884efa3	6.338886e-05
73	0x3839d38d	4.430446e-05
74	0x38f2084e	0.00011541006
75	0x38a940b2	8.0705984e-05
76	0x38a1f5f5	7.722891e-05
77	0x39d8f9c8	0.00041384832
78	0x3906e285	0.00012863621
79	0x3a01c4d2	0.0004950288
80	0x381dc5ad	3.7615817e-05
81	0x38d55718	0.00010172854
82	0x3903328e	0.00012511967
83	0x38885e44	6.502544e-05
84	0x37f9ecb0	2.979333e-05
85	0x39fe5a60	0.0004851399
86	0x39928d08	0.00027952367
87	0x39be9ade	0.0003635501
88	0x399e8f04	0.00030242663
89	0x3914d4b1	0.00014193614
90	0x39220a21	0.00015453297
91	0x3870eabb	5.743907e-05
92	0x37e9646f	2.7822533e-05
93	0x38a34489	7.785211e-05
94	0x3925fb0f	0.00015829153
95	0x38b7b80e	8.760403e-05
96	0x398d9c41	0.00027010034
97	0x39a4a7ca	0.0003140553
98	0x39471595	0.00018986159
99	0x3953af40	0.00020187814

exp_avg f4 [100]
0	0x39a6fa6b	0.00031848563
1	0x3a8ee459	0.0010901793
2	0x3b05b1c6	0.002040015
3	0x3ac3a840	0.0014927462
4	0x3b46bdc5	0.0030325514
5	0x3a8bc165	0.0010662494
6	0xb9ce2ef5	-0.00039326368
7	0x3a4ccf5e	0.00078128825
8	0x3a6b6176	0.00089790614
9	0x3a7c3549	0.0009620977
10	0x3952d760	0.00020107394
11	0x3a624baa	0.00086324906
12	0xb99de575	-0.00030116332
13	0x3a6e914c	0.00091006304
14	0xba111d04	-0.00055356347
15	0xb98c1b06	-0.00026723015
16	0xb934f811	-0.0001725855
17	0xbb088cb2	-0.0020835814
18	0xb8c2ee3c	-9.2950155e-05
19	0x3b0e9b4c	0.0021760045
20	0x3a91eff3	0.0011134133
21	0x39959fb9	0.00028538497
22	0x3a88bfea	0.0010433171
23	0x3900a028	0.00012266694
24	0xb9fc5473	-0.00048128105
25	0x3ac4cf88	0.0015015462
26	0x39c888b7	0.00038248833
27	0x3a8a4a08	0.0010550627
28	0xb988162e	-0.00025956467
29	0xb9af250b	-0.000334062
30	0x3ab07416	0.0013462331
31	0x350e4885	5.300465e-07
32	0x3a937d24	0.0011252505
33	0x39d67533	0.0004090458
34	0xba345571	-0.0006879187
35	0xb9652262	-0.0002185195
36	0x3aac6a89	0.0013154309
37	0x3a0c0d42	0.0005342552
38	0xb7f0ee64	-2.8721239e-05
39	0xbaa0318e	-0.00122218
40	0x3ab1fbc3	0.0013579059
41	0x3a795583	0.00095113384
42	0xb9229e52	-0.00015508503
43	0x3a97fdc5	0.0011596015
44	0xba4e6405	-0.00078731804
45	0x39878bab	0.00025853267
46	0xb9d5c08d	-0.00040769987
47	0x3805ca45	3.189805e-05
48	0x39d08f57	0.00039779648
49	0x3a1d3c70	0.00059980806
50	0xb8ecf7d2	-0.00011299517
51	0x3a47a33e	0.00076155725
52	0xba3685ca	-0.0006962685
53	0x3aa80ec2	0.0012821781
54	0x39d3e1d5	0.00040413314
55	0x38ec230d	0.00011259886
56	0x38fb32c9	0.00011978072
57	0x38abe47b	8.196473e-05
58	0x39e16b34	0.00042995217
59	0x399eb8ca	0.00030273787
60	0xb9f15b59	-0.0004603516
61	0xb9ba9b4d	-0.00035592393
62	0x3ab0a547	0.0013476991
63	0x3a4dfbb0	0.0007857634
64	0xb9ff1235	-0.00048650955
65	0x3a17f684	0.00057969266
66	0x39e01cc9	0.00042746056
67	0xb9303077	-0.00016802723
68	0xba75ce47	-0.0009376746
69	0x3acd0126	0.0015640601
70	0x3a470e81	0.0007593409
71	0x3873ea7a	5.8154088e-05
72	0x39e8f615	0.00044433834
73	0x39737b3f	0.00023220199
74	0x3a795ba5	0.0009512252
75	0x3a097ac0	0.00052444264
76	0xba37990b	-0.0007003701
77	0x3a0282bb	0.0004978587
78	0x3a0a732d	0.0005281445
79	0x3ae22c45	0.0017255625
80	0x39f939f9	0.00047536174
81	0xba2865eb	-0.00064238784
82	0x386239c6	5.3936405e-05
83	0xb9e39734	-0.0004340947
84	0xb9650f44	-0.00021844829
85	0x3aae0423	0.0013276379
86	0xbac4b6de	-0.0015008112
87	0x3a95768c	0.0011403128
88	0xbab69ced	-0.0013932266
89	0x3a822704	0.000992984
90	0xba65dbcb	-0.00087684084
91	0xba0330b6	-0.0005004512
92	0x3949608f	0.00019204825
93	0xba42ab76	-0.00074260624
94	0xb9ac0868	-0.0003281266
95	0x39073a82	0.00012896399
96	0x3abc9165	0.0014386593
97	0xbabbeffe	-0.0014338491
98	0xbaad7a54	-0.0013235309
99	0xbaa80c64	-0.0012821076

exp_avg_sq f4 [100]
0	0x38d5667b	0.0001017572
1	0x39135a3d	0.00014052629
2	0x3a335e1d	0.0006842332
3	0x3955a652	0.00020375222
4	0x3a69ed42	0.0008923599
5	0x39900213	0.00027467366
6	0x377724bf	1.4730903e-05
7	0x38776b49	5.8989306e-05
8	0x38afb560	8.378434e-05
9	0x38df7a73	0.000106562766
10	0x38130528	3.5052333e-05
11	0x38ab60f3	8.1719736e-05
12	0x38a4d164	7.8591314e-05
13	0x393b8968	0.00017884898
14	0x384a5ff9	4.8249934e-05
15	0x370f2002	8.530917e-06
16	0x381b0236	3.695694e-05
17	0x39daca89	0.000417311
18	0x3929824d	0.00016165637
19	0x39eadab1	0.00044794896
20	0x3900f085	0.00012296632
21	0x36f500ba	7.3016536e-06
22	0x391a6b8e	0.00014726652
23	0x39422702	0.00018515813
24	0x3826fdea	3.981396e-05
25	0x3969808f	0.00022268503
26	0x3888247b	6.4917804e-05
27	0x38dde6ab	0.000105810665
28	0x38143915	3.533911e-05
29	0x37d4a1ec	2.534777e-05
30	0x397fecec	0.00024406955
31	0x368b3785	4.148986e-06
32	0x394ad874	0.00019344856
33	0x3788dc2e	1.6314993e-05
34	0x392a6c51	0.00016252814
35	0x37c103fd	2.300925e-05
36	0x3928d215	0.0001609999
37	0x381806d4	3.6245983e-05
38	0x3816daca	3.596655e-05
39	0x3935af99	0.0001732692
40	0x39538ea7	0.0002017567
41	0x3933f3fb	0.0001716166
42	0x393f2e11	0.0001823234
43	0x39039fcc	0.00012552663
44	0x3968671f	0.0002216366
45	0x39400f7d	0.00018316317
46	0x37f00c00	2.8615817e-05
47	0x36504c9f	3.1039015e-06
48	0x38c4245c	9.352781e-05
49	0x3844fd67	4.696604e-05
50	0x399fb1c0	0.00030459277
51	0x388e166d	6.775265e-05
52	0x393e073e	0.0001812251
53	0x39aa02c2	0.00032426981
54	0x37792346	1.4849769e-05
55	0x3737c8f0	1.0954434e-05
56	0x388bfdc0	6.675301e-05
57	0x38557f48	5.0901697e-05
58	0x3797d2ec	1.809882e-05
59	0x37c449a1	2.3399307e-05
60	0x3863df62	5.432906e-05
61	0x39148225	0.00014162862
62	0x392fe4ea	0.00016774578
63	0x388ec9b8	6.808661e-05
64	0x381563aa	3.5617188e-05
65	0x3896f919	7.1989554e-05
66	0x3897e2c7	7.242482e-05
67	0x38111095	3.4586137e-05
68	0x38cb9dfb	9.7092205e-05
69	0x39ba2eac	0.00035511458
70	0x3895328e	7.11429e-05
71	0x379f128d	1.8962915e-05
72	0x381be4fa	3.716813e-05
73	0x38006d66	3.0619463e-05
74	0x390364ac	0.00012530637
75	0x38bdb51b	9.045956e-05
76	0x3890a7a3	6.89768e-05
77	0x39c866cb	0.0003822356
78	0x3914ee1d	0.00014203084
79	0x399cb679	0.0002989059
80	0x381aeae8	3.6935235e-05
81	0x388a3097	6.589403e-05
82	0x38fc9df3	0.00012045717
83	0x38871d6e	6.442783e-05
84	0x380ba5ac	3.3294476e-05
85	0x39da3120	0.000416168
86	0x396f5c44	0.00022827188
87	0x39d36658	0.00040321308
88	0x393eb297	0.00018186342
89	0x38be9230	9.0871355e-05
90	0x392257e3	0.00015482264
91	0x37eda3c8	2.8328868e-05
92	0x37ba988a	2.224396e-05
93	0x3889cbd1	6.570633e-05
94	0x38e29d00	0.00010805763
95	0x389b2772	7.398323e-05
96	0x3979be3f	0.00023817363
97	0x39920b7c	0.00027855847
98	0x394192e0	0.0001846063
99	0x392e7ea0	0.00016641105

exp_avg f4 [2]
0	0x3c818572	0.015810702
1	0xb78c5000	-1.6726553e-05

exp_avg_sq f4 [2]
0	0x3cc265c6	0.02373017
1	0x3c9652fe	0.01835012

exp_avg f4 [2]
0	0x3bb6f155	0.0055829682
1	0xbad9bad0	-0.0016611461

exp_avg_sq f4 [2]
0	0x3aa0af56	0.0012259285
1	0x3a26b3cb	0.00063591887

exp_avg f4 [2]
0	0xbbd02df0	-0.0063531324
1	0xbad7b710	-0.0016457755

exp_avg_sq f4 [2]
0	0x3b8afd69	0.0042416346
1	0x3b2b2a17	0.0026117617

exp_avg f4 [2]
0	0xbb850a6a	-0.0040600793
1	0x3c0a6ce5	0.008448814

exp_avg_sq f4 [2]
0	0x39c1cad4	0.00036962947
1	0x3ca57995	0.020199576

exp_avg f4 [2]
0	0x3c1b08ab	0.009462516
1	0xbc247b48	-0.010039158

exp_avg_sq f4 [2]
0	0x3a9482a9	0.0011330444
1	0x3b0bd028	0.0021333788

exp_avg f4 [2]
0	0x3dbbeb8d	0.09175787
1	0x3d0202ee	0.031741075

exp_avg_sq f4 [2]
0	0x3c1e471c	0.0096605085
1	0x3b831871	0.0040007164

exp_avg f4 [3]
0	0xbc4224c6	-0.011849588
1	0x3d9b3b74	0.07579699
2	0xbd82f6dc	-0.06394741

exp_avg_sq f4 [3]
0	0x3b69d474	0.003567961
1	0x3bc9df9f	0.006160691
2	0x3bf08a3a	0.0073406966
