code/models/v2.pth (torch_old, 38263 bytes, 42 tensors)

bn_cont.weight f4 [101]
00000000: bd7b 643d c1a2 b53d de55 38bd c0be 8e3d
00000010: dbb8 423d 9368 423d 40ce 9a3d dda8 2f3d
00000020: 9807 253d bcc6 1a3d 0daf 443d 3699 973d
00000030: 54f6 473d 24cd 223d f8a6 423d 873b 713d
00000040: b248 01bd 8bbc 733d 6dab 2d3d 9766 8c3d
00000050: bc9c 53bd dd8f 053d 0464 673d 5c77 4e3d
00000060: b60f 253d 68b1 1cbd 1e77 d3bc 43cb 5c3d
00000070: a7f2 553d b76a a63d 7ba6 2e3d 136c 38bd
00000080: f487 5e3d 88ae 2bbd 2734 0cbd d416 443d
00000090: b50e 4e3d 2929 fb3d f278 9e3d 819a 2b3d
000000a0: 8142 32bd af28 573d 09bb 3f3d d217 323d
000000b0: c2f9 7d3d c704 e83d 3df1 6c3d 6c65 17bd
000000c0: 87fc 133d c207 593d 7172 c23d 70fc 1e3d
000000d0: 5e4f 693d d9fb 543d ed65 393d e2f5 2f3d
000000e0: 70ba 2a3d 7cba 3a3d f4a9 363d cb34 8d3d
000000f0: cb3e 403d 5ace 323d d046 7c3d e65d 703d
00000100: 99af 803d 52d7 663d b32b 323d 864f 8b3d
00000110: deb0 4f3d 82b4 5f3d 1a9d 4a3d c981 7abd
00000120: ef9d 423d 1d31 303d 2924 1b3d ceb8 423d
00000130: ecbe 423d 6476 273d 56b0 613d 174d cd3d
00000140: 4167 663d 1fcb 32bd add8 31bd 6da6 8c3d
00000150: c6bb 203d d831 273d 4f34 683d 1251 913d
00000160: e1b9 6c3d 624f 953d a8b8 48bd dbe7 623d
00000170: 3f31 1d3d 956b 7d3d 2559 683d 3b3f 8c3d
00000180: c588 983d 22b5 903d 5c0e 413d 9d27 843d
00000190: e804 5e3d
0.05578207 0.088689335 -0.045003764 0.069699764 0.047539573 0.04746301 0.0755887 0.04288565
0.040290445 0.037787184 0.048018504 0.074022695 0.0488189 0.03974642 0.047522515 0.05889466
-0.03156347 0.05950598 0.042399812 0.06855505 -0.051663145 0.0326079 0.056491867 0.0504068
0.040298186 -0.038255125 -0.025813635 0.053904783 0.052233364 0.08125823 0.042639237 -0.045024943
0.054328874 -0.041914493 -0.034229424 0.047873333 0.050306994 0.1226371 0.07737912 0.041895393
-0.043520454 0.052529033 0.04680923 0.043479748 0.062005766 0.11329036 0.05784725 -0.036961958
0.0361295 0.052985914 0.09494484 0.038814962 0.056960456 0.051997993 0.04526322 0.0429591
0.041681707 0.045588 0.044595674 0.06894835 0.046934884 0.043653823 0.06159097 0.0586833
0.062834926 0.05635769 0.043498706 0.06802277 0.050705783 0.054615505 0.04946623 -0.06115893
0.0475139 0.043015588 0.037876282 0.047539525 0.04754536 0.04088439 0.055099808 0.10024469
0.056250814 -0.043650743 -0.04341953 0.06867681 0.039241575 0.04081902 0.05669051 0.07095541
0.057794455 0.07290532 -0.049004227 0.055396896 0.038377043 0.061870176 0.05672564 0.06847998
0.07447962 0.07065798 0.047132835 0.06452868 0.054203898

bn_cont.bias f4 [101]
00000000: 2a85 40bb b62a d63a 1cd1 d0bb 6ef0 33ba
00000010: 2307 e03a 609b bdbb 3673 663c aa9e f539
00000020: 81e1 d3ba 1049 0dba 52ee 093b e638 923b
00000030: 021c d03b ba8d a6bb f07f fbb9 ecb6 b33b
00000040: 95e3 c239 a898 8cbb f2f5 2e3b 30f8 d5ba
00000050: de06 8f3a 8672 103a f934 b939 eddd 24bb
00000060: aaab b6ba 1232 453b 86b9 c3ba 2deb 1d3b
00000070: 3a69 a33b 2619 df3b 5190 9dbb 4106 01bb
00000080: 658f 1d3b 741d b3ba ce1c 31bb b0bc 04bb
00000090: fcda 9d3b e21c 0bbb 830e 35bc b29d d9ba
000000a0: f219 543b 5c18 813b c95a 063a f370 543b
000000b0: 4421 473b 2b1d 203b d50c cc3a ca8e 4ab8
000000c0: aae9 81ba 9ed1 d8ba bf99 423c 8522 98bb
000000d0: c3a4 16bb 1f80 363a d821 383b bfac 1d3b
000000e0: 2313 feba 5bc6 9c3a a5c4 75bb 9140 7a3b
000000f0: 52fb ec35 1a84 023b 47a0 afba 97c2 303b
00000100: 7044 503b 661d d83a feaf 47ba dccb 0bbb
00000110: 153a 443b 1945 0e3a a056 233b 7013 9f3b
00000120: 52e0 c33b 7536 463b 82a4 38bb 66be 903a
00000130: 1658 94bb c505 8c3b fcb5 86b9 7e2e 92bb
00000140: 91c8 06bc fadf b239 9ee7 4c3b 0aa0 c0bb
00000150: 9426 25bb ae9e 3abb d522 723a 3f25 843a
00000160: 0de6 1ebc 02e2 153c 6ae0 1bbb 2044 543b
00000170: 7e97 b3ba bac1 ab3a d35a b2bb 56b4 353a
00000180: dba8 06bc 8e85 253a 369c 733b 952a a8ba
00000190: fd9f b1bb
-0.0029376247 0.0016339633 -0.006372584 -0.0006864135 0.0017091971 -0.0057863444 0.014065554 0.00046848255
-0.0016165228 -0.00053896103 0.002104659 0.004462349 0.006350995 -0.005082813 -0.00047969772 0.0054844525
0.00037172125 -0.004290659 0.0026696888 -0.0016324576 0.0010912081 0.00055102294 0.00035325417 -0.0025156692
-0.0013936658 0.0030089659 -0.001493261 0.0024096475 0.004986909 0.006808418 -0.0048084636 -0.0019687566
0.0024041769 -0.0013665394 -0.0027025226 -0.0020254068 0.0048173647 -0.0021226932 -0.011050823 -0.0016602783
0.0032364097 0.0039396714 0.00051252224 0.0032415956 0.0030384818 0.0024431448 0.0015567789 -4.8293536e-05
-0.0009911556 -0.0016541963 0.011877476 -0.004642787 -0.002298639 0.00069618406 0.0028096344 0.0024059264
-0.0019384365 0.001196097 -0.0037501242 0.0038185457 1.7656514e-06 0.0019915164 -0.0013399207 0.0026971453
0.0031779073 0.0016488254 -0.00076174724 -0.0021331226 0.0029941846 0.00054271665 0.0024923459 0.004854612
0.005977669 0.0030244861 -0.0028174226 0.0011043071 -0.004527102 0.0042731487 -0.0002569406 -0.0044611087
-0.00822653 0.0003411768 0.0031265984 -0.005878453 -0.0025199996 -0.0028475928 0.0009236758 0.0010081901
-0.009698403 0.009148123 -0.0023784884 0.0032389238 -0.0013701764 0.0013104 -0.005442956 0.0006931474
-0.008218969 0.00063141517 0.0037171966 -0.0012830073 -0.0054206834

bn_cont.running_mean f4 [101]
00000000: baca fb3b 1108 efbb 0738 d1bb c3ff 05bd
00000010: 627e 2dbc 3962 97bc 7504 14bd ba86 a7ba
00000020: 1f96 563b 8588 bbbc 44f5 703b 3046 623d
00000030: a3f2 9ebb ed8e 31bd e0cd 893b 9de1 8fbc
00000040: ccf6 d7bc a38d 933c f116 e13c bc46 b23b
00000050: 4c5b 03bc 60cb a23b a29d 7abc 752e b8bc
00000060: e9c6 dabb 1bf1 07bc ad13 0fbd 7d07 ebbc
00000070: 2b6d 103d a7bb 23bc e2df a9bc 0e4a 173d
00000080: 1aa5 da3c 1c34 7ebd 327e e63b 3cf8 d53c
00000090: 4db5 8dbc 9579 0dbd 07b6 6d3d 8316 563c
000000a0: 230f e6bc 133b 0d3d cf72 63bc 67d4 e03c
000000b0: 8a30 62bc b25c 9e3a 03a4 21bc 710d 96bc
000000c0: 1352 aabb 8c23 f13c 6493 c4bb 56b5 8b3a
000000d0: 0e28 61bd 36f8 e53c fcd7 873c 1e76 d2bc
000000e0: 7f03 dcbb 706e 79bc 6e06 9bbd 5d30 2abd
000000f0: d91a e03c 5e2e e1bb 5f4c abbc 567f 5ebb
00000100: 4697 a7ba 2217 99bc b9ed 64bd ec8e b1bc
00000110: e80c b23b 5aa2 d53b 999b 7abd fb65 1d3d
00000120: cd7e 38bb 55bc 903c 6ecf 623d b849 923c
00000130: 87c4 c4bc 8647 3a3c 4611 8ebc 0d89 41b9
00000140: f058 5dbc 5923 833c b532 4dbc aff7 f0bb
00000150: bbd2 47bc 19b6 823d 4a5d 32bd 6af3 533d
00000160: 12be 1a3b bb8e 8a3c 28d8 77bc b271 153b
00000170: 21fa 8d3b d12b 7d3c a1e9 2d3d 13a0 5fbc
00000180: b641 4e3a af75 f93b a0eb a63c 22b2 b4ba
00000190: 6ed4 54bc
0.007684079 -0.0072946628 -0.006384853 -0.032714617 -0.010589214 -0.018479453 -0.036137063 -0.001278124
0.0032743288 -0.022892246 0.0036767283 0.055242717 -0.004850702 -0.043349195 0.0042054504 -0.017563635
-0.0263628 0.018011874 0.02747676 0.005440561 -0.008017372 0.004968092 -0.015296372 -0.02248309
-0.006676544 -0.00829723 -0.034930874 -0.028690094 0.03526036 -0.00999347 -0.020736638 0.03693586
0.026690055 -0.062061414 0.0070340866 0.026119344 -0.017298365 -0.034539778 0.058034923 0.013066891
-0.02808339 0.034480166 -0.013882353 0.027445031 -0.013805518 0.0012082069 -0.009865764 -0.018316956
-0.0051977723 0.029435895 -0.0059990156 0.0010658901 -0.05496984 0.028072458 0.016582482 -0.025691088
-0.006714284 -0.015224084 -0.07569586 -0.04155003 0.027356552 -0.0068719825 -0.02091044 -0.003395041
-0.0012786172 -0.018687788 -0.055890772 -0.021674596 0.0054336675 0.006519598 -0.061183546 0.038427334
-0.002815175 0.017667929 0.0553736 0.017857417 -0.024019493 0.011369592 -0.017342221 -0.0001845697
-0.013509974 0.016008066 -0.0125242965 -0.007353745 -0.012196238 0.063823886 -0.043546 0.05174581
0.0023611826 0.016913762 -0.015127219 0.0022803363 0.004332796 0.015452341 0.042459134 -0.0136490045
0.0007868068 0.007612906 0.020376027 -0.0013785998 -0.0129901

bn_cont.running_var f4 [101]
00000000: 7e10 7f3f 1612 813f 05fa 823f 2789 823f
00000010: ab4c 833f 436a 7f3f 5a92 7e3f 6fdd 7b3f
00000020: fa5c 803f 9c4b 7b3f 4a87 7c3f a5a3 793f
00000030: d3e4 833f 9fc3 7d3f 5800 7f3f 6edb 823f
00000040: 9903 803f c4b1 7e3f 200e 7b3f a4cd 863f
00000050: b3e3 823f 400f 823f d9d1 7f3f 347c 7c3f
00000060: 8937 763f acbc 7f3f be4b 823f bd85 863f
00000070: 0e12 823f b649 7c3f d8ad 7c3f 5da8 7d3f
00000080: 882c 7e3f b2ff 813f 48ad 7f3f 8e75 7f3f
00000090: 4ca4 833f ef6e 813f 2030 763f eb4b 7e3f
000000a0: 9a2d 7e3f 0861 823f 3ec7 7e3f 065f 873f
000000b0: 7518 803f 346e 783f 8a0d 813f 0924 803f
000000c0: 526b 7d3f c9fb 813f 9770 7a3f cd97 813f
000000d0: 22ae 7c3f 4ca7 7c3f aba5 823f b03d 843f
000000e0: 05df 843f 3c0d 813f c7b8 843f ea58 803f
000000f0: 21e5 813f 949d 813f 732a 763f 4a0d 803f
00000100: fdf8 803f e9b0 833f 4725 853f 54d0 743f
00000110: 39b2 743f 1bde 823f bb74 803f 0713 823f
00000120: 0c40 703f 2171 7a3f 64f9 7f3f ab86 803f
00000130: b368 753f ce0d 803f 5cd7 803f b98e 803f
00000140: 28b4 723f 53f4 803f 245a 823f cdc0 803f
00000150: be62 813f a2ea 7c3f 846a 7b3f c574 793f
00000160: 6e03 7d3f 8faa 813f e2b7 7f3f f7d2 833f
00000170: f8fd 813f 4b5b 833f 7d97 803f cb39 833f
00000180: b31d 7a3f 2351 7e3f 9185 7d3f 2343 7b3f
00000190: 2a55 803f
0.9963454 1.0083644 1.023255 1.0198106 1.0257772 0.9977152 0.99442065 0.98384756
1.0028374 0.98162246 0.98643935 0.97515327 1.0304207 0.9912662 0.996099 1.0223215
1.0001098 0.9949 0.9806843 1.0531507 1.0225738 1.0160904 0.9992958 0.9862702
0.9617849 0.99897265 1.0179365 1.0509564 1.016176 0.98549974 0.98702765 0.99085027
0.992867 1.0156157 0.9987378 0.9978875 1.0284514 1.0111979 0.9616718 0.9933459
0.9928833 1.0185862 0.9952277 1.0575874 1.0007464 0.97043157 1.0082257 1.0010997
0.9899188 1.0154964 0.9782805 1.0124451 0.98703206 0.98692775 1.0206808 1.0331326
1.038056 1.0082164 1.036889 1.0027134 1.014805 1.0126214 0.9615852 1.0004056
1.0075985 1.0288364 1.0402001 0.95630383 0.95584446 1.0224031 1.0035623 1.0162057
0.9384773 0.9782887 0.99989915 1.0041097 0.95862883 1.0004213 1.0065722 1.0043555
0.94806147 1.0074562 1.0183759 1.0058838 1.0108259 0.9879552 0.98209405 0.974438
0.9883336 1.0130175 0.9988996 1.0298756 1.015563 1.0262235 1.004623 1.0252012
0.9770157 0.99342555 0.9903193 0.9814932 1.002599

layers.0.weight f4 [20, 101]
00000000: b0b6 bfbd 7538 cb3d 8159 cd3a d6bf 373b
00000010: a81b 823c be04 8d3d 9387 323c 02b4 54bc
00000020: 3772 c33c 5c3b 95bc 3145 44bd 10a8 17bd
00000030: 859e 97bd 1bc6 f6bc f274 a7bc bc0c d83c
00000040: 54ea 54bb 6c36 edbc de10 a33c 4101 1f3c
00000050: c7e7 823c 28c5 29bc ec57 c0bd 8f29 953d
00000060: c9c7 4ebd 16ff 61bd cca3 d43c 5bd2 debb
00000070: 75d2 bb3d 3ada 2fbb b659 473c 371f b03c
00000080: e808 ef3c 91a9 39bb b48a 4bbd 7d49 923c
00000090: 819d 6fbc d9e9 4cbd 1f36 96bd 6d3c fa3c
000000a0: 9b13 043c 5d9d 373c 4f28 de3c e8ac 75bd
000000b0: 12da 723d 0312 18bd 1972 fbbc 1c1b 093c
000000c0: cfc9 473d 31c7 26bd 0c53 a6bc 7262 103d
000000d0: dbad 073d 1654 dc3c 6a71 133c b27d e8bb
000000e0: 4194 b43c dc64 9b3c 29a2 a93c f3fe db3c
000000f0: d358 97bd 444a 1bbd a750 3ebd fbd1 febb
00000100: 037a 283d 5c8b e0bd d7c7 20bd 4040 e8bb
00000110: 3a57 c3bb 30c6 b53c 3fc2 aebc 0604 853d
00000120: 0c59 94bd c5ee 90bd b76d 1c3b 1189 9bbd
00000130: f3f4 f1bc 86e0 37bc 5d01 2e3c 8265 ae3c
00000140: 7847 b43c a386 563d e832 c63c 81bf 0b3d
00000150: 8ed1 c63b 6bb7 663c cf33 123d 8c1a 5e3c
00000160: 73d5 373d ae5f fbbc 9bcc c0bd 2dfe eb3c
00000170: 648f 55bd e6ba 083b f161 253d d012 cdbb
00000180: fb7d a8bb 1d6d 1cbc e682 183d 8ee3 983c
00000190: 8504 9bbc 0c46 55bd 8a3e 4dbc 2ea0 8c3d
000001a0: b6fb 28bd 4920 3f3d 16ae 843c c41c 09bd
000001b0: 50ba 943d 3969 9e3a a6ba 153d eb2d 53bc
000001c0: 64a2 00bd e508 373a d4f2 b0bc f1fd 6fbd
000001d0: a7ad 21bd b699 2e3c b0f5 5ebc 1128 c5bb
000001e0: d5d5 743b d034 2e3d 0621 2fbd 2af1 563d
000001f0: 9144 ebbc 5355 27bd 0005 573d d148 d83d
00000200: f713 75bc 6f62 76bd 7624 87bd 47b5 8e3d
00000210: d4ff b23c 2a29 96bc 8a86 6e3d 90cd c3bb
00000220: 808f a5bc dd32 42bd 4020 cb3c 0edb 4e3d
00000230: fa31 19bb 900a d9bc 1fbe 0ebc 12de 48bd
00000240: 9528 dbbc 4d36 0d3d e137 cfbb 4caf 57bd
00000250: 240c 21bd a179 443c 8284 b3bb 3ea0 dd3b
00000260: bc4e 50bc 0ec6 2b3d b468 8c3d 0620 c63c
00000270: f574 0dbd 9c0b e93c 8710 78bd 27e5 12bd
00000280: f417 b73a f708 e3bb a7a7 caba 8a6e 91bd
00000290: 2a00 9f3c 4b1b ddbd 9b23 febc 283d 03bb
000002a0: afe8 debb f219 5dbc 6bdc ae3d b4cc 813d
000002b0: 31d4 453c c66c 1d3b b22e edbc 496e 843d
000002c0: dcc9 7cbd e951 6abc 99f9 aebc fde4 b2bc
000002d0: f6fe 4e3b 5374 523d 8367 98bc 25ab b1bd
000002e0: ab38 2f3d eb3c e9bb 9cea 8f3d 16ad 533c
000002f0: 92ac 68bd 309f c8bb a010 e7bc 167b a83d
00000300: 3389 8e3c 0fa3 0bbd a9c7 91bb 5eba 5b3c
00000310: 4576 1abd 94fb a63b ca5c 223d 8091 a6bd
00000320: f6bc 48bd e93b bf3b 3383 023d 5f1c c53b
00000330: f4ce 023c a261 17bd 11e7 c33d 38f8 853c
00000340: 6b9a 373b 2250 dabc 8aaf edbb fbb1 dd3d
00000350: 2091 efb8 2c7d 95bc 15dd 3b3b d59f 01bc
00000360: ac37 c3bd 439c dbbc 22c9 9f3b cb48 763d
00000370: d324 b9bc ed95 ab3c ce3a ce3c 4b39 cabc
00000380: 0b1a 863d c5ee 9d3c 2c76 debd 1577 b5bc
00000390: afd9 403c 98d8 d2bc 3a84 6ebb fd11 a9bc
000003a0: 2722 88bc 0f69 76bd 9890 443d 3039 273d
000003b0: 8253 23bd bcee 52bd 9359 f2bc f053 ff3c
000003c0: 9061 41bd b321 a2bc 48e9 403d 5da8 003c
000003d0: 5593 6ebd 1910 a4bd 0f09 733d 37ef febc
000003e0: 970d 31bc 2b2e 0c3d 0e62 2c3c 8172 533d
000003f0: 5782 b03d d1bc bebb 5f3e ad3c 033b 8dbb
-0.09361017 0.09922878 0.0015666933 0.0028037927 0.015882328 0.0688567 0.010896581 -0.01298237
0.023858173 -0.018216781 -0.04791755 -0.03702551 -0.07403282 -0.03012376 -0.020441506 0.02637326
-0.0032488303 -0.028956614 0.019905504 0.009704889 0.01597966 -0.010361947 -0.0939177 0.07283317
-0.0504835 -0.05517491 0.02595701 -0.0067999787 0.09171001 -0.0026832954 0.012167385 0.02149926
0.029179052 -0.002832983 -0.049692824 0.017857308 -0.014624954 -0.050027702 -0.073345415 0.030546391
0.008061315 0.011206952 0.02711883 -0.05997935 0.05929 -0.037126552 -0.030694054 0.00836828
0.048776444 -0.040717307 -0.020303272 0.035250135 0.033124786 0.026895564 0.008999208 -0.007095062
0.02204335 0.018968992 0.020707207 0.026854968 -0.07389989 -0.037912622 -0.046463635 -0.0077764965
0.041131984 -0.10964081 -0.039253082 -0.0070877373 -0.005961326 0.02218923 -0.021332858 0.06494908
-0.07243547 -0.07076792 0.0023869106 -0.07594503 -0.029535746 -0.011222964 0.010620442 0.021288637
0.022006735 0.052374493 0.024194196 0.03411818 0.0060674613 0.014081816 0.03569394 0.013556134
0.044881295 -0.030685272 -0.094140254 0.028807724 -0.0521387 0.0020863353 0.040376607 -0.006258346
-0.005141971 -0.009547499 0.03723421 0.018663194 -0.018923054 -0.052068755 -0.0125271175 0.06866489
-0.041255675 0.04666165 0.016196292 -0.0334747 0.07262099 0.0012085802 0.036554955 -0.012889366
-0.031404868 0.00069822214 -0.021600164 -0.058591787 -0.03947225 0.010656765 -0.013608381 -0.006016739
0.00373589 0.042530835 -0.042756103 0.052476086 -0.028719218 -0.040852856 0.052495003 0.105607636
-0.014958373 -0.060152467 -0.06598751 0.0696817 0.021850504 -0.018330175 0.058233775 -0.0059754327
-0.020210028 -0.04741179 0.024795651 0.050501876 -0.0023375736 -0.026494294 -0.008712321 -0.049039908
-0.02675275 0.034475613 -0.0063238 -0.05265741 -0.03931822 0.011991889 -0.0054784426 0.006763487
-0.012714084 0.041936927 0.06855908 0.024185192 -0.034535367 0.028447919 -0.060562637 -0.035863068
0.001396893 -0.006928559 -0.0015461341 -0.07101162 0.019409258 -0.10796221 -0.031022837 -0.0020025466
-0.0068026404 -0.013494955 0.08538135 0.06337872 0.012074516 0.0024021133 -0.02895293 0.06466348
-0.061715946 -0.014301755 -0.021359252 -0.021837706 0.0031585074 0.051380467 -0.018604046 -0.08675221
0.042778652 -0.0071178577 0.0702717 0.012919685 -0.0568052 -0.0061224923 -0.02820617 0.08226602
0.017399406 -0.03409105 -0.00444885 0.013411133 -0.037710447 0.0050959084 0.03963927 -0.08133221
-0.049008332 0.0058359993 0.031863403 0.006015345 0.007983912 -0.036958344 0.09565557 0.016353711
0.0028015624 -0.026649538 -0.007253592 0.10824963 -0.0001142344 -0.018248163 0.002866571 -0.007911642
-0.09532103 -0.02680791 0.004876272 0.060128015 -0.022600567 0.020945514 0.025174525 -0.024685523
0.06547936 0.019278893 -0.10862383 -0.02215151 0.01177065 -0.025738046 -0.003639473 -0.02063846
-0.016617848 -0.060158785 0.047989458 0.040826023 -0.03987456 -0.051497206 -0.029583728 0.031167954
-0.047212183 -0.01979146 0.047097474 0.007852641 -0.058245976 -0.08010883 0.05933481 -0.031119926
-0.010806463 0.034223717 0.010521425 0.05162287 0.0861861 -0.0058208485 0.021147905 -0.0043100133

layers.0.bias f4 [20]
00000000: 4f86 04bd 495a 1fbd 829d 52bc f88b d8bc
00000010: 43eb 98bc cb2b 00bd 72eb 1abd 74ea d5bc
00000020: c14d b0bc 8866 05bd 990c 28bc 1986 aebc
00000030: 5242 4fbc 5ec9 a6bc f5ca bbbc 42a3 01bc
00000040: ce55 e4bb a801 18bd 60cd 68bc ef80 15bc
-0.03235465 -0.038904462 -0.012854936 -0.02643393 -0.018666869 -0.031291764 -0.037822194 -0.026112773
-0.021521451 -0.032568485 -0.01025691 -0.021304177 -0.012650089 -0.020359691 -0.022923926 -0.007912459
-0.0069682365 -0.037110955 -0.0142091215 -0.009124978

layers.2.weight f4 [20]
00000000: 1766 983d b42a 9dbd a78c 833d 9704 823d
00000010: e3c7 903d 18af ac3d 2b64 b13d 2d62 b13d
00000020: 130a 953d e92d be3d c30b 833d efbe ae3d
00000030: 48fe 923d 3bb3 8b3d b9dd a43d eef0 9a3d
00000040: f625 b93d a9ed d93d 6d34 933d c79f 7f3d
0.07441347 -0.076741606 0.06423312 0.06348532 0.07069375 0.08431834 0.08661684 0.08661304
0.07277312 0.092861004 0.06398728 0.085325114 0.071774065 0.06821295 0.08050103 0.07565485
0.090404436 0.10641033 0.07187734 0.062408235

layers.2.bias f4 [20]
00000000: 0e42 adba c5c2 a83b 99af 083c b09a 7dbb
00000010: 0e74 ba3b 1add 15bc f094 97bb 7613 f6bb
00000020: b788 213c 0ea8 21bb 0643 da3b 87bb d8bb
00000030: fde1 fd3b f2bc 06b8 ab2e 123c 12a1 ac3b
00000040: c0f5 483b 3d75 f3bb c769 3a3c fa88 013c
-0.0013218538 0.0051501715 0.008342647 -0.0038696937 0.0056901043 -0.009146953 -0.004625909 -0.007509644
0.0098592555 -0.0024666819 0.006660822 -0.006614152 0.007747887 -3.212406e-05 0.008922259 0.0052682245
0.0030664057 -0.0074297474 0.011377758 0.007906193

layers.2.running_mean f4 [20]
00000000: a16d 9d3a 6d15 a539 37a6 813b d2f0 d83a
00000010: ec8e f43a 48bb ac3a 0e98 a839 0c89 3a3b
00000020: 2475 c23a b2e0 2a3a 9233 9a3b 0ade 4a3b
00000030: fc1a 7b3b 3555 2e3b 4276 773a e3a0 c63b
00000040: f0fd d73b 6136 f639 8c7a 673b 747f b03b
0.0012010821 0.00031487216 0.003956582 0.0016551262 0.0018658317 0.0013178373 0.00032156747 0.0028463034
0.0014835936 0.00065184676 0.0047058547 0.00309551 0.0038315644 0.002660108 0.0009439924 0.0060616597
0.006591551 0.00046961292 0.0035320846 0.0053862873

layers.2.running_var f4 [20]
00000000: 899f bc37 58c4 a836 4035 9f38 ecd8 0338
00000010: 0e0d 2038 96fa cc37 2ff5 8c36 3361 6738
00000020: eeba ec37 4849 2037 aa81 d038 3a44 8e38
00000030: 0ad3 a238 a942 6c38 537e 8337 5975 0839
00000040: d2a3 1139 446f 0237 ccd5 9638 ba8c e838
2.2485636e-05 5.0296476e-06 7.5916294e-05 3.1434858e-05 3.815913e-05 2.4435383e-05 4.2008683e-06 5.5165216e-05
2.8220438e-05 9.553805e-06 9.942365e-05 6.783796e-05 7.764071e-05 5.6328867e-05 1.5675241e-05 0.00013013686
0.00013889305 7.77451e-06 7.19238e-05 0.000110888344

layers.3.weight f4 [10, 20]
00000000: 113e 04be d4a6 8e3d 4555 733c ad59 dcbd
00000010: a9bc 463b d2fc 98bd 1cc2 97bd bf8f 08be
00000020: 67af 94bb 3c66 c73b 3daa f03c eb6f 803c
00000030: cae9 053c 5d97 16be fdd2 edbb c727 8c3b
00000040: 3431 ce3c 4302 a1bd b266 bc3a cc4c 9c3c
00000050: a60a 55ba 9e2d a63d 8ea0 493d d7da 84bd
00000060: 1e5e f63b c6e2 0fbd e215 d2bd 2bf2 793b
00000070: f7e1 e03c 8c14 abbd 1fad dd3c ff62 30be
00000080: e3f1 623d c34a 91bc 1181 7a3c deaa 093d
00000090: 363a 36ba 0177 d1bd 2d8c ef3c 034a 643d
000000a0: 7442 cbbd 2f4e 923d 2baf 2f3d 4b68 05bd
000000b0: c859 703d 3284 13bd 74a9 9abd 7d45 9dbc
000000c0: 1a59 433d 89eb a5bd 74ce 303d d84a 34bd
000000d0: 0b74 523d e6e7 e8bc ac1a bb3d d172 df3c
000000e0: d52d a33a 3344 4abd ea83 cd3c 80f8 d93c
000000f0: 0cd9 9e3c e61d e7bc b5ad afbd 99f3 313d
00000100: 578e e8bd 5f4b 1bbd f99b 1d3c cb6a 04bd
00000110: 553b d7bd 412c 4cba 6fb1 5bbc f72e 703c
00000120: 0793 c1bd 8ce4 053d baea c2bd 1944 cdbd
00000130: fda3 0abe e00a eabc 084d 0bbe c7b0 51bd
00000140: d1be 34bc e017 613d 4e08 863d a667 b5bc
00000150: feda 553d 1a9d fcbd 3d2c 65bb 90fb b9bd
00000160: 235b 523d 0a24 10be 3bb1 b23c f6c0 9cbd
00000170: bcda 083d 2812 f0bc 7bbb 66bc d9f8 a23b
00000180: bfbf a03b 6876 c6bd e01f 8b3d d85f b83c
00000190: 1416 043b c4f3 b83c 7fee 343b 84a1 5d3d
000001a0: ab08 17bd 7da6 d83a dce3 09bd 5909 0637
000001b0: 9246 9bbd 86b9 5ebc bbd9 07be 65ef 8ebb
000001c0: 8e66 e4bd d4fb 0d3c 67e3 5cbd 485e 07be
000001d0: 2869 11be b29a 96bd 18a3 a3bd 95f6 febd
000001e0: 537a 09bc 9fcc fab8 958e 51ba 6832 c7bb
000001f0: 8137 123c fb07 3e3a 9ebe 89ba 3c72 f2bb
00000200: 9e5d 3639 eac9 64ba b3d0 ce3b dd1c 0e3c
00000210: 0d41 9a3b 4140 70bc 2e9d fcba 4122 513b
00000220: 3688 853b d59d b038 0629 073b 1a0e d63a
00000230: e9ce 2a3c 8a40 d13c 5423 8d3c 9f15 83bc
00000240: 8204 a6bd 65b6 ddbc b454 3e3c 03c9 ee3b
00000250: f46b dd3c 1cf0 05bd b831 233c 3273 fdbc
00000260: 5f68 4f3c 9310 083c fa98 333d e069 4a3c
00000270: 1bf1 983b 1c56 bc3a db08 d43c e0b7 0c3d
00000280: 5703 c43c c0f1 4f3d 1562 fdbd 35c0 a7bc
00000290: 671b 51bc a256 ab3d 2962 4f3d 805e 7a3c
000002a0: 0f1c 6d3b 8da4 81bc 4d94 9e3d 8614 f93c
000002b0: c73a ebbd 699c 0bbd 21b3 f43b e9a7 25be
000002c0: 9bd1 a4bb 1729 54bd 9028 aa3d 37d1 da3c
000002d0: 0b53 65bc f276 bb3d f746 9f3d 5826 d3bc
000002e0: 336f 903d 4473 55bd 36cb babd 9708 9cbd
000002f0: 9e93 8f3d 299e fcbc 8c28 533d 0845 79bb
00000300: 0d73 b33c 6a24 63bd 2367 933d af72 063d
00000310: 7c42 bbbb 9e64 51bd 045d 253d 33d0 f23c
-0.12914301 0.06965414 0.014851873 -0.10759292 0.0030324853 -0.07470097 -0.0741007 -0.13336085
-0.004537511 0.0060851853 0.029378051 0.015678367 0.008173415 -0.14706178 -0.007257818 0.0042772028
0.025169946 -0.078617595 0.0014373867 0.019079588 -0.0008126892 0.081141695 0.049225383 -0.06487053
0.007518544 -0.035128377 -0.1025808 0.0038138728 0.027451498 -0.083535284 0.02706009 -0.17225264
0.055406462 -0.017735844 0.015289561 0.033610217 -0.0006951423 -0.10227776 0.029241646 0.055734646
-0.09924784 0.071438186 0.042891663 -0.032570165 0.058679372 -0.036014743 -0.07551852 -0.019198174
0.047692396 -0.081015654 0.04316564 -0.04401669 0.0513802 -0.02843089 0.09135947 0.027276428
0.0012449572 -0.049381446 0.025087316 0.026607752 0.019390605 -0.028212499 -0.08578054 0.043445203
-0.11355274 -0.037913676 0.009619706 -0.03232841 -0.105093636 -0.0007788577 -0.013409003 0.014659635
-0.09451871 0.032688662 -0.09517427 -0.10022754 -0.13539119 -0.028569639 -0.13603604 -0.05119398
-0.011031822 0.05495441 0.06544553 -0.02214415 0.0522108 -0.12334652 -0.0034968995 -0.09081185
0.051356446 -0.14076248 0.021813026 -0.07653992 0.033411726 -0.029305533 -0.014082785 0.0049735126
0.0049056704 -0.09690553 0.06793189 0.02250664 0.002015476 0.022577174 0.0027607975 0.05410911
-0.0368735 0.001652911 -0.03366457 7.989199e-06 -0.075818196 -0.013594037 -0.13266651 -0.004362034
-0.11152373 0.008665998 -0.053927805 -0.13219559 -0.1420027 -0.073537245 -0.07990092 -0.124493755
-0.008390981 -0.000119590426 -0.00079939637 -0.006079007 0.008924366 0.0007249114 -0.0010509079 -0.0073988717
0.00017391748 -0.00087275973 0.0063115 0.008673874 0.0047074617 -0.014663757 -0.0019272917 0.0031911286
0.0040750755 8.4217325e-05 0.0020623817 0.0016331107 0.010425308 0.02554347 0.01722876 -0.01600152
-0.081063285 -0.027064512 0.0116168745 0.007287146 0.027029015 -0.03269969 0.009960584 -0.030938718
0.012659161 0.008304733 0.04384706 0.012354344 0.004667414 0.0014368924 0.025883129 0.034355044
0.023927374 0.05076766 -0.12372223 -0.020477394 -0.012762881 0.08366133 0.050630722 0.01528132
0.0036180054 -0.015825534 0.0774313 0.030405294 -0.1148582 -0.03408471 0.007467643 -0.16177334
-0.0050298697 -0.051797 0.08308518 0.02671109 -0.01399685 0.091535464 0.07777207 -0.02577512
0.070524596 -0.05211188 -0.09120791 -0.07618826 0.070105776 -0.030837135 0.05155234 -0.003803553
0.021905446 -0.05545465 0.07197406 0.032824215 -0.0057147127 -0.051121347 0.04037191 0.029640293

layers.3.bias f4 [10]
00000000: 0980 6bbb 5409 2fba 077d 1b3c 5a3d 95bb
00000010: 3b4b 93ba 7a9e fbbb ebb4 60bc e065 783d
00000020: 3a70 b9bc aa98 b43b
-0.003593447 -0.000667711 0.009490258 -0.004554433 -0.001123763 -0.007678804 -0.013715009 0.06064403
-0.022636522 0.005511363

layers.5.weight f4 [10]
00000000: 6eee 283f 1e88 133f dfaa 203f a35a 133f
00000010: 9c13 133f 54a4 1d3f 9e0e c23c 880e 883e
00000020: d49e 513e 83bb 203f
0.65988815 0.57629573 0.6276073 0.57560176 0.57451797 0.6157887 0.02368861 0.26573586
0.20470744 0.6278612

layers.5.bias f4 [10]
00000000: 569f 263d a70d 813d c692 e33d 79c1 47bd
00000010: 2785 823d 720b 74bd dfdf 4fbf c9f0 3d3f
00000020: aacb 34bf 2a51 3f3d
0.0406793 0.06301432 0.11111979 -0.048768494 0.06373053 -0.059581228 -0.81200975 0.74195534
-0.70623267 0.046708263

layers.5.running_mean f4 [10]
00000000: d8b1 e83b 6486 253c 98e6 833c 45de 7f3b
00000010: 065f 2b3c e7b1 553b 0400 0000 ca89 7f3d
00000020: bc4b 203a f1ae 5a3c
0.0071012788 0.010102842 0.016101167 0.0039042395 0.010459667 0.0032607259 6e-45 0.062387265
0.0006114801 0.013347373

layers.5.running_var f4 [10]
00000000: d921 4d38 2a92 a038 b55d 1139 f902 1a38
00000010: f3c5 e538 45ce 0438 0400 0000 a21e 5a38
00000020: b845 3737 735a 1839
4.890733e-05 7.65662e-05 0.00013863186 3.671923e-05 0.00010956442 3.1663356e-05 6e-45 5.200378e-05
1.0923883e-05 0.00014529545

layers.6.weight f4 [3, 10]
00000000: a84b 213f 34a5 233f ae57 3d3f 1ad3 10bf
00000010: 37e4 243f a77b 1dbf 72a4 a8bd 7b96 053e
00000020: e01e 06be e3af 263f b5ca b23e 3d2a 183e
00000030: b63e d5be 2e83 6dbe fde0 933d bb2a 13bd
00000040: a8c9 b33f 78d5 25c0 2eeb e73f 19b4 cb3e
00000050: fa04 2cbf 5653 24bf eca4 31bf 4350 143f
00000060: 8767 24bf 70a6 1e3f 6ddb e43c 789b 7fbd
00000070: 969c 913d 9847 2cbf
0.6300607 0.63923955 0.73961914 -0.56572115 0.6441073 -0.61516804 -0.082344905 0.13045685
-0.13097715 0.6511213 0.34920278 0.14859863 -0.41649407 -0.23194572 0.072206475 -0.035929423
1.4045916 -2.591154 1.8118646 0.3978584 -0.67195094 -0.6418966 -0.69392276 0.5793497
-0.6422047 0.61972713 0.027936662 -0.062404126 0.071099445 -0.67296743

layers.6.bias f4 [3]
00000000: 793e bc3d 2f9c b6bf a399 16bd
0.09191603 -1.4266413 -0.036767613

exp_avg f4 [20, 101]
00000000: 3ef8 333c f245 2bbb 9440 4bbc 8454 5abb
00000010: 963c 963c 0102 a7bb ecd3 b8bc bd45 dabb
00000020: 8df8 583c e150 fabb d45d 733b 642c c43c
00000030: a2c0 123c 5297 86bb 673e 493c 5fa9 8ebc
00000040: 72a2 4a3c 1c2c 003d c475 f83b ffcd c73c
00000050: 92ef 7ebc a5e3 d33b d393 71bc 498f e83a
00000060: f757 913c 3599 ce3c 6152 353c 01ad 61bc
00000070: d9ec 96bc 16ed 43bb 51f9 edbb 753e a4bb
00000080: 6c15 013c 18b8 8abb d417 1bbc cfe2 53bc
00000090: 8a61 afbc 8ae2 afbc 597f 83bb 5aae 423c
000000a0: e5ea 1cbb afa0 adb9 6874 af3a 5f96 68bb
000000b0: ad99 8ebc 0315 953d 05dd 37bc b5ba a2bc
000000c0: 7038 8eba 5a87 95bc 1186 3cbd 1d4c 523c
000000d0: 6fc3 063c 3eac fb3b f7ed d83c 6e72 b2bc
000000e0: 8b15 98b9 5947 54bb 6133 723c 3a3e 24bd
000000f0: f590 0c3c 922c 7bbb 09d5 873c 27fa ed3c
00000100: 3c9f 4a3b b658 a13b 1d84 3cbc 5825 0c3d
00000110: c840 8d3c d937 38bd ee45 7fbb 5f6a 13bc
00000120: bb8c 59bb 5157 86bc e135 1ebc 7641 74bb
00000130: 9019 b83c 7c07 fcba 882a 7d3c 5248 fabc
00000140: 8814 5d3c 229d f03c e76d e7bb 7efc 4ebc
00000150: eb29 923c 13c5 7a3c c1f2 1cbc fdb5 c2bc
00000160: 26a3 2dbc 3ed4 d53c d004 633b 5793 883c
00000170: e5b9 4a3b 1339 fabc 4bd0 1bba 14a5 5d3c
00000180: 7e34 0b3d 4d54 b43b 65f3 b5bc 87a3 17bb
00000190: 0bed 9f3b f8c8 433b bf6d e8bc 609a 20bb
000001a0: 270b 37bd bd6e dcbc 6584 7fbb 9356 9bbc
000001b0: 160a ae3c 1ef2 82bb ad9b 903c aeff 823c
000001c0: 00f7 12bc 87db 85bc 3b30 d6bc 57b0 e93c
000001d0: d05c 7bbc e0a4 3fbc 185c 2f3b 206b 92bb
000001e0: 0420 01bd 23ee afbb 9ebd 0c3c 0724 19bd
000001f0: 6fe6 b9bb c568 bbbb d8c7 61bb 1f38 023c
00000200: 59c1 bb3c a265 f43c 77eb 333d 3072 e13b
00000210: 7c9a f9bb 965c 953c 79d3 3cbc f46a 3bbc
00000220: 8e14 013c 6b7a 82bc e9a8 2fbd ac34 613b
00000230: c161 b53b 0ca3 3a3a fd72 5bb9 f41c 653c
00000240: f107 e9bc 4a17 143d 1ff3 8eb9 6a6c d63c
00000250: 034d 5bbc d578 2b3a a854 c8bc efaf 2bbd
00000260: 88e8 403b 3e42 af3c dc19 d3bc 0870 d3bb
00000270: 117b 8e3b 1020 b53c 2b19 763c 8a3a 533c
00000280: 5a0b d8bc aee2 0dbd e1ec b5bb 34c7 6a3b
00000290: 855c 7d3b 9d27 f73c a0f4 21ba 3333 923c
000002a0: 432f 2d3d 7a8d ab3b 9b79 14bd e7e0 cebc
000002b0: b08e b83c 65cf d6bc 4c3d 683c 13b6 9d3c
000002c0: fa19 6e3c f598 443c 72ea e03a ce3e 8abb
000002d0: 5e2b 68bc 2aea 193c 41e0 88bc 8476 193c
000002e0: 591e b93c 3fa8 8e3c 6491 b5bc ff8c adbb
000002f0: 93f4 d6bc eb11 853c 17a3 b63c 0a6d 08bc
00000300: 6bd4 b23c dd70 15bc 9fcb cb3c c9fc 4dbc
00000310: 7da2 4d3c 763a 0dbd 6206 c53c 6567 0b3c
00000320: c3c2 04bb cf44 fc3b c95c 073c d93e 023b
00000330: f6d8 c23c aa54 123d f035 ddba a5bb 853b
00000340: 7783 5c3d 14b4 83bc 912c fcbb 9fb7 4a3b
00000350: d691 043c 453f 0c3c 2ea1 523c 8a5e 57bc
00000360: ef75 35bc f6d9 2d3b 083e 88bc 29fb 89bc
00000370: 4512 963b f86a 41bc 3a3b abbb 70b3 a63b
00000380: 8431 8c3b d5ac 913c 2508 6ebc bba7 343c
00000390: 2c66 0a3b 9537 a3ba f064 da3a a665 d03c
000003a0: 077c 93bb af39 8ebc 34be 9ebc 9c06 e53b
000003b0: 0e7c af3a a44b 913c d127 d0ba 1b44 2c3d
000003c0: 2f61 83bd 538c 77bc 9aea 53bb 006f 013c
000003d0: 2455 c4bb 92e5 1bbc f421 773b 6bb0 4bba
000003e0: ac51 393c 2d6c d0bb 0ecb da3c ca6b 74bc
000003f0: 8623 2dbd a3e3 b43c d70d c53b a24e 9c3c
0.0109844785 -0.002613422 -0.012405533 -0.0033314535 0.018339437 -0.0050966744 -0.02256199 -0.0066611455
0.013242853 -0.007639036 0.0037134783 0.023946948 0.00895706 -0.0041073943 0.012282944 -0.017414747
0.012367832 0.031292066 0.007582398 0.024390219 -0.015560048 0.0064663463 -0.014744717 0.0017742898
0.01774214 0.02521954 0.011067004 -0.0137741575 -0.018423485 -0.0029895953 -0.007262387 -0.0050123283
0.0078786425 -0.0042333715 -0.00946613 -0.012932493 -0.021408815 -0.021470327 -0.0040129838 0.011882389
-0.002394372 -0.0003311685 0.0013386132 -0.0035490019 -0.017407263 0.07279398 -0.011222129 -0.01986442
-0.001085056 -0.018253017 -0.046026293 0.01283553 0.008225306 0.007680445 0.026480658 -0.02178308
-0.0002900775 -0.003239116 0.0147827575 -0.040098406 0.008579482 -0.0038326127 0.016581075 0.029049946
0.0030917665 0.0049239052 -0.011506108 0.0342153 0.017242804 -0.044975135 -0.0038951593 -0.008997529
-0.0033195454 -0.016399058 -0.0096564 -0.0037270463 0.022473127 -0.0019228305 0.015452035 -0.030552063
0.013493665 0.029371802 -0.007062662 -0.012633441 0.017842254 0.015305775 -0.009579361 -0.02376842
-0.01059798 0.026102182 0.003464032 0.01667182 0.0030933556 -0.030544793 -0.0005943819 0.013528127
0.033985607 0.0055032135 -0.022210786 -0.0023138241 0.0048805526 0.0029874425 -0.028372644 -0.0024506077
-0.04468837 -0.026908273 -0.0038988825 -0.01896218 0.021245044 -0.003996148 0.017652357 0.015991058
-0.008970022 -0.01634003 -0.026146045 0.028526468 -0.015341952 -0.011697024 0.0026757773 -0.0044683367
-0.031524673 -0.0053689643 0.00859013 -0.037387874 -0.005673222 -0.0057192766 -0.0034451392 0.007947951
0.022919344 0.029833619 0.04392573 0.0068800673 -0.007617293 0.018232625 -0.011525028 -0.011439074
0.007878436 -0.015927514 -0.042885695 0.003436367 0.005535335 0.0007119633 -0.00020928304 0.013983954
-0.02844617 0.036155023 -0.0002726549 0.026174743 -0.01338506 0.00065411377 -0.02445443 -0.04191583
0.0029435474 0.021393891 -0.025769167 -0.006452564 0.0043481668 0.022110015 0.015020649 0.012892375
-0.0263726 -0.034640007 -0.00555192 0.00358243 0.0038659882 0.030170256 -0.00061781146 0.01784668
0.0422814 0.005235371 -0.036248785 -0.025253726 0.022528976 -0.02622194 0.014174771 0.019251859
0.0145325605 0.011999358 0.0017159714 -0.0042189127 -0.014170496 0.009394208 -0.016708495 0.009366635
0.022597479 0.01741421 -0.022164054 -0.005296349 -0.026239669 0.016243896 0.022294564 -0.008326778
0.021829804 -0.009121147 0.024877368 -0.012572476 0.012550947 -0.03447958 0.024050895 0.008508538
-0.0020257689 0.0076986323 0.008261868 0.0019873886 0.023785096 0.035725273 -0.0016877037 0.004081207
0.053836312 -0.016077079 -0.0076957424 0.00309322 0.008091411 0.0085600065 0.012855811 -0.013145098
-0.011075481 0.002652762 -0.016631141 -0.016843395 0.0045798146 -0.0118052885 -0.005225566 0.0050873086
0.0042783637 0.017782608 -0.014528309 0.011026318 0.0021118028 -0.0012452478 0.0016662162 0.025439095
-0.004500869 -0.01736149 -0.019377805 0.0069893133 0.0013388412 0.017736264 -0.0015881007 0.042057138
-0.06415021 -0.0151091395 -0.0032335878 0.0079 -0.005991595 -0.009515183 0.0037709447 -0.0007770124
0.011310976 -0.006360552 0.026708152 -0.014918277 -0.042270206 0.022081202 0.0060136127 0.019080464

exp_avg_sq f4 [20, 101]
00000000: 3a9a 173c edcc a53c 2cc8 bb3b 130a 3e3c
00000010: d930 133c 4345 f33b e986 a83c addf c13b
00000020: 97f1 993b f1dd a93b 5edc db3b 8204 803c
00000030: 9f82 033c 40b3 c23b 379b fb3b 6b71 403c
00000040: 7fed 833b 8bdb 703c a1b9 b73b c62c 913c
00000050: 76c8 183c 69d6 463b 5ef6 323c 607d f23b
00000060: 083b ab3b 79c3 a53b 4c9b 313b f20f 413c
00000070: fabe 093c f2f5 bb3c 7152 d83b 2f9a cd3b
00000080: 2d71 403c b21e f13b 2838 ad3b 2996 ef3b
00000090: 826e 223c 36dc 503d bac9 ae3c 04fe c63b
000000a0: bffb d53b 2510 1d3c 85e8 ee3b c2c3 ad3b
000000b0: fe25 533c f650 3c3d aa28 493c 1244 9d3b
000000c0: 1cb2 823b 9105 363c 5705 003d 2f21 a43b
000000d0: 6701 103c a550 233c 85cb cb3b b39a 003c
000000e0: 98b8 b43b a46b e33b cab8 ce3b fb53 5b3c
000000f0: a7ad fc3b 44f3 b33b c74c 673c 1d06 5d3c
00000100: 7643 403c bc17 223c 1e11 c43b d650 863c
00000110: 041b 253c 4b3a 713c 0490 073c c984 703c
00000120: 4cd3 fd3b 0001 d73b 4529 cd3b 7e04 c93b
00000130: c634 f43b fa8d 963b 70fb 273c 8983 173d
00000140: a540 1f3c 5343 003c 59b4 a23b c942 8a3c
00000150: 9c17 aa3b 09e7 e63b be12 313c a76c 913c
00000160: b4a7 713c c281 9b3c f43c 1c3c 0676 163c
00000170: e717 b13b e8b1 6f3c c867 2e3c 1924 8a3c
00000180: 3e60 c33c f1b0 6e3c dcee 023c c598 733c
00000190: c5e1 593c f8a2 463c 4dd4 103d fec9 1e3c
000001a0: 39b3 b03c 4565 213c fbdb ef3b 0b5f 9c3c
000001b0: a832 353c 4da7 eb3b 75e4 9e3b d1ba eb3b
000001c0: ea0f a13c 8bc4 2c3c 9013 f33b a02c 423c
000001d0: dd1b 9e3c 1892 7d3b fc85 8a3c 2bc9 023c
000001e0: 7c75 9e3c cedf 523c 3d95 7e3b c1e7 593c
000001f0: 9a4d 4b3c 9530 ed3b 3f59 e83b 9164 403b
00000200: 0898 393c d8ea 673c 66ee c53c 4694 b73b
00000210: 03e5 253c a902 403c dc4a a73b 80a9 a53b
00000220: 5e62 023c 022b 723c f04d 963d 1391 c73c
00000230: ecd9 173c ae23 053c 2544 343c 5173 3b3c
00000240: 5470 2d3c 0a04 873c 9db6 343d df7a 4b3c
00000250: 00a7 e33b cf20 d13b 25e7 5c3c 0d7f 333d
00000260: 9fe3 9b3b 7b3d 823c f558 463c 5693 e83b
00000270: 9a6b ee3b b3c9 153c 61db 173c 6282 263c
00000280: 8060 973c 2fc7 373c 5296 033c c1f7 8f3c
00000290: ff0c 4f3c ab8f 9f3c 6883 223c 6600 f43b
000002a0: 7e5c b23c 1919 103c 939d 923c e207 333c
000002b0: cfb0 8f3c ee05 4a3c d024 3c3c b3a8 c63b
000002c0: 8e2e 3d3c 41d4 1b3c c2a9 1c3c b074 243c
000002d0: 02b6 433d 6993 433c 5927 f03b f264 fb3b
000002e0: 826e b43c f914 df3b 2e3c f33b dd39 1c3c
000002f0: c3af b23c 8381 6c3c 487d db3c 4062 593c
00000300: 0c5f 853c ff9b a53b 0d36 643c 3e2f 853c
00000310: 973c 6f3c 3368 dc3c 6a56 d23c 38f2 f03b
00000320: fabe ba3c 3870 2d3c 799c 2a3c c352 d63c
00000330: 1251 043c 428a a33c 3fa9 293c 4e3a 033c
00000340: a9d0 ba3c c798 da3b 8f49 ca3b 0a86 dc3b
00000350: 6668 e83b 0e3b ce3c f38b 203c bb9c bc3b
00000360: 5208 dc3b 59fd 473c e0b5 843b cdd0 593c
00000370: a737 e43b 34d2 a03c 2180 283c d2e7 923b
00000380: 7ef3 2e3c 1396 3e3c c7b3 c63b 8aca dd3b
00000390: 4722 3e3b 0a49 313c b0f0 293c 4c1f d03c
000003a0: 0541 ff3b 1c6a 063c 382a 2f3c 409a d73b
000003b0: 6284 813b 05ba fe3b 64ff 103c 1471 723d
000003c0: f77e b73c f107 fb3b a3e5 0e3c 8bfb 233c
000003d0: 0c26 033c 4d2a 063c 615f 573c 642d 433d
000003e0: dd38 4c3c ecaa a13b 8e46 953b 91e6 563c
000003f0: eaf0 0b3d 9f55 aa3b e993 573c 1be5 573c
0.009253079 0.020239318 0.0057306495 0.011599082 0.008983814 0.007424028 0.020572143 0.005916557
0.004697989 0.005183928 0.0067096194 0.01562715 0.008026748 0.0059417784 0.007678415 0.011745791
0.0040261145 0.014700781 0.0056068455 0.017721545 0.009325137 0.00303402 0.010922996 0.0074002
0.005225543 0.0050587025 0.002710062 0.011783587 0.008407349 0.022944424 0.0066016247 0.0062744836
0.011745733 0.0073583955 0.0052862354 0.0073116017 0.009914042 0.05099126 0.021336425 0.0060727615
0.0065302546 0.009586369 0.007290902 0.005302877 0.012887476 0.045975648 0.0122777615 0.0047993744
0.0039885174 0.011109726 0.031255092 0.0050088386 0.008789397 0.009967958 0.00621933 0.007849383
0.0055151694 0.006940322 0.0063086497 0.013386722 0.0077111307 0.005491646 0.014117426 0.013490227
0.011734834 0.009893354 0.005983486 0.016395967 0.010077242 0.014723371 0.008274082 0.014680096
0.007746136 0.0065613985 0.006261023 0.0061345687 0.00745258 0.0045945616 0.010252818 0.036990676
0.009720002 0.007828551 0.004965347 0.016877549 0.0051908027 0.0070465845 0.010807691 0.017752005
0.014749456 0.018982772 0.009536017 0.009183412 0.0054044607 0.0146298185 0.010644861 0.016862916
0.023849603 0.014568553 0.007991519 0.014867966 0.013298457 0.012123816 0.035358716 0.009691713
0.021569835 0.009850805 0.007319925 0.019088289 0.011059441 0.0071915747 0.0048490115 0.007193901
0.019660909 0.010544906 0.0074181035 0.01185146 0.019300396 0.0038691815 0.016909592 0.0079825325
0.01934313 0.012870742 0.0038846277 0.013299883 0.012408638 0.0072384574 0.007090717 0.0029356817
0.011327751 0.014155112 0.024161529 0.0056023924 0.010125401 0.011719384 0.0051053595 0.0050556064
0.007958023 0.014780762 0.07339084 0.024361169 0.009268265 0.0081261825 0.011002575 0.011441068
0.010585863 0.016481418 0.044119466 0.0124194315 0.006947398 0.006382085 0.0134828435 0.043822337
0.004757359 0.015898457 0.01210617 0.007097642 0.0072760107 0.009142327 0.009268613 0.010162922
0.018478632 0.011216923 0.008031445 0.017574193 0.012637376 0.019477686 0.009919025 0.0074463366
0.02177262 0.008795046 0.017897403 0.010927172 0.017540364 0.012330515 0.011483386 0.006062591
0.011546744 0.0095110545 0.009561958 0.010037586 0.047780998 0.011937001 0.0073289094 0.0076719457
0.02202535 0.00680792 0.0074229455 0.00953528 0.021812325 0.014435175 0.026793137 0.0132680535
0.016280673 0.0050539966 0.013928902 0.016257878 0.014601848 0.026905155 0.025675971 0.0073530935
0.022796143 0.010585837 0.010413283 0.02616251 0.008075969 0.019963387 0.010355293 0.008009506
0.022804575 0.0066710445 0.0061733196 0.006729846 0.0070925234 0.025174644 0.0097989915 0.0057559884
0.006714859 0.012206399 0.0040500015 0.013294411 0.006964642 0.019631483 0.010284455 0.0044832015
0.01067817 0.01163246 0.0060639116 0.0067685293 0.002901213 0.0108206365 0.010372326 0.025405549
0.0077897334 0.008204009 0.010691218 0.0065796673 0.003952549 0.00777364 0.008849952 0.05918987
0.022399409 0.007660859 0.008721742 0.010008703 0.008004677 0.008188796 0.013145299 0.04765071
0.012464729 0.0049337056 0.00455553 0.013116495 0.0341653 0.005198195 0.013157823 0.013177182

exp_avg f4 [10, 20]
00000000: 44a3 503b b00f 5fbb 0f42 62bc 4ec3 643c
00000010: 9767 04bb 364c 5a3c f7e1 29bc 03d9 4dbb
00000020: 56c3 5d3a 9c9b 0ebd cf04 613c 564f 3b3d
00000030: a983 49bc 10d3 a6b9 6f49 eabc 2948 cfbb
00000040: a119 88bc 243e 44bb c5b7 cbbc 3bf0 8cba
00000050: 75b1 fe3c ad66 bfbb 599d 39bc 062d ebbb
00000060: a7d8 25bc e5de 5b3c 1461 12bc 0562 c8bc
00000070: fa09 8e3a ae6e 33bc 0266 b93c 09c3 28bc
00000080: 82b0 d3bc 0541 073d 0775 8bbc cc39 b5bc
00000090: 6b30 8fbc 94c0 eab9 9371 cabc 835e 533b
000000a0: 1972 983b 784e 17bb 8a37 3fbc 8e21 b1ba
000000b0: b236 e1bb 94c7 c73c f686 90bc 92cf 14bd
000000c0: 0f49 acba 4412 3cbd 8d9b 563c 3874 723b
000000d0: e708 46bc db5b fa3c 6a47 92bc c8b3 3cbc
000000e0: 735a 273c 8f14 d4bc e595 bfbc 243e c8bc
000000f0: 0abe 1fbd 573b 043a f277 1f3c f94a 5b3c
00000100: 4185 ae3b 0e99 f03b 623e 4cbb f20b c03c
00000110: f22f 95bb a232 9c3c 3053 c4bb 45e9 0cbd
00000120: 2905 84bc d359 a1bc 5647 d13b 8060 0c3c
00000130: ff7e 1dbc d0b3 96bb 52a7 24ba 0dd2 4a3c
00000140: a948 a53c 8b07 993c 8128 84bb 6f23 c838
00000150: 5b75 eeba b822 103c 4763 acbc a363 30bc
00000160: 7512 213c ae1e e5bb 85a4 b73b 8255 74bb
00000170: d755 5fbc fcce a83c cd31 80bc 17b3 5cbc
00000180: 756a 08bc 695b 213b e08f bfbc 5fb4 86bb
00000190: 331d 8abc c805 b6bb 61c8 4d38 903e 653b
000001a0: 1ed9 a23b 6de7 003c 2888 bd3a 84c5 fd3c
000001b0: 51d9 163b d735 1a3c 33b9 ec3b 32f2 94bc
000001c0: 88f5 893a cdb9 493a 7131 533c e1f0 cf3c
000001d0: 101f c3bb fae0 f53b e70c 303c d13c cebb
000001e0: 0300 0080 0300 0000 0300 0080 0300 0080
000001f0: 0300 0000 0300 0080 0300 0080 0300 0080
00000200: 0300 0080 0300 0080 0300 0080 0300 0080
00000210: 0300 0000 0300 0080 0300 0000 0300 0080
00000220: 0300 0000 0300 0080 0300 0000 0300 0080
00000230: 6cbc 273b 2a5b 593a f822 ceba 48b0 52ba
00000240: 68ac 31bb d607 ac3a 3576 bfba ff18 11bb
00000250: 2e2c adba b88f 83bb cd6f 80ba 4af0 c0ba
00000260: 9c0b f1b9 b96d 593b 0268 67bb 4f44 1bbb
00000270: 7638 aa3a f80c 84b9 7983 5cbb 8554 55ba
00000280: 3b7e afb9 fb95 36b9 5586 023a d4c4 5339
00000290: 017f d439 b8f6 8eba c72b 60b9 d59a 23ba
000002a0: b0bd 9039 f7b5 4338 792b b4ba df73 a1b9
000002b0: b90a 9839 00a2 26b9 e612 d4b9 8403 7d39
000002c0: f4d8 6dba f38d a539 4392 083a 9024 f1ba
000002d0: 761b ff3c cffb 243b 48de 86bb f70c eebb
000002e0: c960 41bc a081 003d f3e2 bcbb 246a 30bd
000002f0: abe8 bf3b 6fac 03bd 5852 343c 4920 be3c
00000300: 74c5 643c f16f ac3c 7b72 cabc b458 71bc
00000310: a07b bb3a fd9a 6fbb bb78 0dbc 2e7e 31bc
0.0031835595 -0.003403645 -0.013809695 0.01396258 -0.0020203346 0.013323834 -0.010368816 -0.0031409867
0.0008459588 -0.03481637 0.013734057 0.045729958 -0.012299457 -0.0003181924 -0.028599469 -0.006325741
-0.016613783 -0.0029944265 -0.024867902 -0.0010752747 0.031090477 -0.0058410973 -0.0113290185 -0.007176998
-0.010122455 0.013419841 -0.008934278 -0.024460802 0.0010836713 -0.010951681 0.022631649 -0.010300406
-0.025841001 0.03302099 -0.017023576 -0.022122286 -0.017479142 -0.0004477544 -0.02471236 0.0032252378
0.0046522734 -0.0023087543 -0.011670956 -0.0013514028 -0.0068729753 0.024387158 -0.01764248 -0.036330767
-0.0013144332 -0.045915857 0.01309861 0.0036995541 -0.012087083 0.030561378 -0.017856319 -0.011517473
0.010214436 -0.02588871 -0.023386905 -0.024443693 -0.038999595 0.0005044243 0.009733187 0.013384574
0.0053259437 0.0073424643 -0.0031165113 0.023443196 -0.0045528347 0.019067112 -0.005991362 -0.03440215
-0.016115742 -0.019696152 0.0063866777 0.008567929 -0.009612798 -0.004599072 -0.0006281036 0.012379182
0.020176249 0.018680355 -0.0040331488 9.543343e-05 -0.0018192934 0.00879734 -0.021043433 -0.010765943
0.009831061 -0.0069921827 0.005604329 -0.0037282412 -0.013631306 0.02060651 -0.015648747 -0.013470433
-0.008326163 0.0024621135 -0.023384035 -0.0041108574 -0.016859626 -0.0055548884 4.9062426e-05 0.0034979917
0.00496973 0.007867676 0.0014460133 0.030977972 0.0023017714 0.0094122505 0.007224226 -0.018181894
0.0010525445 0.0007695228 0.012890206 0.025383415 -0.0059546307 0.007503626 0.010745264 -0.006293871
-4e-45 4e-45 -4e-45 -4e-45 4e-45 -4e-45 -4e-45 -4e-45
-4e-45 -4e-45 -4e-45 -4e-45 4e-45 -4e-45 4e-45 -4e-45
4e-45 -4e-45 4e-45 -4e-45 0.0025594486 0.00082914776 -0.0015726974 -0.0008037132
-0.0027110819 0.0013124894 -0.0014607372 -0.0022140143 -0.0013212019 -0.0040149353 -0.0009798944 -0.0014720049
-0.00045975752 0.0033176972 -0.0035309796 -0.0023691838 0.0012986797 -0.00025186664 -0.00336477 -0.00081378996
-0.0003347265 -0.00017412745 0.00049791235 0.00020195852 0.00040530416 -0.0010907268 -0.00021378613 -0.00062410283
0.00027607149 4.666109e-05 -0.0013745866 -0.00030794644 0.00028999688 -0.00015891343 -0.0004044987 0.0002412927
-0.0009073161 0.00031577013 0.0005209783 -0.0018397737 0.031141024 0.0025174504 -0.0041158535 -0.007264729
-0.011802861 0.03137362 -0.005764359 -0.043069974 0.0058565936 -0.032146867 0.01100596 0.023208754
0.013963092 0.021049472 -0.024712792 -0.014730621 0.0014303811 -0.0036560886 -0.008634741 -0.010833306

exp_avg_sq f4 [10, 20]
00000000: 2ce7 dd3a eb3c 193b e057 5e3c 9db6 ca3b
00000010: 972d 453c 8364 923b 6d3e 293b 3276 8e3b
00000020: 2512 cf3b 877c 223d 2d8f 973c a0e4 6d3d
00000030: 592d c53c 2fc2 733b 5ddb a23b 17be e03c
00000040: cf1d 653d d2e2 f03a 3c44 433c d4fa 803c
00000050: b918 d93c 7de6 063b b2ae 423c ecf3 363c
00000060: 291b cf3b 5272 c13c 3fbc ac3a c6f6 643d
00000070: 9e35 ac3b 0272 283b 6aaa 8b3c 8efa 353b
00000080: 37ee 543c ee73 bd3c b6f7 293b 22b9 f53c
00000090: d2c1 1e3d 588c b13a 7e8a 203c c529 743c
000000a0: 77b7 773b 9b62 653b 1a82 6a3c 62ba 943c
000000b0: 5ef1 1b3c 8e5c d03c c863 ea3b fc02 663d
000000c0: ebf2 183c c2c0 763c 71d3 9e3c e4f6 de3c
000000d0: 0d22 a33c 8c04 de3c 5f41 fb3b 4682 053d
000000e0: 35e0 2d3d 5df2 bc3c 834d 593c 3d8b 893c
000000f0: 4036 a33c 1ac2 b33b b75b 943b 68f5 513c
00000100: d379 f23a acb2 883b f3c5 093c e3c1 843c
00000110: 2079 123b 71dd df3b ff10 953c 14af e03c
00000120: a098 b73b 1678 bd3c daf7 803a 7863 893b
00000130: a06f 7e3b b78e b73b 121b d03a 77dc 663c
00000140: b06b 933c ca25 dd3b 81d5 fa3b 3690 743c
00000150: 3e9d a13b 15ee c33a 0d3a 693c 738a 7b3b
00000160: 7ac1 a63b c9ff 533a 7127 0b3c 16c0 ca3b
00000170: ab81 2b3c a675 8c3c 5771 143b 191b 713c
00000180: 13ab db3c e6e9 983a 1ef6 253c 2efa 1e3c
00000190: 32ca 8c3c e22c cd3a 33ad 9a3c 592f 733c
000001a0: c5a1 fe3b e870 9d3c 0748 e13a 30a2 263d
000001b0: 2c92 0d3b 76c2 f53a 8525 843b 0cd9 d33c
000001c0: 3fb7 573b 6a51 2d3c 92d0 bd3a e2f7 7f3b
000001d0: c2b0 b13b c86c 843a 08b9 753b 1842 8c3b
000001e0: 3200 0000 3200 0000 3200 0000 3200 0000
000001f0: 3200 0000 3200 0000 3200 0000 3200 0000
00000200: 3200 0000 3200 0000 3200 0000 3200 0000
00000210: 3200 0000 3200 0000 3200 0000 3200 0000
00000220: 3200 0000 3200 0000 3200 0000 3200 0000
00000230: 0c78 8939 af6a 9738 bc8f 0439 6bf9 3d39
00000240: 63e5 0739 6093 073b c200 0f39 045f 053a
00000250: 00dc f738 517c df39 11a8 8a39 596e 013a
00000260: e107 4939 86fa 6a39 24ca d538 c2a4 9239
00000270: 9dd3 f139 a943 8939 a12f 8539 c3c4 2139
00000280: 3265 0b39 88e8 9b36 bc0a e436 a4b6 3737
00000290: ce70 4838 3663 e839 5ccf e337 dffa d338
000002a0: 9a35 8b36 cf85 4238 dd97 d338 a3ec e538
000002b0: aff7 c036 eba7 5937 ece6 6a37 2bfc 0237
000002c0: b78b 8238 4f20 7136 7ac5 0d39 67fb 4938
000002d0: 6350 a23c bf26 083b 2b60 383c 1648 6f3c
000002e0: d7ec ff3b 8b0e 683c c500 213b 8922 533c
000002f0: 91ac f73b 04a3 b93c e968 853c f1ec e23c
00000300: 9510 643c b54e 8e3c 3d3b 043c 9eae a53c
00000310: d5db 003d 1c00 4f3c cb16 193c 2a17 533c
0.0016929857 0.0023382257 0.013570756 0.00618632 0.012034795 0.0044675483 0.0025824562 0.004347586
0.0063193017 0.03966954 0.018500889 0.058079362 0.024069475 0.00371946 0.004969998 0.027434392
0.05593663 0.0018378145 0.011918124 0.015744604 0.026501046 0.002058416 0.011882471 0.011166554
0.0063203764 0.023614082 0.001317866 0.055899404 0.005255415 0.002570272 0.017049033 0.002776775
0.012996248 0.023126569 0.0025935 0.029995505 0.03875906 0.0013545854 0.009798644 0.014902537
0.0037798563 0.00350014 0.014313245 0.01815528 0.009517996 0.025434759 0.007153008 0.05615519
0.00933526 0.0150606055 0.019387932 0.027217336 0.019913698 0.027101777 0.007667705 0.03259494
0.04245015 0.023064787 0.013263109 0.016790027 0.01992333 0.005485785 0.004527535 0.012814857
0.0018499441 0.00417169 0.008409011 0.016205734 0.0022350028 0.006831818 0.018196581 0.027427234
0.005602911 0.02312855 0.000983949 0.004192766 0.0038823858 0.0056017297 0.0015877208 0.014090649
0.017995685 0.0067488896 0.007654846 0.014926961 0.004932075 0.0014948273 0.014235032 0.0038382083
0.005088982 0.0008087126 0.00849329 0.006187449 0.010467927 0.017145943 0.0022650564 0.014715933
0.026814973 0.0011666387 0.01012948 0.009703202 0.017186258 0.0015653635 0.018881416 0.0148428315
0.0077707493 0.019218877 0.0017187604 0.040682018 0.0021602018 0.001874997 0.004032793 0.025860332
0.003291562 0.010578493 0.0014481714 0.0039057662 0.0054226825 0.001010322 0.003749432 0.00428034
7e-44 7e-44 7e-44 7e-44 7e-44 7e-44 7e-44 7e-44
7e-44 7e-44 7e-44 7e-44 7e-44 7e-44 7e-44 7e-44
7e-44 7e-44 7e-44 7e-44 0.00026220118 7.2201125e-05 0.00012642046 0.0001811736
0.00012960056 0.0020687208 0.00013637825 0.0005087706 0.00011818856 0.00042626497 0.0002644663 0.00049374026
0.00019171789 0.00022409306 0.00010194283 0.00027970044 0.00046124766 0.00026181087 0.00025403223 0.00015427456
0.00013293771 4.64643e-06 6.796179e-06 1.0950174e-05 4.7788773e-05 0.00044324406 2.7157068e-05 0.000101079924
4.148763e-06 4.6377823e-05 0.00010089551 0.00010963648 5.75088e-06 1.2973304e-05 1.4001253e-05 7.807316e-06
6.224907e-05 3.5930605e-06 0.00013520374 4.815627e-05 0.019813722 0.0020775048 0.011253397 0.014604589
0.007810216 0.014163624 0.002456711 0.012886652 0.0075584133 0.02266074 0.016285377 0.027700873
0.013919969 0.017371515 0.008070764 0.020224866 0.03145965 0.012634303 0.009343813 0.012883941

exp_avg f4 [3, 10]
00000000: 6ad0 d9bb dc48 16bb 143b d2bb 379e e73b
00000010: 796b 90bb 14ea c33b 4b6b d0bb d9f6 a53b
00000020: 86f3 8abb 9c0e bcbb d4c7 e638 ea5e 5eb9
00000030: a43b fcb8 91c9 6bb8 3bb7 10b9 e4fa dfb8
00000040: 6ea1 45ba d078 043a 23b2 18ba 278e 18b7
00000050: 4235 d63b cc2e 243b 042c d63b a4c6 e5bb
00000060: 33f1 943b 2a6a c0bb 751f e93b ee85 b6bb
00000070: c709 9e3b de5a bc3b
-0.0066471593 -0.0022931611 -0.006415734 0.007068421 -0.004407343 0.005978832 -0.0063604466 0.005064827
-0.004240456 -0.0057390463 0.000110044755 -0.00021206928 -0.00012027405 -5.621609e-05 -0.00013801169 -0.00010680201
-0.00075390085 0.0005053403 -0.0005824884 -9.093003e-06 0.0065371105 0.0025052307 0.006536009 -0.007012205
0.0045453548 -0.0058720307 0.0071143457 -0.005570165 0.004822943 0.005748137

exp_avg_sq f4 [3, 10]
00000000: 645a b739 1c46 5639 1d45 3e39 06eb 9539
00000010: c87a 3a39 9ae3 b639 c955 d63a 848f b03a
00000020: 4f1c ac3a 88a4 8939 668b 3b36 d0f8 a535
00000030: aa2f b335 d200 1935 544e 8b35 0255 2335
00000040: b9da 4836 8c3d 8e35 1db8 c335 bd70 8635
00000050: 9ce8 b739 7c7b 5439 6031 3d39 2027 9639
00000060: b1b4 3839 3f64 b639 56c0 d53a 50bc b03a
00000070: ea4e ac3a 544c 8939
0.00034971826 0.00020434748 0.00018145559 0.000285946 0.00017784082 0.00034883321 0.001635247 0.0013470505
0.0013130995 0.00026253262 2.7946312e-06 1.2365872e-06 1.3350411e-06 5.6998135e-07 1.0379104e-06 6.0845935e-07
2.9929636e-06 1.0597737e-06 1.4582216e-06 1.0016589e-06 0.00035077787 0.00020263897 0.00018042838 0.0002863938
0.0001761492 0.00034788434 0.0016307931 0.0013483856 0.0013146077 0.00026187545
